…
E0514 11:36:59.043333 24288 upgrade_proto.cpp:608] Note that future Caffe releases will not support V0NetParameter; use ./build/tools/upgrade_net_proto_text for prototxt and ./build/tools/upgrade_net_proto_binary for model weights upgrade this and any other net protos to the new format.
I0514 11:36:59.043509 24288 net.cpp:39] Initializing net from parameters: 
name: "CIFAR10"
layers {
  top: "data"
  top: "label"
  name: "data"
  type: DATA
  data_param {
    source: "/home/iis/deep/rcnn_packages/caffe-new/examples/mycifar10/cifar10_train_leveldb"
    batch_size: 32
  }
  transform_param {
    mirror: true
    crop_size: 227
    mean_file: "/home/iis/deep/rcnn_packages/caffe-new/data/ilsvrc12/imagenet_mean.binaryproto"
  }
}
layers {
  bottom: "data"
  top: "conv1"
  name: "conv1"
  type: CONVOLUTION
  blobs_lr: 1
  blobs_lr: 2
  weight_decay: 1
  weight_decay: 0
  convolution_param {
    num_output: 96
    kernel_size: 11
    stride: 4
    weight_filler {
      type: "gaussian"
      std: 0.01
    }
    bias_filler {
      type: "constant"
      value: 0
    }
  }
}
layers {
  bottom: "conv1"
  top: "conv1"
  name: "relu1"
  type: RELU
}
layers {
  bottom: "conv1"
  top: "pool1"
  name: "pool1"
  type: POOLING
  pooling_param {
    pool: MAX
    kernel_size: 3
    stride: 2
  }
}
layers {
  bottom: "pool1"
  top: "norm1"
  name: "norm1"
  type: LRN
  lrn_param {
    local_size: 5
    alpha: 0.0001
    beta: 0.75
  }
}
layers {
  bottom: "norm1"
  top: "conv2"
  name: "conv2"
  type: CONVOLUTION
  blobs_lr: 1
  blobs_lr: 2
  weight_decay: 1
  weight_decay: 0
  convolution_param {
    num_output: 256
    pad: 2
    kernel_size: 5
    group: 2
    weight_filler {
      type: "gaussian"
      std: 0.01
    }
    bias_filler {
      type: "constant"
      value: 1
    }
  }
}
layers {
  bottom: "conv2"
  top: "conv2"
  name: "relu2"
  type: RELU
}
layers {
  bottom: "conv2"
  top: "pool2"
  name: "pool2"
  type: POOLING
  pooling_param {
    pool: MAX
    kernel_size: 3
    stride: 2
  }
}
layers {
  bottom: "pool2"
  top: "norm2"
  name: "norm2"
  type: LRN
  lrn_param {
    local_size: 5
    alpha: 0.0001
    beta: 0.75
  }
}
layers {
  bottom: "norm2"
  top: "conv3"
  name: "conv3"
  type: CONVOLUTION
  blobs_lr: 1
  blobs_lr: 2
  weight_decay: 1
  weight_decay: 0
  convolution_param {
    num_output: 384
    pad: 1
    kernel_size: 3
    weight_filler {
      type: "gaussian"
      std: 0.01
    }
    bias_filler {
      type: "constant"
      value: 0
    }
  }
}
layers {
  bottom: "conv3"
  top: "conv3"
  name: "relu3"
  type: RELU
}
layers {
  bottom: "conv3"
  top: "conv4"
  name: "conv4"
  type: CONVOLUTION
  blobs_lr: 1
  blobs_lr: 2
  weight_decay: 1
  weight_decay: 0
  convolution_param {
    num_output: 384
    pad: 1
    kernel_size: 3
    group: 2
    weight_filler {
      type: "gaussian"
      std: 0.01
    }
    bias_filler {
      type: "constant"
      value: 1
    }
  }
}
layers {
  bottom: "conv4"
  top: "conv4"
  name: "relu4"
  type: RELU
}
layers {
  bottom: "conv4"
  top: "conv5"
  name: "conv5"
  type: CONVOLUTION
  blobs_lr: 1
  blobs_lr: 2
  weight_decay: 1
  weight_decay: 0
  convolution_param {
    num_output: 256
    pad: 1
    kernel_size: 3
    group: 2
    weight_filler {
      type: "gaussian"
      std: 0.01
    }
    bias_filler {
      type: "constant"
      value: 1
    }
  }
}
layers {
  bottom: "conv5"
  top: "conv5"
  name: "relu5"
  type: RELU
}
layers {
  bottom: "conv5"
  top: "pool5"
  name: "pool5"
  type: POOLING
  pooling_param {
    pool: MAX
    kernel_size: 3
    stride: 2
  }
}
layers {
  bottom: "pool5"
  top: "fc6"
  name: "fc6"
  type: INNER_PRODUCT
  blobs_lr: 1
  blobs_lr: 2
  weight_decay: 1
  weight_decay: 0
  inner_product_param {
    num_output: 4096
    weight_filler {
      type: "gaussian"
      std: 0.005
    }
    bias_filler {
      type: "constant"
      value: 1
    }
  }
}
layers {
  bottom: "fc6"
  top: "fc6"
  name: "relu6"
  type: RELU
}
layers {
  bottom: "fc6"
  top: "fc6"
  name: "drop6"
  type: DROPOUT
  dropout_param {
    dropout_ratio: 0.5
  }
}
layers {
  bottom: "fc6"
  top: "fc7"
  name: "fc7"
  type: INNER_PRODUCT
  blobs_lr: 1
  blobs_lr: 2
  weight_decay: 1
  weight_decay: 0
  inner_product_param {
    num_output: 4096
    weight_filler {
      type: "gaussian"
      std: 0.005
    }
    bias_filler {
      type: "constant"
      value: 1
    }
  }
}
layers {
  bottom: "fc7"
  top: "fc7"
  name: "relu7"
  type: RELU
}
layers {
  bottom: "fc7"
  top: "fc7"
  name: "drop7"
  type: DROPOUT
  dropout_param {
    dropout_ratio: 0.5
  }
}
layers {
  bottom: "fc7"
  top: "fc8_pascal"
  name: "fc8_pascal"
  type: INNER_PRODUCT
  blobs_lr: 10
  blobs_lr: 20
  weight_decay: 1
  weight_decay: 0
  inner_product_param {
    num_output: 10
    weight_filler {
      type: "gaussian"
      std: 0.01
    }
    bias_filler {
      type: "constant"
      value: 0
    }
  }
}
layers {
  bottom: "fc8_pascal"
  bottom: "label"
  name: "loss"
  type: SOFTMAX_LOSS
}
state {
  phase: TRAIN
}
I0514 11:36:59.043598 24288 net.cpp:67] Creating Layer data
I0514 11:36:59.043607 24288 net.cpp:356] data -> data
I0514 11:36:59.043619 24288 net.cpp:356] data -> label
I0514 11:36:59.043627 24288 net.cpp:96] Setting up data
I0514 11:36:59.043643 24288 data_layer.cpp:45] Opening leveldb /home/iis/deep/rcnn_packages/caffe-new/examples/mycifar10/cifar10_train_leveldb
I0514 11:36:59.103502 24288 data_layer.cpp:128] output data size: 32,3,227,227
I0514 11:36:59.103521 24288 base_data_layer.cpp:36] Loading mean file from/home/iis/deep/rcnn_packages/caffe-new/data/ilsvrc12/imagenet_mean.binaryproto
I0514 11:36:59.112501 24288 net.cpp:103] Top shape: 32 3 227 227 (4946784)
I0514 11:36:59.112514 24288 net.cpp:103] Top shape: 32 1 1 1 (32)
I0514 11:36:59.112529 24288 net.cpp:67] Creating Layer conv1
I0514 11:36:59.112534 24288 net.cpp:394] conv1 <- data
I0514 11:36:59.112543 24288 net.cpp:356] conv1 -> conv1
I0514 11:36:59.112552 24288 net.cpp:96] Setting up conv1
I0514 11:36:59.113700 24288 net.cpp:103] Top shape: 32 96 55 55 (9292800)
I0514 11:36:59.113723 24288 net.cpp:67] Creating Layer relu1
I0514 11:36:59.113729 24288 net.cpp:394] relu1 <- conv1
I0514 11:36:59.113734 24288 net.cpp:345] relu1 -> conv1 (in-place)
I0514 11:36:59.113739 24288 net.cpp:96] Setting up relu1
I0514 11:36:59.113745 24288 net.cpp:103] Top shape: 32 96 55 55 (9292800)
I0514 11:36:59.113751 24288 net.cpp:67] Creating Layer pool1
I0514 11:36:59.113754 24288 net.cpp:394] pool1 <- conv1
I0514 11:36:59.113760 24288 net.cpp:356] pool1 -> pool1
I0514 11:36:59.113770 24288 net.cpp:96] Setting up pool1
I0514 11:36:59.113785 24288 net.cpp:103] Top shape: 32 96 27 27 (2239488)
I0514 11:36:59.113800 24288 net.cpp:67] Creating Layer norm1
I0514 11:36:59.113807 24288 net.cpp:394] norm1 <- pool1
I0514 11:36:59.113838 24288 net.cpp:356] norm1 -> norm1
I0514 11:36:59.113858 24288 net.cpp:96] Setting up norm1
I0514 11:36:59.113874 24288 net.cpp:103] Top shape: 32 96 27 27 (2239488)
I0514 11:36:59.113890 24288 net.cpp:67] Creating Layer conv2
I0514 11:36:59.113903 24288 net.cpp:394] conv2 <- norm1
I0514 11:36:59.113914 24288 net.cpp:356] conv2 -> conv2
I0514 11:36:59.113924 24288 net.cpp:96] Setting up conv2
I0514 11:36:59.130019 24288 net.cpp:103] Top shape: 32 256 27 27 (5971968)
I0514 11:36:59.130060 24288 net.cpp:67] Creating Layer relu2
I0514 11:36:59.130070 24288 net.cpp:394] relu2 <- conv2
I0514 11:36:59.130084 24288 net.cpp:345] relu2 -> conv2 (in-place)
I0514 11:36:59.130095 24288 net.cpp:96] Setting up relu2
I0514 11:36:59.130105 24288 net.cpp:103] Top shape: 32 256 27 27 (5971968)
I0514 11:36:59.130115 24288 net.cpp:67] Creating Layer pool2
I0514 11:36:59.130123 24288 net.cpp:394] pool2 <- conv2
I0514 11:36:59.130134 24288 net.cpp:356] pool2 -> pool2
I0514 11:36:59.130146 24288 net.cpp:96] Setting up pool2
I0514 11:36:59.130157 24288 net.cpp:103] Top shape: 32 256 13 13 (1384448)
I0514 11:36:59.130170 24288 net.cpp:67] Creating Layer norm2
I0514 11:36:59.130178 24288 net.cpp:394] norm2 <- pool2
I0514 11:36:59.130189 24288 net.cpp:356] norm2 -> norm2
I0514 11:36:59.130200 24288 net.cpp:96] Setting up norm2
I0514 11:36:59.130209 24288 net.cpp:103] Top shape: 32 256 13 13 (1384448)
I0514 11:36:59.130221 24288 net.cpp:67] Creating Layer conv3
I0514 11:36:59.130229 24288 net.cpp:394] conv3 <- norm2
I0514 11:36:59.130239 24288 net.cpp:356] conv3 -> conv3
I0514 11:36:59.130252 24288 net.cpp:96] Setting up conv3
I0514 11:36:59.159621 24288 net.cpp:103] Top shape: 32 384 13 13 (2076672)
I0514 11:36:59.159667 24288 net.cpp:67] Creating Layer relu3
I0514 11:36:59.159677 24288 net.cpp:394] relu3 <- conv3
I0514 11:36:59.159687 24288 net.cpp:345] relu3 -> conv3 (in-place)
I0514 11:36:59.159699 24288 net.cpp:96] Setting up relu3
I0514 11:36:59.159706 24288 net.cpp:103] Top shape: 32 384 13 13 (2076672)
I0514 11:36:59.159719 24288 net.cpp:67] Creating Layer conv4
I0514 11:36:59.159728 24288 net.cpp:394] conv4 <- conv3
I0514 11:36:59.159739 24288 net.cpp:356] conv4 -> conv4
I0514 11:36:59.159750 24288 net.cpp:96] Setting up conv4
I0514 11:36:59.181699 24288 net.cpp:103] Top shape: 32 384 13 13 (2076672)
I0514 11:36:59.181723 24288 net.cpp:67] Creating Layer relu4
I0514 11:36:59.181732 24288 net.cpp:394] relu4 <- conv4
I0514 11:36:59.181742 24288 net.cpp:345] relu4 -> conv4 (in-place)
I0514 11:36:59.181753 24288 net.cpp:96] Setting up relu4
I0514 11:36:59.181761 24288 net.cpp:103] Top shape: 32 384 13 13 (2076672)
I0514 11:36:59.181771 24288 net.cpp:67] Creating Layer conv5
I0514 11:36:59.181777 24288 net.cpp:394] conv5 <- conv4
I0514 11:36:59.181787 24288 net.cpp:356] conv5 -> conv5
I0514 11:36:59.181798 24288 net.cpp:96] Setting up conv5
I0514 11:36:59.196455 24288 net.cpp:103] Top shape: 32 256 13 13 (1384448)
I0514 11:36:59.196480 24288 net.cpp:67] Creating Layer relu5
I0514 11:36:59.196490 24288 net.cpp:394] relu5 <- conv5
I0514 11:36:59.196499 24288 net.cpp:345] relu5 -> conv5 (in-place)
I0514 11:36:59.196511 24288 net.cpp:96] Setting up relu5
I0514 11:36:59.196517 24288 net.cpp:103] Top shape: 32 256 13 13 (1384448)
I0514 11:36:59.196527 24288 net.cpp:67] Creating Layer pool5
I0514 11:36:59.196535 24288 net.cpp:394] pool5 <- conv5
I0514 11:36:59.196545 24288 net.cpp:356] pool5 -> pool5
I0514 11:36:59.196557 24288 net.cpp:96] Setting up pool5
I0514 11:36:59.196568 24288 net.cpp:103] Top shape: 32 256 6 6 (294912)
I0514 11:36:59.196580 24288 net.cpp:67] Creating Layer fc6
I0514 11:36:59.196588 24288 net.cpp:394] fc6 <- pool5
I0514 11:36:59.196599 24288 net.cpp:356] fc6 -> fc6
I0514 11:36:59.196609 24288 net.cpp:96] Setting up fc6
I0514 11:37:00.441306 24288 net.cpp:103] Top shape: 32 4096 1 1 (131072)
I0514 11:37:00.441349 24288 net.cpp:67] Creating Layer relu6
I0514 11:37:00.441359 24288 net.cpp:394] relu6 <- fc6
I0514 11:37:00.441371 24288 net.cpp:345] relu6 -> fc6 (in-place)
I0514 11:37:00.441383 24288 net.cpp:96] Setting up relu6
I0514 11:37:00.441421 24288 net.cpp:103] Top shape: 32 4096 1 1 (131072)
I0514 11:37:00.441434 24288 net.cpp:67] Creating Layer drop6
I0514 11:37:00.441442 24288 net.cpp:394] drop6 <- fc6
I0514 11:37:00.441452 24288 net.cpp:345] drop6 -> fc6 (in-place)
I0514 11:37:00.441462 24288 net.cpp:96] Setting up drop6
I0514 11:37:00.441475 24288 net.cpp:103] Top shape: 32 4096 1 1 (131072)
I0514 11:37:00.441488 24288 net.cpp:67] Creating Layer fc7
I0514 11:37:00.441496 24288 net.cpp:394] fc7 <- fc6
I0514 11:37:00.441506 24288 net.cpp:356] fc7 -> fc7
I0514 11:37:00.441519 24288 net.cpp:96] Setting up fc7
I0514 11:37:00.994878 24288 net.cpp:103] Top shape: 32 4096 1 1 (131072)
I0514 11:37:00.994920 24288 net.cpp:67] Creating Layer relu7
I0514 11:37:00.994940 24288 net.cpp:394] relu7 <- fc7
I0514 11:37:00.994952 24288 net.cpp:345] relu7 -> fc7 (in-place)
I0514 11:37:00.994966 24288 net.cpp:96] Setting up relu7
I0514 11:37:00.994972 24288 net.cpp:103] Top shape: 32 4096 1 1 (131072)
I0514 11:37:00.994983 24288 net.cpp:67] Creating Layer drop7
I0514 11:37:00.994990 24288 net.cpp:394] drop7 <- fc7
I0514 11:37:00.994999 24288 net.cpp:345] drop7 -> fc7 (in-place)
I0514 11:37:00.995009 24288 net.cpp:96] Setting up drop7
I0514 11:37:00.995018 24288 net.cpp:103] Top shape: 32 4096 1 1 (131072)
I0514 11:37:00.995029 24288 net.cpp:67] Creating Layer fc8_pascal
I0514 11:37:00.995036 24288 net.cpp:394] fc8_pascal <- fc7
I0514 11:37:00.995046 24288 net.cpp:356] fc8_pascal -> fc8_pascal
I0514 11:37:00.995059 24288 net.cpp:96] Setting up fc8_pascal
I0514 11:37:00.996402 24288 net.cpp:103] Top shape: 32 10 1 1 (320)
I0514 11:37:00.996422 24288 net.cpp:67] Creating Layer loss
I0514 11:37:00.996430 24288 net.cpp:394] loss <- fc8_pascal
I0514 11:37:00.996439 24288 net.cpp:394] loss <- label
I0514 11:37:00.996450 24288 net.cpp:356] loss -> (automatic)
I0514 11:37:00.996460 24288 net.cpp:96] Setting up loss
I0514 11:37:00.996479 24288 net.cpp:103] Top shape: 1 1 1 1 (1)
I0514 11:37:00.996487 24288 net.cpp:109]     with loss weight 1
I0514 11:37:00.996523 24288 net.cpp:170] loss needs backward computation.
I0514 11:37:00.996532 24288 net.cpp:170] fc8_pascal needs backward computation.
I0514 11:37:00.996541 24288 net.cpp:170] drop7 needs backward computation.
I0514 11:37:00.996547 24288 net.cpp:170] relu7 needs backward computation.
I0514 11:37:00.996553 24288 net.cpp:170] fc7 needs backward computation.
…
E0514 11:37:00.997520 24288 upgrade_proto.cpp:608] Note that future Caffe releases will not support V0NetParameter; use ./build/tools/upgrade_net_proto_text for prototxt and ./build/tools/upgrade_net_proto_binary for model weights upgrade this and any other net protos to the new format.
I0514 11:37:00.997561 24288 solver.cpp:151] Creating test net (#0) specified by test_net file: AlexNet_CIFAR10_test.prototxt
I0514 11:37:00.997742 24288 net.cpp:39] Initializing net from parameters: 
name: "CIFAR10"
layers {
  top: "data"
  top: "label"
  name: "data"
  type: DATA
  data_param {
    source: "/home/iis/deep/rcnn_packages/caffe-new/examples/mycifar10/cifar10_val_leveldb"
    batch_size: 32
  }
  transform_param {
    mirror: true
    crop_size: 227
    mean_file: "/home/iis/deep/rcnn_packages/caffe-new/data/ilsvrc12/imagenet_mean.binaryproto"
  }
}
layers {
  bottom: "data"
  top: "conv1"
  name: "conv1"
  type: CONVOLUTION
  blobs_lr: 1
  blobs_lr: 2
  weight_decay: 1
  weight_decay: 0
  convolution_param {
    num_output: 96
    kernel_size: 11
    stride: 4
    weight_filler {
      type: "gaussian"
      std: 0.01
    }
    bias_filler {
      type: "constant"
      value: 0
    }
  }
}
layers {
  bottom: "conv1"
  top: "conv1"
  name: "relu1"
  type: RELU
}
layers {
  bottom: "conv1"
  top: "pool1"
  name: "pool1"
  type: POOLING
  pooling_param {
    pool: MAX
    kernel_size: 3
    stride: 2
  }
}
layers {
  bottom: "pool1"
  top: "norm1"
  name: "norm1"
  type: LRN
  lrn_param {
    local_size: 5
    alpha: 0.0001
    beta: 0.75
  }
}
layers {
  bottom: "norm1"
  top: "conv2"
  name: "conv2"
  type: CONVOLUTION
  blobs_lr: 1
  blobs_lr: 2
  weight_decay: 1
  weight_decay: 0
  convolution_param {
    num_output: 256
    pad: 2
    kernel_size: 5
    group: 2
    weight_filler {
      type: "gaussian"
      std: 0.01
    }
    bias_filler {
      type: "constant"
      value: 1
    }
  }
}
layers {
  bottom: "conv2"
  top: "conv2"
  name: "relu2"
  type: RELU
}
layers {
  bottom: "conv2"
  top: "pool2"
  name: "pool2"
  type: POOLING
  pooling_param {
    pool: MAX
    kernel_size: 3
    stride: 2
  }
}
layers {
  bottom: "pool2"
  top: "norm2"
  name: "norm2"
  type: LRN
  lrn_param {
    local_size: 5
    alpha: 0.0001
    beta: 0.75
  }
}
layers {
  bottom: "norm2"
  top: "conv3"
  name: "conv3"
  type: CONVOLUTION
  blobs_lr: 1
  blobs_lr: 2
  weight_decay: 1
  weight_decay: 0
  convolution_param {
    num_output: 384
    pad: 1
    kernel_size: 3
    weight_filler {
      type: "gaussian"
      std: 0.01
    }
    bias_filler {
      type: "constant"
      value: 0
    }
  }
}
layers {
  bottom: "conv3"
  top: "conv3"
  name: "relu3"
  type: RELU
}
layers {
  bottom: "conv3"
  top: "conv4"
  name: "conv4"
  type: CONVOLUTION
  blobs_lr: 1
  blobs_lr: 2
  weight_decay: 1
  weight_decay: 0
  convolution_param {
    num_output: 384
    pad: 1
    kernel_size: 3
    group: 2
    weight_filler {
      type: "gaussian"
      std: 0.01
    }
    bias_filler {
      type: "constant"
      value: 1
    }
  }
}
layers {
  bottom: "conv4"
  top: "conv4"
  name: "relu4"
  type: RELU
}
layers {
  bottom: "conv4"
  top: "conv5"
  name: "conv5"
  type: CONVOLUTION
  blobs_lr: 1
  blobs_lr: 2
  weight_decay: 1
  weight_decay: 0
  convolution_param {
    num_output: 256
    pad: 1
    kernel_size: 3
    group: 2
    weight_filler {
      type: "gaussian"
      std: 0.01
    }
    bias_filler {
      type: "constant"
      value: 1
    }
  }
}
layers {
  bottom: "conv5"
  top: "conv5"
  name: "relu5"
  type: RELU
}
layers {
  bottom: "conv5"
  top: "pool5"
  name: "pool5"
  type: POOLING
  pooling_param {
    pool: MAX
    kernel_size: 3
    stride: 2
  }
}
layers {
  bottom: "pool5"
  top: "fc6"
  name: "fc6"
  type: INNER_PRODUCT
  blobs_lr: 1
  blobs_lr: 2
  weight_decay: 1
  weight_decay: 0
  inner_product_param {
    num_output: 4096
    weight_filler {
      type: "gaussian"
      std: 0.005
    }
    bias_filler {
      type: "constant"
      value: 1
    }
  }
}
layers {
  bottom: "fc6"
  top: "fc6"
  name: "relu6"
  type: RELU
}
layers {
  bottom: "fc6"
  top: "fc6"
  name: "drop6"
  type: DROPOUT
  dropout_param {
    dropout_ratio: 0.5
  }
}
layers {
  bottom: "fc6"
  top: "fc7"
  name: "fc7"
  type: INNER_PRODUCT
  blobs_lr: 1
  blobs_lr: 2
  weight_decay: 1
  weight_decay: 0
  inner_product_param {
    num_output: 4096
    weight_filler {
      type: "gaussian"
      std: 0.005
    }
    bias_filler {
      type: "constant"
      value: 1
    }
  }
}
layers {
  bottom: "fc7"
  top: "fc7"
  name: "relu7"
  type: RELU
}
layers {
  bottom: "fc7"
  top: "fc7"
  name: "drop7"
  type: DROPOUT
  dropout_param {
    dropout_ratio: 0.5
  }
}
layers {
  bottom: "fc7"
  top: "fc8_pascal"
  name: "fc8_pascal"
  type: INNER_PRODUCT
  blobs_lr: 10
  blobs_lr: 20
  weight_decay: 1
  weight_decay: 0
  inner_product_param {
    num_output: 10
    weight_filler {
      type: "gaussian"
      std: 0.01
    }
    bias_filler {
      type: "constant"
      value: 0
    }
  }
}
layers {
  bottom: "fc8_pascal"
  top: "prob"
  name: "prob"
  type: SOFTMAX
}
layers {
  bottom: "prob"
  bottom: "label"
  top: "accuracy"
  name: "accuracy"
  type: ACCURACY
}
state {
  phase: TEST
}
I0514 11:37:00.997848 24288 net.cpp:67] Creating Layer data
I0514 11:37:00.997859 24288 net.cpp:356] data -> data
I0514 11:37:00.997872 24288 net.cpp:356] data -> label
I0514 11:37:00.997884 24288 net.cpp:96] Setting up data
I0514 11:37:00.997892 24288 data_layer.cpp:45] Opening leveldb /home/iis/deep/rcnn_packages/caffe-new/examples/mycifar10/cifar10_val_leveldb
I0514 11:37:01.065693 24288 data_layer.cpp:128] output data size: 32,3,227,227
I0514 11:37:01.065744 24288 base_data_layer.cpp:36] Loading mean file from/home/iis/deep/rcnn_packages/caffe-new/data/ilsvrc12/imagenet_mean.binaryproto
I0514 11:37:01.074776 24288 net.cpp:103] Top shape: 32 3 227 227 (4946784)
I0514 11:37:01.074791 24288 net.cpp:103] Top shape: 32 1 1 1 (32)
I0514 11:37:01.074810 24288 net.cpp:67] Creating Layer conv1
I0514 11:37:01.074818 24288 net.cpp:394] conv1 <- data
I0514 11:37:01.074831 24288 net.cpp:356] conv1 -> conv1
I0514 11:37:01.074849 24288 net.cpp:96] Setting up conv1
I0514 11:37:01.075988 24288 net.cpp:103] Top shape: 32 96 55 55 (9292800)
I0514 11:37:01.076011 24288 net.cpp:67] Creating Layer relu1
I0514 11:37:01.076020 24288 net.cpp:394] relu1 <- conv1
I0514 11:37:01.076030 24288 net.cpp:345] relu1 -> conv1 (in-place)
I0514 11:37:01.076042 24288 net.cpp:96] Setting up relu1
I0514 11:37:01.076050 24288 net.cpp:103] Top shape: 32 96 55 55 (9292800)
I0514 11:37:01.076061 24288 net.cpp:67] Creating Layer pool1
I0514 11:37:01.076069 24288 net.cpp:394] pool1 <- conv1
I0514 11:37:01.076079 24288 net.cpp:356] pool1 -> pool1
I0514 11:37:01.076092 24288 net.cpp:96] Setting up pool1
I0514 11:37:01.076102 24288 net.cpp:103] Top shape: 32 96 27 27 (2239488)
I0514 11:37:01.076113 24288 net.cpp:67] Creating Layer norm1
I0514 11:37:01.076122 24288 net.cpp:394] norm1 <- pool1
I0514 11:37:01.076133 24288 net.cpp:356] norm1 -> norm1
I0514 11:37:01.076145 24288 net.cpp:96] Setting up norm1
I0514 11:37:01.076155 24288 net.cpp:103] Top shape: 32 96 27 27 (2239488)
I0514 11:37:01.076166 24288 net.cpp:67] Creating Layer conv2
I0514 11:37:01.076174 24288 net.cpp:394] conv2 <- norm1
I0514 11:37:01.076210 24288 net.cpp:356] conv2 -> conv2
I0514 11:37:01.076226 24288 net.cpp:96] Setting up conv2
I0514 11:37:01.086308 24288 net.cpp:103] Top shape: 32 256 27 27 (5971968)
I0514 11:37:01.086351 24288 net.cpp:67] Creating Layer relu2
I0514 11:37:01.086361 24288 net.cpp:394] relu2 <- conv2
I0514 11:37:01.086374 24288 net.cpp:345] relu2 -> conv2 (in-place)
I0514 11:37:01.086385 24288 net.cpp:96] Setting up relu2
I0514 11:37:01.086395 24288 net.cpp:103] Top shape: 32 256 27 27 (5971968)
I0514 11:37:01.086405 24288 net.cpp:67] Creating Layer pool2
I0514 11:37:01.086413 24288 net.cpp:394] pool2 <- conv2
I0514 11:37:01.086422 24288 net.cpp:356] pool2 -> pool2
I0514 11:37:01.086433 24288 net.cpp:96] Setting up pool2
I0514 11:37:01.086443 24288 net.cpp:103] Top shape: 32 256 13 13 (1384448)
I0514 11:37:01.086457 24288 net.cpp:67] Creating Layer norm2
I0514 11:37:01.086463 24288 net.cpp:394] norm2 <- pool2
I0514 11:37:01.086473 24288 net.cpp:356] norm2 -> norm2
I0514 11:37:01.086485 24288 net.cpp:96] Setting up norm2
I0514 11:37:01.086493 24288 net.cpp:103] Top shape: 32 256 13 13 (1384448)
I0514 11:37:01.086504 24288 net.cpp:67] Creating Layer conv3
I0514 11:37:01.086513 24288 net.cpp:394] conv3 <- norm2
I0514 11:37:01.086524 24288 net.cpp:356] conv3 -> conv3
I0514 11:37:01.086535 24288 net.cpp:96] Setting up conv3
I0514 11:37:01.115829 24288 net.cpp:103] Top shape: 32 384 13 13 (2076672)
I0514 11:37:01.115871 24288 net.cpp:67] Creating Layer relu3
I0514 11:37:01.115881 24288 net.cpp:394] relu3 <- conv3
I0514 11:37:01.115892 24288 net.cpp:345] relu3 -> conv3 (in-place)
I0514 11:37:01.115905 24288 net.cpp:96] Setting up relu3
I0514 11:37:01.115912 24288 net.cpp:103] Top shape: 32 384 13 13 (2076672)
I0514 11:37:01.115924 24288 net.cpp:67] Creating Layer conv4
I0514 11:37:01.115932 24288 net.cpp:394] conv4 <- conv3
I0514 11:37:01.115942 24288 net.cpp:356] conv4 -> conv4
I0514 11:37:01.115954 24288 net.cpp:96] Setting up conv4
I0514 11:37:01.137862 24288 net.cpp:103] Top shape: 32 384 13 13 (2076672)
I0514 11:37:01.137887 24288 net.cpp:67] Creating Layer relu4
I0514 11:37:01.137895 24288 net.cpp:394] relu4 <- conv4
I0514 11:37:01.137904 24288 net.cpp:345] relu4 -> conv4 (in-place)
I0514 11:37:01.137915 24288 net.cpp:96] Setting up relu4
I0514 11:37:01.137923 24288 net.cpp:103] Top shape: 32 384 13 13 (2076672)
I0514 11:37:01.137933 24288 net.cpp:67] Creating Layer conv5
I0514 11:37:01.137941 24288 net.cpp:394] conv5 <- conv4
I0514 11:37:01.137950 24288 net.cpp:356] conv5 -> conv5
I0514 11:37:01.137962 24288 net.cpp:96] Setting up conv5
I0514 11:37:01.152559 24288 net.cpp:103] Top shape: 32 256 13 13 (1384448)
I0514 11:37:01.152582 24288 net.cpp:67] Creating Layer relu5
I0514 11:37:01.152591 24288 net.cpp:394] relu5 <- conv5
I0514 11:37:01.152601 24288 net.cpp:345] relu5 -> conv5 (in-place)
I0514 11:37:01.152611 24288 net.cpp:96] Setting up relu5
I0514 11:37:01.152619 24288 net.cpp:103] Top shape: 32 256 13 13 (1384448)
I0514 11:37:01.152629 24288 net.cpp:67] Creating Layer pool5
I0514 11:37:01.152637 24288 net.cpp:394] pool5 <- conv5
I0514 11:37:01.152647 24288 net.cpp:356] pool5 -> pool5
I0514 11:37:01.152658 24288 net.cpp:96] Setting up pool5
I0514 11:37:01.152669 24288 net.cpp:103] Top shape: 32 256 6 6 (294912)
I0514 11:37:01.152683 24288 net.cpp:67] Creating Layer fc6
I0514 11:37:01.152690 24288 net.cpp:394] fc6 <- pool5
I0514 11:37:01.152700 24288 net.cpp:356] fc6 -> fc6
I0514 11:37:01.152712 24288 net.cpp:96] Setting up fc6
I0514 11:37:02.393470 24288 net.cpp:103] Top shape: 32 4096 1 1 (131072)
I0514 11:37:02.393512 24288 net.cpp:67] Creating Layer relu6
I0514 11:37:02.393522 24288 net.cpp:394] relu6 <- fc6
I0514 11:37:02.393532 24288 net.cpp:345] relu6 -> fc6 (in-place)
I0514 11:37:02.393543 24288 net.cpp:96] Setting up relu6
I0514 11:37:02.393561 24288 net.cpp:103] Top shape: 32 4096 1 1 (131072)
I0514 11:37:02.393571 24288 net.cpp:67] Creating Layer drop6
I0514 11:37:02.393579 24288 net.cpp:394] drop6 <- fc6
I0514 11:37:02.393587 24288 net.cpp:345] drop6 -> fc6 (in-place)
I0514 11:37:02.393597 24288 net.cpp:96] Setting up drop6
I0514 11:37:02.393633 24288 net.cpp:103] Top shape: 32 4096 1 1 (131072)
I0514 11:37:02.393656 24288 net.cpp:67] Creating Layer fc7
I0514 11:37:02.393664 24288 net.cpp:394] fc7 <- fc6
I0514 11:37:02.393674 24288 net.cpp:356] fc7 -> fc7
I0514 11:37:02.393687 24288 net.cpp:96] Setting up fc7
I0514 11:37:02.919126 24288 net.cpp:103] Top shape: 32 4096 1 1 (131072)
I0514 11:37:02.919167 24288 net.cpp:67] Creating Layer relu7
I0514 11:37:02.919176 24288 net.cpp:394] relu7 <- fc7
I0514 11:37:02.919188 24288 net.cpp:345] relu7 -> fc7 (in-place)
I0514 11:37:02.919198 24288 net.cpp:96] Setting up relu7
I0514 11:37:02.919217 24288 net.cpp:103] Top shape: 32 4096 1 1 (131072)
I0514 11:37:02.919226 24288 net.cpp:67] Creating Layer drop7
I0514 11:37:02.919234 24288 net.cpp:394] drop7 <- fc7
I0514 11:37:02.919244 24288 net.cpp:345] drop7 -> fc7 (in-place)
I0514 11:37:02.919253 24288 net.cpp:96] Setting up drop7
I0514 11:37:02.919261 24288 net.cpp:103] Top shape: 32 4096 1 1 (131072)
I0514 11:37:02.919272 24288 net.cpp:67] Creating Layer fc8_pascal
I0514 11:37:02.919280 24288 net.cpp:394] fc8_pascal <- fc7
I0514 11:37:02.919301 24288 net.cpp:356] fc8_pascal -> fc8_pascal
I0514 11:37:02.919312 24288 net.cpp:96] Setting up fc8_pascal
I0514 11:37:02.920593 24288 net.cpp:103] Top shape: 32 10 1 1 (320)
I0514 11:37:02.920608 24288 net.cpp:67] Creating Layer prob
I0514 11:37:02.920616 24288 net.cpp:394] prob <- fc8_pascal
I0514 11:37:02.920624 24288 net.cpp:356] prob -> prob
I0514 11:37:02.920634 24288 net.cpp:96] Setting up prob
I0514 11:37:02.920642 24288 net.cpp:103] Top shape: 32 10 1 1 (320)
I0514 11:37:02.920651 24288 net.cpp:67] Creating Layer accuracy
I0514 11:37:02.920658 24288 net.cpp:394] accuracy <- prob
I0514 11:37:02.920666 24288 net.cpp:394] accuracy <- label
I0514 11:37:02.920676 24288 net.cpp:356] accuracy -> accuracy
I0514 11:37:02.920688 24288 net.cpp:96] Setting up accuracy
I0514 11:37:02.920704 24288 net.cpp:103] Top shape: 1 1 1 1 (1)
I0514 11:37:02.920712 24288 net.cpp:172] accuracy does not need backward computation.
I0514 11:37:02.920719 24288 net.cpp:172] prob does not need backward computation.
I0514 11:37:02.920725 24288 net.cpp:172] fc8_pascal does not need backward computation.
I0514 11:37:02.920732 24288 net.cpp:172] drop7 does not need backward computation.
I0514 11:37:02.920738 24288 net.cpp:172] relu7 does not need backward computation.
…
