…
E0514 21:59:27.846674  3512 upgrade_proto.cpp:608] Note that future Caffe releases will not support V0NetParameter; use ./build/tools/upgrade_net_proto_text for prototxt and ./build/tools/upgrade_net_proto_binary for model weights upgrade this and any other net protos to the new format.
I0514 21:59:27.846848  3512 net.cpp:39] Initializing net from parameters: 
name: "CIFAR10"
layers {
  top: "data"
  top: "label"
  name: "data"
  type: DATA
  data_param {
    source: "/home/iis/deep/rcnn_packages/caffe-new/examples/mycifar10/cifar10_train_leveldb"
    batch_size: 32
  }
  transform_param {
    mirror: true
    crop_size: 227
    mean_file: "/home/iis/deep/rcnn_packages/caffe-new/data/ilsvrc12/imagenet_mean.binaryproto"
  }
}
layers {
  bottom: "data"
  top: "conv1"
  name: "conv1"
  type: CONVOLUTION
  blobs_lr: 1
  blobs_lr: 2
  weight_decay: 1
  weight_decay: 0
  convolution_param {
    num_output: 96
    kernel_size: 11
    stride: 4
    weight_filler {
      type: "gaussian"
      std: 0.01
    }
    bias_filler {
      type: "constant"
      value: 0
    }
  }
}
layers {
  bottom: "conv1"
  top: "conv1"
  name: "relu1"
  type: RELU
}
layers {
  bottom: "conv1"
  top: "pool1"
  name: "pool1"
  type: POOLING
  pooling_param {
    pool: MAX
    kernel_size: 3
    stride: 2
  }
}
layers {
  bottom: "pool1"
  top: "norm1"
  name: "norm1"
  type: LRN
  lrn_param {
    local_size: 5
    alpha: 0.0001
    beta: 0.75
  }
}
layers {
  bottom: "norm1"
  top: "conv2"
  name: "conv2"
  type: CONVOLUTION
  blobs_lr: 1
  blobs_lr: 2
  weight_decay: 1
  weight_decay: 0
  convolution_param {
    num_output: 256
    pad: 2
    kernel_size: 5
    group: 2
    weight_filler {
      type: "gaussian"
      std: 0.01
    }
    bias_filler {
      type: "constant"
      value: 1
    }
  }
}
layers {
  bottom: "conv2"
  top: "conv2"
  name: "relu2"
  type: RELU
}
layers {
  bottom: "conv2"
  top: "pool2"
  name: "pool2"
  type: POOLING
  pooling_param {
    pool: MAX
    kernel_size: 3
    stride: 2
  }
}
layers {
  bottom: "pool2"
  top: "norm2"
  name: "norm2"
  type: LRN
  lrn_param {
    local_size: 5
    alpha: 0.0001
    beta: 0.75
  }
}
layers {
  bottom: "norm2"
  top: "conv3"
  name: "conv3"
  type: CONVOLUTION
  blobs_lr: 1
  blobs_lr: 2
  weight_decay: 1
  weight_decay: 0
  convolution_param {
    num_output: 384
    pad: 1
    kernel_size: 3
    weight_filler {
      type: "gaussian"
      std: 0.01
    }
    bias_filler {
      type: "constant"
      value: 0
    }
  }
}
layers {
  bottom: "conv3"
  top: "conv3"
  name: "relu3"
  type: RELU
}
layers {
  bottom: "conv3"
  top: "conv4"
  name: "conv4"
  type: CONVOLUTION
  blobs_lr: 1
  blobs_lr: 2
  weight_decay: 1
  weight_decay: 0
  convolution_param {
    num_output: 384
    pad: 1
    kernel_size: 3
    group: 2
    weight_filler {
      type: "gaussian"
      std: 0.01
    }
    bias_filler {
      type: "constant"
      value: 1
    }
  }
}
layers {
  bottom: "conv4"
  top: "conv4"
  name: "relu4"
  type: RELU
}
layers {
  bottom: "conv4"
  top: "conv5"
  name: "conv5"
  type: CONVOLUTION
  blobs_lr: 1
  blobs_lr: 2
  weight_decay: 1
  weight_decay: 0
  convolution_param {
    num_output: 256
    pad: 1
    kernel_size: 3
    group: 2
    weight_filler {
      type: "gaussian"
      std: 0.01
    }
    bias_filler {
      type: "constant"
      value: 1
    }
  }
}
layers {
  bottom: "conv5"
  top: "conv5"
  name: "relu5"
  type: RELU
}
layers {
  bottom: "conv5"
  top: "pool5"
  name: "pool5"
  type: POOLING
  pooling_param {
    pool: MAX
    kernel_size: 3
    stride: 2
  }
}
layers {
  bottom: "pool5"
  top: "fc6"
  name: "fc6"
  type: INNER_PRODUCT
  blobs_lr: 1
  blobs_lr: 2
  weight_decay: 1
  weight_decay: 0
  inner_product_param {
    num_output: 4096
    weight_filler {
      type: "gaussian"
      std: 0.005
    }
    bias_filler {
      type: "constant"
      value: 1
    }
  }
}
layers {
  bottom: "fc6"
  top: "fc6"
  name: "relu6"
  type: RELU
}
layers {
  bottom: "fc6"
  top: "fc6"
  name: "drop6"
  type: DROPOUT
  dropout_param {
    dropout_ratio: 0.5
  }
}
layers {
  bottom: "fc6"
  top: "fc7"
  name: "fc7"
  type: INNER_PRODUCT
  blobs_lr: 1
  blobs_lr: 2
  weight_decay: 1
  weight_decay: 0
  inner_product_param {
    num_output: 4096
    weight_filler {
      type: "gaussian"
      std: 0.005
    }
    bias_filler {
      type: "constant"
      value: 1
    }
  }
}
layers {
  bottom: "fc7"
  top: "fc7"
  name: "relu7"
  type: RELU
}
layers {
  bottom: "fc7"
  top: "fc7"
  name: "drop7"
  type: DROPOUT
  dropout_param {
    dropout_ratio: 0.5
  }
}
layers {
  bottom: "fc7"
  top: "fc8_pascal"
  name: "fc8_pascal"
  type: INNER_PRODUCT
  blobs_lr: 10
  blobs_lr: 20
  weight_decay: 1
  weight_decay: 0
  inner_product_param {
    num_output: 10
    weight_filler {
      type: "gaussian"
      std: 0.01
    }
    bias_filler {
      type: "constant"
      value: 0
    }
  }
}
layers {
  bottom: "fc8_pascal"
  bottom: "label"
  name: "loss"
  type: SOFTMAX_LOSS
}
state {
  phase: TRAIN
}
I0514 21:59:27.846951  3512 net.cpp:67] Creating Layer data
I0514 21:59:27.846961  3512 net.cpp:356] data -> data
I0514 21:59:27.846974  3512 net.cpp:356] data -> label
I0514 21:59:27.846982  3512 net.cpp:96] Setting up data
I0514 21:59:27.846998  3512 data_layer.cpp:45] Opening leveldb /home/iis/deep/rcnn_packages/caffe-new/examples/mycifar10/cifar10_train_leveldb
I0514 21:59:27.935787  3512 data_layer.cpp:128] output data size: 32,3,227,227
I0514 21:59:27.935839  3512 base_data_layer.cpp:36] Loading mean file from/home/iis/deep/rcnn_packages/caffe-new/data/ilsvrc12/imagenet_mean.binaryproto
I0514 21:59:27.951896  3512 net.cpp:103] Top shape: 32 3 227 227 (4946784)
I0514 21:59:27.951913  3512 net.cpp:103] Top shape: 32 1 1 1 (32)
I0514 21:59:27.951930  3512 net.cpp:67] Creating Layer conv1
I0514 21:59:27.951935  3512 net.cpp:394] conv1 <- data
I0514 21:59:27.951943  3512 net.cpp:356] conv1 -> conv1
I0514 21:59:27.951956  3512 net.cpp:96] Setting up conv1
I0514 21:59:27.953101  3512 net.cpp:103] Top shape: 32 96 55 55 (9292800)
I0514 21:59:27.953125  3512 net.cpp:67] Creating Layer relu1
I0514 21:59:27.953130  3512 net.cpp:394] relu1 <- conv1
I0514 21:59:27.953136  3512 net.cpp:345] relu1 -> conv1 (in-place)
I0514 21:59:27.953141  3512 net.cpp:96] Setting up relu1
I0514 21:59:27.953147  3512 net.cpp:103] Top shape: 32 96 55 55 (9292800)
I0514 21:59:27.953155  3512 net.cpp:67] Creating Layer pool1
I0514 21:59:27.953160  3512 net.cpp:394] pool1 <- conv1
I0514 21:59:27.953165  3512 net.cpp:356] pool1 -> pool1
I0514 21:59:27.953171  3512 net.cpp:96] Setting up pool1
I0514 21:59:27.953184  3512 net.cpp:103] Top shape: 32 96 27 27 (2239488)
I0514 21:59:27.953192  3512 net.cpp:67] Creating Layer norm1
I0514 21:59:27.953197  3512 net.cpp:394] norm1 <- pool1
I0514 21:59:27.953223  3512 net.cpp:356] norm1 -> norm1
I0514 21:59:27.953238  3512 net.cpp:96] Setting up norm1
I0514 21:59:27.953253  3512 net.cpp:103] Top shape: 32 96 27 27 (2239488)
I0514 21:59:27.953263  3512 net.cpp:67] Creating Layer conv2
I0514 21:59:27.953268  3512 net.cpp:394] conv2 <- norm1
I0514 21:59:27.953274  3512 net.cpp:356] conv2 -> conv2
I0514 21:59:27.953279  3512 net.cpp:96] Setting up conv2
I0514 21:59:27.963387  3512 net.cpp:103] Top shape: 32 256 27 27 (5971968)
I0514 21:59:27.963426  3512 net.cpp:67] Creating Layer relu2
I0514 21:59:27.963431  3512 net.cpp:394] relu2 <- conv2
I0514 21:59:27.963440  3512 net.cpp:345] relu2 -> conv2 (in-place)
I0514 21:59:27.963448  3512 net.cpp:96] Setting up relu2
I0514 21:59:27.963452  3512 net.cpp:103] Top shape: 32 256 27 27 (5971968)
I0514 21:59:27.963459  3512 net.cpp:67] Creating Layer pool2
I0514 21:59:27.963462  3512 net.cpp:394] pool2 <- conv2
I0514 21:59:27.963467  3512 net.cpp:356] pool2 -> pool2
I0514 21:59:27.963477  3512 net.cpp:96] Setting up pool2
I0514 21:59:27.963487  3512 net.cpp:103] Top shape: 32 256 13 13 (1384448)
I0514 21:59:27.963500  3512 net.cpp:67] Creating Layer norm2
I0514 21:59:27.963510  3512 net.cpp:394] norm2 <- pool2
I0514 21:59:27.963517  3512 net.cpp:356] norm2 -> norm2
I0514 21:59:27.963524  3512 net.cpp:96] Setting up norm2
I0514 21:59:27.963528  3512 net.cpp:103] Top shape: 32 256 13 13 (1384448)
I0514 21:59:27.963536  3512 net.cpp:67] Creating Layer conv3
I0514 21:59:27.963539  3512 net.cpp:394] conv3 <- norm2
I0514 21:59:27.963544  3512 net.cpp:356] conv3 -> conv3
I0514 21:59:27.963556  3512 net.cpp:96] Setting up conv3
I0514 21:59:27.993371  3512 net.cpp:103] Top shape: 32 384 13 13 (2076672)
I0514 21:59:27.993415  3512 net.cpp:67] Creating Layer relu3
I0514 21:59:27.993425  3512 net.cpp:394] relu3 <- conv3
I0514 21:59:27.993438  3512 net.cpp:345] relu3 -> conv3 (in-place)
I0514 21:59:27.993453  3512 net.cpp:96] Setting up relu3
I0514 21:59:27.993459  3512 net.cpp:103] Top shape: 32 384 13 13 (2076672)
I0514 21:59:27.993466  3512 net.cpp:67] Creating Layer conv4
I0514 21:59:27.993471  3512 net.cpp:394] conv4 <- conv3
I0514 21:59:27.993477  3512 net.cpp:356] conv4 -> conv4
I0514 21:59:27.993484  3512 net.cpp:96] Setting up conv4
I0514 21:59:28.015440  3512 net.cpp:103] Top shape: 32 384 13 13 (2076672)
I0514 21:59:28.015478  3512 net.cpp:67] Creating Layer relu4
I0514 21:59:28.015485  3512 net.cpp:394] relu4 <- conv4
I0514 21:59:28.015492  3512 net.cpp:345] relu4 -> conv4 (in-place)
I0514 21:59:28.015499  3512 net.cpp:96] Setting up relu4
I0514 21:59:28.015504  3512 net.cpp:103] Top shape: 32 384 13 13 (2076672)
I0514 21:59:28.015511  3512 net.cpp:67] Creating Layer conv5
I0514 21:59:28.015516  3512 net.cpp:394] conv5 <- conv4
I0514 21:59:28.015521  3512 net.cpp:356] conv5 -> conv5
I0514 21:59:28.015527  3512 net.cpp:96] Setting up conv5
I0514 21:59:28.030128  3512 net.cpp:103] Top shape: 32 256 13 13 (1384448)
I0514 21:59:28.030149  3512 net.cpp:67] Creating Layer relu5
I0514 21:59:28.030154  3512 net.cpp:394] relu5 <- conv5
I0514 21:59:28.030160  3512 net.cpp:345] relu5 -> conv5 (in-place)
I0514 21:59:28.030166  3512 net.cpp:96] Setting up relu5
I0514 21:59:28.030170  3512 net.cpp:103] Top shape: 32 256 13 13 (1384448)
I0514 21:59:28.030176  3512 net.cpp:67] Creating Layer pool5
I0514 21:59:28.030182  3512 net.cpp:394] pool5 <- conv5
I0514 21:59:28.030187  3512 net.cpp:356] pool5 -> pool5
I0514 21:59:28.030194  3512 net.cpp:96] Setting up pool5
I0514 21:59:28.030200  3512 net.cpp:103] Top shape: 32 256 6 6 (294912)
I0514 21:59:28.030208  3512 net.cpp:67] Creating Layer fc6
I0514 21:59:28.030212  3512 net.cpp:394] fc6 <- pool5
I0514 21:59:28.030217  3512 net.cpp:356] fc6 -> fc6
I0514 21:59:28.030225  3512 net.cpp:96] Setting up fc6
I0514 21:59:29.281028  3512 net.cpp:103] Top shape: 32 4096 1 1 (131072)
I0514 21:59:29.281071  3512 net.cpp:67] Creating Layer relu6
I0514 21:59:29.281079  3512 net.cpp:394] relu6 <- fc6
I0514 21:59:29.281088  3512 net.cpp:345] relu6 -> fc6 (in-place)
I0514 21:59:29.281096  3512 net.cpp:96] Setting up relu6
I0514 21:59:29.281131  3512 net.cpp:103] Top shape: 32 4096 1 1 (131072)
I0514 21:59:29.281142  3512 net.cpp:67] Creating Layer drop6
I0514 21:59:29.281152  3512 net.cpp:394] drop6 <- fc6
I0514 21:59:29.281163  3512 net.cpp:345] drop6 -> fc6 (in-place)
I0514 21:59:29.281174  3512 net.cpp:96] Setting up drop6
I0514 21:59:29.281183  3512 net.cpp:103] Top shape: 32 4096 1 1 (131072)
I0514 21:59:29.281189  3512 net.cpp:67] Creating Layer fc7
I0514 21:59:29.281193  3512 net.cpp:394] fc7 <- fc6
I0514 21:59:29.281199  3512 net.cpp:356] fc7 -> fc7
I0514 21:59:29.281208  3512 net.cpp:96] Setting up fc7
I0514 21:59:29.840561  3512 net.cpp:103] Top shape: 32 4096 1 1 (131072)
I0514 21:59:29.840602  3512 net.cpp:67] Creating Layer relu7
I0514 21:59:29.840610  3512 net.cpp:394] relu7 <- fc7
I0514 21:59:29.840618  3512 net.cpp:345] relu7 -> fc7 (in-place)
I0514 21:59:29.840626  3512 net.cpp:96] Setting up relu7
I0514 21:59:29.840631  3512 net.cpp:103] Top shape: 32 4096 1 1 (131072)
I0514 21:59:29.840636  3512 net.cpp:67] Creating Layer drop7
I0514 21:59:29.840641  3512 net.cpp:394] drop7 <- fc7
I0514 21:59:29.840646  3512 net.cpp:345] drop7 -> fc7 (in-place)
I0514 21:59:29.840654  3512 net.cpp:96] Setting up drop7
I0514 21:59:29.840659  3512 net.cpp:103] Top shape: 32 4096 1 1 (131072)
I0514 21:59:29.840667  3512 net.cpp:67] Creating Layer fc8_pascal
I0514 21:59:29.840669  3512 net.cpp:394] fc8_pascal <- fc7
I0514 21:59:29.840675  3512 net.cpp:356] fc8_pascal -> fc8_pascal
I0514 21:59:29.840682  3512 net.cpp:96] Setting up fc8_pascal
I0514 21:59:29.842008  3512 net.cpp:103] Top shape: 32 10 1 1 (320)
I0514 21:59:29.842021  3512 net.cpp:67] Creating Layer loss
I0514 21:59:29.842025  3512 net.cpp:394] loss <- fc8_pascal
I0514 21:59:29.842031  3512 net.cpp:394] loss <- label
I0514 21:59:29.842036  3512 net.cpp:356] loss -> (automatic)
I0514 21:59:29.842041  3512 net.cpp:96] Setting up loss
I0514 21:59:29.842054  3512 net.cpp:103] Top shape: 1 1 1 1 (1)
I0514 21:59:29.842061  3512 net.cpp:109]     with loss weight 1
I0514 21:59:29.842085  3512 net.cpp:170] loss needs backward computation.
I0514 21:59:29.842090  3512 net.cpp:170] fc8_pascal needs backward computation.
I0514 21:59:29.842094  3512 net.cpp:170] drop7 needs backward computation.
I0514 21:59:29.842097  3512 net.cpp:170] relu7 needs backward computation.
I0514 21:59:29.842102  3512 net.cpp:170] fc7 needs backward computation.
…
E0514 21:59:29.842912  3512 upgrade_proto.cpp:608] Note that future Caffe releases will not support V0NetParameter; use ./build/tools/upgrade_net_proto_text for prototxt and ./build/tools/upgrade_net_proto_binary for model weights upgrade this and any other net protos to the new format.
I0514 21:59:29.842947  3512 solver.cpp:151] Creating test net (#0) specified by test_net file: AlexNet_CIFAR10_test.prototxt
I0514 21:59:29.843116  3512 net.cpp:39] Initializing net from parameters: 
name: "CIFAR10"
layers {
  top: "data"
  top: "label"
  name: "data"
  type: DATA
  data_param {
    source: "/home/iis/deep/rcnn_packages/caffe-new/examples/mycifar10/cifar10_val_leveldb"
    batch_size: 32
  }
  transform_param {
    mirror: true
    crop_size: 227
    mean_file: "/home/iis/deep/rcnn_packages/caffe-new/data/ilsvrc12/imagenet_mean.binaryproto"
  }
}
layers {
  bottom: "data"
  top: "conv1"
  name: "conv1"
  type: CONVOLUTION
  blobs_lr: 1
  blobs_lr: 2
  weight_decay: 1
  weight_decay: 0
  convolution_param {
    num_output: 96
    kernel_size: 11
    stride: 4
    weight_filler {
      type: "gaussian"
      std: 0.01
    }
    bias_filler {
      type: "constant"
      value: 0
    }
  }
}
layers {
  bottom: "conv1"
  top: "conv1"
  name: "relu1"
  type: RELU
}
layers {
  bottom: "conv1"
  top: "pool1"
  name: "pool1"
  type: POOLING
  pooling_param {
    pool: MAX
    kernel_size: 3
    stride: 2
  }
}
layers {
  bottom: "pool1"
  top: "norm1"
  name: "norm1"
  type: LRN
  lrn_param {
    local_size: 5
    alpha: 0.0001
    beta: 0.75
  }
}
layers {
  bottom: "norm1"
  top: "conv2"
  name: "conv2"
  type: CONVOLUTION
  blobs_lr: 1
  blobs_lr: 2
  weight_decay: 1
  weight_decay: 0
  convolution_param {
    num_output: 256
    pad: 2
    kernel_size: 5
    group: 2
    weight_filler {
      type: "gaussian"
      std: 0.01
    }
    bias_filler {
      type: "constant"
      value: 1
    }
  }
}
layers {
  bottom: "conv2"
  top: "conv2"
  name: "relu2"
  type: RELU
}
layers {
  bottom: "conv2"
  top: "pool2"
  name: "pool2"
  type: POOLING
  pooling_param {
    pool: MAX
    kernel_size: 3
    stride: 2
  }
}
layers {
  bottom: "pool2"
  top: "norm2"
  name: "norm2"
  type: LRN
  lrn_param {
    local_size: 5
    alpha: 0.0001
    beta: 0.75
  }
}
layers {
  bottom: "norm2"
  top: "conv3"
  name: "conv3"
  type: CONVOLUTION
  blobs_lr: 1
  blobs_lr: 2
  weight_decay: 1
  weight_decay: 0
  convolution_param {
    num_output: 384
    pad: 1
    kernel_size: 3
    weight_filler {
      type: "gaussian"
      std: 0.01
    }
    bias_filler {
      type: "constant"
      value: 0
    }
  }
}
layers {
  bottom: "conv3"
  top: "conv3"
  name: "relu3"
  type: RELU
}
layers {
  bottom: "conv3"
  top: "conv4"
  name: "conv4"
  type: CONVOLUTION
  blobs_lr: 1
  blobs_lr: 2
  weight_decay: 1
  weight_decay: 0
  convolution_param {
    num_output: 384
    pad: 1
    kernel_size: 3
    group: 2
    weight_filler {
      type: "gaussian"
      std: 0.01
    }
    bias_filler {
      type: "constant"
      value: 1
    }
  }
}
layers {
  bottom: "conv4"
  top: "conv4"
  name: "relu4"
  type: RELU
}
layers {
  bottom: "conv4"
  top: "conv5"
  name: "conv5"
  type: CONVOLUTION
  blobs_lr: 1
  blobs_lr: 2
  weight_decay: 1
  weight_decay: 0
  convolution_param {
    num_output: 256
    pad: 1
    kernel_size: 3
    group: 2
    weight_filler {
      type: "gaussian"
      std: 0.01
    }
    bias_filler {
      type: "constant"
      value: 1
    }
  }
}
layers {
  bottom: "conv5"
  top: "conv5"
  name: "relu5"
  type: RELU
}
layers {
  bottom: "conv5"
  top: "pool5"
  name: "pool5"
  type: POOLING
  pooling_param {
    pool: MAX
    kernel_size: 3
    stride: 2
  }
}
layers {
  bottom: "pool5"
  top: "fc6"
  name: "fc6"
  type: INNER_PRODUCT
  blobs_lr: 1
  blobs_lr: 2
  weight_decay: 1
  weight_decay: 0
  inner_product_param {
    num_output: 4096
    weight_filler {
      type: "gaussian"
      std: 0.005
    }
    bias_filler {
      type: "constant"
      value: 1
    }
  }
}
layers {
  bottom: "fc6"
  top: "fc6"
  name: "relu6"
  type: RELU
}
layers {
  bottom: "fc6"
  top: "fc6"
  name: "drop6"
  type: DROPOUT
  dropout_param {
    dropout_ratio: 0.5
  }
}
layers {
  bottom: "fc6"
  top: "fc7"
  name: "fc7"
  type: INNER_PRODUCT
  blobs_lr: 1
  blobs_lr: 2
  weight_decay: 1
  weight_decay: 0
  inner_product_param {
    num_output: 4096
    weight_filler {
      type: "gaussian"
      std: 0.005
    }
    bias_filler {
      type: "constant"
      value: 1
    }
  }
}
layers {
  bottom: "fc7"
  top: "fc7"
  name: "relu7"
  type: RELU
}
layers {
  bottom: "fc7"
  top: "fc7"
  name: "drop7"
  type: DROPOUT
  dropout_param {
    dropout_ratio: 0.5
  }
}
layers {
  bottom: "fc7"
  top: "fc8_pascal"
  name: "fc8_pascal"
  type: INNER_PRODUCT
  blobs_lr: 10
  blobs_lr: 20
  weight_decay: 1
  weight_decay: 0
  inner_product_param {
    num_output: 10
    weight_filler {
      type: "gaussian"
      std: 0.01
    }
    bias_filler {
      type: "constant"
      value: 0
    }
  }
}
layers {
  bottom: "fc8_pascal"
  top: "prob"
  name: "prob"
  type: SOFTMAX
}
layers {
  bottom: "prob"
  bottom: "label"
  top: "accuracy"
  name: "accuracy"
  type: ACCURACY
}
state {
  phase: TEST
}
I0514 21:59:29.843191  3512 net.cpp:67] Creating Layer data
I0514 21:59:29.843199  3512 net.cpp:356] data -> data
I0514 21:59:29.843207  3512 net.cpp:356] data -> label
I0514 21:59:29.843214  3512 net.cpp:96] Setting up data
I0514 21:59:29.843219  3512 data_layer.cpp:45] Opening leveldb /home/iis/deep/rcnn_packages/caffe-new/examples/mycifar10/cifar10_val_leveldb
I0514 21:59:29.924618  3512 data_layer.cpp:128] output data size: 32,3,227,227
I0514 21:59:29.924648  3512 base_data_layer.cpp:36] Loading mean file from/home/iis/deep/rcnn_packages/caffe-new/data/ilsvrc12/imagenet_mean.binaryproto
I0514 21:59:29.933075  3512 net.cpp:103] Top shape: 32 3 227 227 (4946784)
I0514 21:59:29.933109  3512 net.cpp:103] Top shape: 32 1 1 1 (32)
I0514 21:59:29.933126  3512 net.cpp:67] Creating Layer conv1
I0514 21:59:29.933131  3512 net.cpp:394] conv1 <- data
I0514 21:59:29.933142  3512 net.cpp:356] conv1 -> conv1
I0514 21:59:29.933154  3512 net.cpp:96] Setting up conv1
I0514 21:59:29.934314  3512 net.cpp:103] Top shape: 32 96 55 55 (9292800)
I0514 21:59:29.934341  3512 net.cpp:67] Creating Layer relu1
I0514 21:59:29.934352  3512 net.cpp:394] relu1 <- conv1
I0514 21:59:29.934361  3512 net.cpp:345] relu1 -> conv1 (in-place)
I0514 21:59:29.934367  3512 net.cpp:96] Setting up relu1
I0514 21:59:29.934371  3512 net.cpp:103] Top shape: 32 96 55 55 (9292800)
I0514 21:59:29.934378  3512 net.cpp:67] Creating Layer pool1
I0514 21:59:29.934381  3512 net.cpp:394] pool1 <- conv1
I0514 21:59:29.934387  3512 net.cpp:356] pool1 -> pool1
I0514 21:59:29.934392  3512 net.cpp:96] Setting up pool1
I0514 21:59:29.934401  3512 net.cpp:103] Top shape: 32 96 27 27 (2239488)
I0514 21:59:29.934413  3512 net.cpp:67] Creating Layer norm1
I0514 21:59:29.934423  3512 net.cpp:394] norm1 <- pool1
I0514 21:59:29.934432  3512 net.cpp:356] norm1 -> norm1
I0514 21:59:29.934439  3512 net.cpp:96] Setting up norm1
I0514 21:59:29.934444  3512 net.cpp:103] Top shape: 32 96 27 27 (2239488)
I0514 21:59:29.934451  3512 net.cpp:67] Creating Layer conv2
I0514 21:59:29.934458  3512 net.cpp:394] conv2 <- norm1
I0514 21:59:29.934494  3512 net.cpp:356] conv2 -> conv2
I0514 21:59:29.934504  3512 net.cpp:96] Setting up conv2
I0514 21:59:29.944913  3512 net.cpp:103] Top shape: 32 256 27 27 (5971968)
I0514 21:59:29.944955  3512 net.cpp:67] Creating Layer relu2
I0514 21:59:29.944962  3512 net.cpp:394] relu2 <- conv2
I0514 21:59:29.944969  3512 net.cpp:345] relu2 -> conv2 (in-place)
I0514 21:59:29.944977  3512 net.cpp:96] Setting up relu2
I0514 21:59:29.944982  3512 net.cpp:103] Top shape: 32 256 27 27 (5971968)
I0514 21:59:29.944988  3512 net.cpp:67] Creating Layer pool2
I0514 21:59:29.944991  3512 net.cpp:394] pool2 <- conv2
I0514 21:59:29.944996  3512 net.cpp:356] pool2 -> pool2
I0514 21:59:29.945003  3512 net.cpp:96] Setting up pool2
I0514 21:59:29.945009  3512 net.cpp:103] Top shape: 32 256 13 13 (1384448)
I0514 21:59:29.945019  3512 net.cpp:67] Creating Layer norm2
I0514 21:59:29.945024  3512 net.cpp:394] norm2 <- pool2
I0514 21:59:29.945029  3512 net.cpp:356] norm2 -> norm2
I0514 21:59:29.945035  3512 net.cpp:96] Setting up norm2
I0514 21:59:29.945040  3512 net.cpp:103] Top shape: 32 256 13 13 (1384448)
I0514 21:59:29.945046  3512 net.cpp:67] Creating Layer conv3
I0514 21:59:29.945050  3512 net.cpp:394] conv3 <- norm2
I0514 21:59:29.945055  3512 net.cpp:356] conv3 -> conv3
I0514 21:59:29.945062  3512 net.cpp:96] Setting up conv3
I0514 21:59:29.974730  3512 net.cpp:103] Top shape: 32 384 13 13 (2076672)
I0514 21:59:29.974777  3512 net.cpp:67] Creating Layer relu3
I0514 21:59:29.974784  3512 net.cpp:394] relu3 <- conv3
I0514 21:59:29.974792  3512 net.cpp:345] relu3 -> conv3 (in-place)
I0514 21:59:29.974799  3512 net.cpp:96] Setting up relu3
I0514 21:59:29.974803  3512 net.cpp:103] Top shape: 32 384 13 13 (2076672)
I0514 21:59:29.974810  3512 net.cpp:67] Creating Layer conv4
I0514 21:59:29.974814  3512 net.cpp:394] conv4 <- conv3
I0514 21:59:29.974820  3512 net.cpp:356] conv4 -> conv4
I0514 21:59:29.974827  3512 net.cpp:96] Setting up conv4
I0514 21:59:29.996633  3512 net.cpp:103] Top shape: 32 384 13 13 (2076672)
I0514 21:59:29.996669  3512 net.cpp:67] Creating Layer relu4
I0514 21:59:29.996675  3512 net.cpp:394] relu4 <- conv4
I0514 21:59:29.996681  3512 net.cpp:345] relu4 -> conv4 (in-place)
I0514 21:59:29.996688  3512 net.cpp:96] Setting up relu4
I0514 21:59:29.996693  3512 net.cpp:103] Top shape: 32 384 13 13 (2076672)
I0514 21:59:29.996701  3512 net.cpp:67] Creating Layer conv5
I0514 21:59:29.996703  3512 net.cpp:394] conv5 <- conv4
I0514 21:59:29.996709  3512 net.cpp:356] conv5 -> conv5
I0514 21:59:29.996716  3512 net.cpp:96] Setting up conv5
I0514 21:59:30.011314  3512 net.cpp:103] Top shape: 32 256 13 13 (1384448)
I0514 21:59:30.011358  3512 net.cpp:67] Creating Layer relu5
I0514 21:59:30.011366  3512 net.cpp:394] relu5 <- conv5
I0514 21:59:30.011374  3512 net.cpp:345] relu5 -> conv5 (in-place)
I0514 21:59:30.011381  3512 net.cpp:96] Setting up relu5
I0514 21:59:30.011386  3512 net.cpp:103] Top shape: 32 256 13 13 (1384448)
I0514 21:59:30.011392  3512 net.cpp:67] Creating Layer pool5
I0514 21:59:30.011396  3512 net.cpp:394] pool5 <- conv5
I0514 21:59:30.011401  3512 net.cpp:356] pool5 -> pool5
I0514 21:59:30.011407  3512 net.cpp:96] Setting up pool5
I0514 21:59:30.011414  3512 net.cpp:103] Top shape: 32 256 6 6 (294912)
I0514 21:59:30.011422  3512 net.cpp:67] Creating Layer fc6
I0514 21:59:30.011426  3512 net.cpp:394] fc6 <- pool5
I0514 21:59:30.011431  3512 net.cpp:356] fc6 -> fc6
I0514 21:59:30.011438  3512 net.cpp:96] Setting up fc6
I0514 21:59:31.258246  3512 net.cpp:103] Top shape: 32 4096 1 1 (131072)
I0514 21:59:31.258288  3512 net.cpp:67] Creating Layer relu6
I0514 21:59:31.258296  3512 net.cpp:394] relu6 <- fc6
I0514 21:59:31.258304  3512 net.cpp:345] relu6 -> fc6 (in-place)
I0514 21:59:31.258312  3512 net.cpp:96] Setting up relu6
I0514 21:59:31.258316  3512 net.cpp:103] Top shape: 32 4096 1 1 (131072)
I0514 21:59:31.258322  3512 net.cpp:67] Creating Layer drop6
I0514 21:59:31.258327  3512 net.cpp:394] drop6 <- fc6
I0514 21:59:31.258332  3512 net.cpp:345] drop6 -> fc6 (in-place)
I0514 21:59:31.258340  3512 net.cpp:96] Setting up drop6
I0514 21:59:31.258370  3512 net.cpp:103] Top shape: 32 4096 1 1 (131072)
I0514 21:59:31.258379  3512 net.cpp:67] Creating Layer fc7
I0514 21:59:31.258383  3512 net.cpp:394] fc7 <- fc6
I0514 21:59:31.258388  3512 net.cpp:356] fc7 -> fc7
I0514 21:59:31.258397  3512 net.cpp:96] Setting up fc7
I0514 21:59:31.809658  3512 net.cpp:103] Top shape: 32 4096 1 1 (131072)
I0514 21:59:31.809700  3512 net.cpp:67] Creating Layer relu7
I0514 21:59:31.809705  3512 net.cpp:394] relu7 <- fc7
I0514 21:59:31.809713  3512 net.cpp:345] relu7 -> fc7 (in-place)
I0514 21:59:31.809722  3512 net.cpp:96] Setting up relu7
I0514 21:59:31.809726  3512 net.cpp:103] Top shape: 32 4096 1 1 (131072)
I0514 21:59:31.809732  3512 net.cpp:67] Creating Layer drop7
I0514 21:59:31.809736  3512 net.cpp:394] drop7 <- fc7
I0514 21:59:31.809741  3512 net.cpp:345] drop7 -> fc7 (in-place)
I0514 21:59:31.809746  3512 net.cpp:96] Setting up drop7
I0514 21:59:31.809753  3512 net.cpp:103] Top shape: 32 4096 1 1 (131072)
I0514 21:59:31.809761  3512 net.cpp:67] Creating Layer fc8_pascal
I0514 21:59:31.809764  3512 net.cpp:394] fc8_pascal <- fc7
I0514 21:59:31.809769  3512 net.cpp:356] fc8_pascal -> fc8_pascal
I0514 21:59:31.809777  3512 net.cpp:96] Setting up fc8_pascal
I0514 21:59:31.811095  3512 net.cpp:103] Top shape: 32 10 1 1 (320)
I0514 21:59:31.811108  3512 net.cpp:67] Creating Layer prob
I0514 21:59:31.811112  3512 net.cpp:394] prob <- fc8_pascal
I0514 21:59:31.811118  3512 net.cpp:356] prob -> prob
I0514 21:59:31.811125  3512 net.cpp:96] Setting up prob
I0514 21:59:31.811131  3512 net.cpp:103] Top shape: 32 10 1 1 (320)
I0514 21:59:31.811136  3512 net.cpp:67] Creating Layer accuracy
I0514 21:59:31.811139  3512 net.cpp:394] accuracy <- prob
I0514 21:59:31.811144  3512 net.cpp:394] accuracy <- label
I0514 21:59:31.811149  3512 net.cpp:356] accuracy -> accuracy
I0514 21:59:31.811158  3512 net.cpp:96] Setting up accuracy
I0514 21:59:31.811169  3512 net.cpp:103] Top shape: 1 1 1 1 (1)
I0514 21:59:31.811174  3512 net.cpp:172] accuracy does not need backward computation.
I0514 21:59:31.811177  3512 net.cpp:172] prob does not need backward computation.
I0514 21:59:31.811182  3512 net.cpp:172] fc8_pascal does not need backward computation.
I0514 21:59:31.811184  3512 net.cpp:172] drop7 does not need backward computation.
I0514 21:59:31.811187  3512 net.cpp:172] relu7 does not need backward computation.
…
