…
E0513 11:03:11.556408 32447 upgrade_proto.cpp:608] Note that future Caffe releases will not support V0NetParameter; use ./build/tools/upgrade_net_proto_text for prototxt and ./build/tools/upgrade_net_proto_binary for model weights upgrade this and any other net protos to the new format.
I0513 11:03:11.556602 32447 net.cpp:39] Initializing net from parameters: 
name: "KevinNet_CIFAR10"
layers {
  top: "data"
  top: "label"
  name: "data"
  type: DATA
  data_param {
    source: "/home/iis/deep/rcnn_packages/caffe-new/examples/mycifar10/cifar10_train_leveldb"
    batch_size: 32
  }
  transform_param {
    mirror: true
    crop_size: 227
    mean_file: "/home/iis/deep/rcnn_packages/caffe-new/data/ilsvrc12/imagenet_mean.binaryproto"
  }
}
layers {
  bottom: "data"
  top: "conv1"
  name: "conv1"
  type: CONVOLUTION
  blobs_lr: 1
  blobs_lr: 2
  weight_decay: 1
  weight_decay: 0
  convolution_param {
    num_output: 96
    kernel_size: 11
    stride: 4
    weight_filler {
      type: "gaussian"
      std: 0.01
    }
    bias_filler {
      type: "constant"
      value: 0
    }
  }
}
layers {
  bottom: "conv1"
  top: "conv1"
  name: "relu1"
  type: RELU
}
layers {
  bottom: "conv1"
  top: "pool1"
  name: "pool1"
  type: POOLING
  pooling_param {
    pool: MAX
    kernel_size: 3
    stride: 2
  }
}
layers {
  bottom: "pool1"
  top: "norm1"
  name: "norm1"
  type: LRN
  lrn_param {
    local_size: 5
    alpha: 0.0001
    beta: 0.75
  }
}
layers {
  bottom: "norm1"
  top: "conv2"
  name: "conv2"
  type: CONVOLUTION
  blobs_lr: 1
  blobs_lr: 2
  weight_decay: 1
  weight_decay: 0
  convolution_param {
    num_output: 256
    pad: 2
    kernel_size: 5
    group: 2
    weight_filler {
      type: "gaussian"
      std: 0.01
    }
    bias_filler {
      type: "constant"
      value: 1
    }
  }
}
layers {
  bottom: "conv2"
  top: "conv2"
  name: "relu2"
  type: RELU
}
layers {
  bottom: "conv2"
  top: "pool2"
  name: "pool2"
  type: POOLING
  pooling_param {
    pool: MAX
    kernel_size: 3
    stride: 2
  }
}
layers {
  bottom: "pool2"
  top: "norm2"
  name: "norm2"
  type: LRN
  lrn_param {
    local_size: 5
    alpha: 0.0001
    beta: 0.75
  }
}
layers {
  bottom: "norm2"
  top: "conv3"
  name: "conv3"
  type: CONVOLUTION
  blobs_lr: 1
  blobs_lr: 2
  weight_decay: 1
  weight_decay: 0
  convolution_param {
    num_output: 384
    pad: 1
    kernel_size: 3
    weight_filler {
      type: "gaussian"
      std: 0.01
    }
    bias_filler {
      type: "constant"
      value: 0
    }
  }
}
layers {
  bottom: "conv3"
  top: "conv3"
  name: "relu3"
  type: RELU
}
layers {
  bottom: "conv3"
  top: "conv4"
  name: "conv4"
  type: CONVOLUTION
  blobs_lr: 1
  blobs_lr: 2
  weight_decay: 1
  weight_decay: 0
  convolution_param {
    num_output: 384
    pad: 1
    kernel_size: 3
    group: 2
    weight_filler {
      type: "gaussian"
      std: 0.01
    }
    bias_filler {
      type: "constant"
      value: 1
    }
  }
}
layers {
  bottom: "conv4"
  top: "conv4"
  name: "relu4"
  type: RELU
}
layers {
  bottom: "conv4"
  top: "conv5"
  name: "conv5"
  type: CONVOLUTION
  blobs_lr: 1
  blobs_lr: 2
  weight_decay: 1
  weight_decay: 0
  convolution_param {
    num_output: 256
    pad: 1
    kernel_size: 3
    group: 2
    weight_filler {
      type: "gaussian"
      std: 0.01
    }
    bias_filler {
      type: "constant"
      value: 1
    }
  }
}
layers {
  bottom: "conv5"
  top: "conv5"
  name: "relu5"
  type: RELU
}
layers {
  bottom: "conv5"
  top: "pool5"
  name: "pool5"
  type: POOLING
  pooling_param {
    pool: MAX
    kernel_size: 3
    stride: 2
  }
}
layers {
  bottom: "pool5"
  top: "fc6"
  name: "fc6"
  type: INNER_PRODUCT
  blobs_lr: 1
  blobs_lr: 2
  weight_decay: 1
  weight_decay: 0
  inner_product_param {
    num_output: 4096
    weight_filler {
      type: "gaussian"
      std: 0.005
    }
    bias_filler {
      type: "constant"
      value: 1
    }
  }
}
layers {
  bottom: "fc6"
  top: "fc6"
  name: "relu6"
  type: RELU
}
layers {
  bottom: "fc6"
  top: "fc6"
  name: "drop6"
  type: DROPOUT
  dropout_param {
    dropout_ratio: 0.5
  }
}
layers {
  bottom: "fc6"
  top: "fc7"
  name: "fc7"
  type: INNER_PRODUCT
  blobs_lr: 1
  blobs_lr: 2
  weight_decay: 1
  weight_decay: 0
  inner_product_param {
    num_output: 4096
    weight_filler {
      type: "gaussian"
      std: 0.005
    }
    bias_filler {
      type: "constant"
      value: 1
    }
  }
}
layers {
  bottom: "fc7"
  top: "fc7"
  name: "relu7"
  type: RELU
}
layers {
  bottom: "fc7"
  top: "fc7"
  name: "drop7"
  type: DROPOUT
  dropout_param {
    dropout_ratio: 0.5
  }
}
layers {
  bottom: "fc7"
  top: "fc8_kevin"
  name: "fc8_kevin"
  type: INNER_PRODUCT
  blobs_lr: 1
  blobs_lr: 2
  weight_decay: 1
  weight_decay: 0
  inner_product_param {
    num_output: 12
    weight_filler {
      type: "gaussian"
      std: 0.005
    }
    bias_filler {
      type: "constant"
      value: 1
    }
  }
}
layers {
  bottom: "fc8_kevin"
  top: "fc8_kevin_encode"
  name: "fc8_kevin_encode"
  type: SIGMOID
}
layers {
  bottom: "fc8_kevin_encode"
  bottom: "fc8_kevin_encode"
  name: "loss_1"
  type: K1_EUCLIDEAN_LOSS
}
layers {
  bottom: "fc8_kevin_encode"
  bottom: "fc8_kevin_encode"
  name: "loss_2"
  type: K2_EUCLIDEAN_LOSS
}
layers {
  bottom: "fc8_kevin_encode"
  top: "fc8_pascal"
  name: "fc8_pascal"
  type: INNER_PRODUCT
  blobs_lr: 10
  blobs_lr: 20
  weight_decay: 1
  weight_decay: 0
  inner_product_param {
    num_output: 10
    weight_filler {
      type: "gaussian"
      std: 0.01
    }
    bias_filler {
      type: "constant"
      value: 0
    }
  }
}
layers {
  bottom: "fc8_pascal"
  bottom: "label"
  name: "loss"
  type: SOFTMAX_LOSS
}
state {
  phase: TRAIN
}
I0513 11:03:11.556715 32447 net.cpp:67] Creating Layer data
I0513 11:03:11.556725 32447 net.cpp:356] data -> data
I0513 11:03:11.556738 32447 net.cpp:356] data -> label
I0513 11:03:11.556746 32447 net.cpp:96] Setting up data
I0513 11:03:11.556761 32447 data_layer.cpp:45] Opening leveldb /home/iis/deep/rcnn_packages/caffe-new/examples/mycifar10/cifar10_train_leveldb
I0513 11:03:11.629688 32447 data_layer.cpp:128] output data size: 32,3,227,227
I0513 11:03:11.629724 32447 base_data_layer.cpp:36] Loading mean file from/home/iis/deep/rcnn_packages/caffe-new/data/ilsvrc12/imagenet_mean.binaryproto
I0513 11:03:11.642482 32447 net.cpp:103] Top shape: 32 3 227 227 (4946784)
I0513 11:03:11.642498 32447 net.cpp:103] Top shape: 32 1 1 1 (32)
I0513 11:03:11.642560 32447 net.cpp:67] Creating Layer conv1
I0513 11:03:11.642570 32447 net.cpp:394] conv1 <- data
I0513 11:03:11.642581 32447 net.cpp:356] conv1 -> conv1
I0513 11:03:11.642592 32447 net.cpp:96] Setting up conv1
I0513 11:03:11.643751 32447 net.cpp:103] Top shape: 32 96 55 55 (9292800)
I0513 11:03:11.643774 32447 net.cpp:67] Creating Layer relu1
I0513 11:03:11.643779 32447 net.cpp:394] relu1 <- conv1
I0513 11:03:11.643784 32447 net.cpp:345] relu1 -> conv1 (in-place)
I0513 11:03:11.643790 32447 net.cpp:96] Setting up relu1
I0513 11:03:11.643795 32447 net.cpp:103] Top shape: 32 96 55 55 (9292800)
I0513 11:03:11.643801 32447 net.cpp:67] Creating Layer pool1
I0513 11:03:11.643805 32447 net.cpp:394] pool1 <- conv1
I0513 11:03:11.643811 32447 net.cpp:356] pool1 -> pool1
I0513 11:03:11.643820 32447 net.cpp:96] Setting up pool1
I0513 11:03:11.643831 32447 net.cpp:103] Top shape: 32 96 27 27 (2239488)
I0513 11:03:11.643838 32447 net.cpp:67] Creating Layer norm1
I0513 11:03:11.643842 32447 net.cpp:394] norm1 <- pool1
I0513 11:03:11.643847 32447 net.cpp:356] norm1 -> norm1
I0513 11:03:11.643856 32447 net.cpp:96] Setting up norm1
I0513 11:03:11.643862 32447 net.cpp:103] Top shape: 32 96 27 27 (2239488)
I0513 11:03:11.643870 32447 net.cpp:67] Creating Layer conv2
I0513 11:03:11.643874 32447 net.cpp:394] conv2 <- norm1
I0513 11:03:11.643880 32447 net.cpp:356] conv2 -> conv2
I0513 11:03:11.643887 32447 net.cpp:96] Setting up conv2
I0513 11:03:11.653959 32447 net.cpp:103] Top shape: 32 256 27 27 (5971968)
I0513 11:03:11.653995 32447 net.cpp:67] Creating Layer relu2
I0513 11:03:11.654000 32447 net.cpp:394] relu2 <- conv2
I0513 11:03:11.654008 32447 net.cpp:345] relu2 -> conv2 (in-place)
I0513 11:03:11.654016 32447 net.cpp:96] Setting up relu2
I0513 11:03:11.654021 32447 net.cpp:103] Top shape: 32 256 27 27 (5971968)
I0513 11:03:11.654026 32447 net.cpp:67] Creating Layer pool2
I0513 11:03:11.654031 32447 net.cpp:394] pool2 <- conv2
I0513 11:03:11.654036 32447 net.cpp:356] pool2 -> pool2
I0513 11:03:11.654042 32447 net.cpp:96] Setting up pool2
I0513 11:03:11.654047 32447 net.cpp:103] Top shape: 32 256 13 13 (1384448)
I0513 11:03:11.654055 32447 net.cpp:67] Creating Layer norm2
I0513 11:03:11.654059 32447 net.cpp:394] norm2 <- pool2
I0513 11:03:11.654064 32447 net.cpp:356] norm2 -> norm2
I0513 11:03:11.654070 32447 net.cpp:96] Setting up norm2
I0513 11:03:11.654075 32447 net.cpp:103] Top shape: 32 256 13 13 (1384448)
I0513 11:03:11.654080 32447 net.cpp:67] Creating Layer conv3
I0513 11:03:11.654086 32447 net.cpp:394] conv3 <- norm2
I0513 11:03:11.654093 32447 net.cpp:356] conv3 -> conv3
I0513 11:03:11.654099 32447 net.cpp:96] Setting up conv3
I0513 11:03:11.683343 32447 net.cpp:103] Top shape: 32 384 13 13 (2076672)
I0513 11:03:11.683382 32447 net.cpp:67] Creating Layer relu3
I0513 11:03:11.683387 32447 net.cpp:394] relu3 <- conv3
I0513 11:03:11.683394 32447 net.cpp:345] relu3 -> conv3 (in-place)
I0513 11:03:11.683403 32447 net.cpp:96] Setting up relu3
I0513 11:03:11.683406 32447 net.cpp:103] Top shape: 32 384 13 13 (2076672)
I0513 11:03:11.683413 32447 net.cpp:67] Creating Layer conv4
I0513 11:03:11.683418 32447 net.cpp:394] conv4 <- conv3
I0513 11:03:11.683423 32447 net.cpp:356] conv4 -> conv4
I0513 11:03:11.683429 32447 net.cpp:96] Setting up conv4
I0513 11:03:11.705298 32447 net.cpp:103] Top shape: 32 384 13 13 (2076672)
I0513 11:03:11.705320 32447 net.cpp:67] Creating Layer relu4
I0513 11:03:11.705325 32447 net.cpp:394] relu4 <- conv4
I0513 11:03:11.705332 32447 net.cpp:345] relu4 -> conv4 (in-place)
I0513 11:03:11.705338 32447 net.cpp:96] Setting up relu4
I0513 11:03:11.705343 32447 net.cpp:103] Top shape: 32 384 13 13 (2076672)
I0513 11:03:11.705349 32447 net.cpp:67] Creating Layer conv5
I0513 11:03:11.705353 32447 net.cpp:394] conv5 <- conv4
I0513 11:03:11.705358 32447 net.cpp:356] conv5 -> conv5
I0513 11:03:11.705363 32447 net.cpp:96] Setting up conv5
I0513 11:03:11.719944 32447 net.cpp:103] Top shape: 32 256 13 13 (1384448)
I0513 11:03:11.719962 32447 net.cpp:67] Creating Layer relu5
I0513 11:03:11.719987 32447 net.cpp:394] relu5 <- conv5
I0513 11:03:11.719995 32447 net.cpp:345] relu5 -> conv5 (in-place)
I0513 11:03:11.720001 32447 net.cpp:96] Setting up relu5
I0513 11:03:11.720005 32447 net.cpp:103] Top shape: 32 256 13 13 (1384448)
I0513 11:03:11.720011 32447 net.cpp:67] Creating Layer pool5
I0513 11:03:11.720017 32447 net.cpp:394] pool5 <- conv5
I0513 11:03:11.720023 32447 net.cpp:356] pool5 -> pool5
I0513 11:03:11.720029 32447 net.cpp:96] Setting up pool5
I0513 11:03:11.720036 32447 net.cpp:103] Top shape: 32 256 6 6 (294912)
I0513 11:03:11.720044 32447 net.cpp:67] Creating Layer fc6
I0513 11:03:11.720048 32447 net.cpp:394] fc6 <- pool5
I0513 11:03:11.720053 32447 net.cpp:356] fc6 -> fc6
I0513 11:03:11.720060 32447 net.cpp:96] Setting up fc6
I0513 11:03:12.929203 32447 net.cpp:103] Top shape: 32 4096 1 1 (131072)
I0513 11:03:12.929239 32447 net.cpp:67] Creating Layer relu6
I0513 11:03:12.929245 32447 net.cpp:394] relu6 <- fc6
I0513 11:03:12.929253 32447 net.cpp:345] relu6 -> fc6 (in-place)
I0513 11:03:12.929261 32447 net.cpp:96] Setting up relu6
I0513 11:03:12.929265 32447 net.cpp:103] Top shape: 32 4096 1 1 (131072)
I0513 11:03:12.929271 32447 net.cpp:67] Creating Layer drop6
I0513 11:03:12.929275 32447 net.cpp:394] drop6 <- fc6
I0513 11:03:12.929280 32447 net.cpp:345] drop6 -> fc6 (in-place)
I0513 11:03:12.929286 32447 net.cpp:96] Setting up drop6
I0513 11:03:12.929304 32447 net.cpp:103] Top shape: 32 4096 1 1 (131072)
I0513 11:03:12.929311 32447 net.cpp:67] Creating Layer fc7
I0513 11:03:12.929316 32447 net.cpp:394] fc7 <- fc6
I0513 11:03:12.929322 32447 net.cpp:356] fc7 -> fc7
I0513 11:03:12.929329 32447 net.cpp:96] Setting up fc7
I0513 11:03:13.454686 32447 net.cpp:103] Top shape: 32 4096 1 1 (131072)
I0513 11:03:13.454723 32447 net.cpp:67] Creating Layer relu7
I0513 11:03:13.454728 32447 net.cpp:394] relu7 <- fc7
I0513 11:03:13.454736 32447 net.cpp:345] relu7 -> fc7 (in-place)
I0513 11:03:13.454745 32447 net.cpp:96] Setting up relu7
I0513 11:03:13.454748 32447 net.cpp:103] Top shape: 32 4096 1 1 (131072)
I0513 11:03:13.454754 32447 net.cpp:67] Creating Layer drop7
I0513 11:03:13.454757 32447 net.cpp:394] drop7 <- fc7
I0513 11:03:13.454762 32447 net.cpp:345] drop7 -> fc7 (in-place)
I0513 11:03:13.454768 32447 net.cpp:96] Setting up drop7
I0513 11:03:13.454772 32447 net.cpp:103] Top shape: 32 4096 1 1 (131072)
I0513 11:03:13.454790 32447 net.cpp:67] Creating Layer fc8_kevin
I0513 11:03:13.454797 32447 net.cpp:394] fc8_kevin <- fc7
I0513 11:03:13.454803 32447 net.cpp:356] fc8_kevin -> fc8_kevin
I0513 11:03:13.454810 32447 net.cpp:96] Setting up fc8_kevin
I0513 11:03:13.456342 32447 net.cpp:103] Top shape: 32 12 1 1 (384)
I0513 11:03:13.456356 32447 net.cpp:67] Creating Layer fc8_kevin_encode
I0513 11:03:13.456359 32447 net.cpp:394] fc8_kevin_encode <- fc8_kevin
I0513 11:03:13.456365 32447 net.cpp:356] fc8_kevin_encode -> fc8_kevin_encode
I0513 11:03:13.456372 32447 net.cpp:96] Setting up fc8_kevin_encode
I0513 11:03:13.456375 32447 net.cpp:103] Top shape: 32 12 1 1 (384)
I0513 11:03:13.456382 32447 net.cpp:67] Creating Layer fc8_kevin_encode_fc8_kevin_encode_0_split
I0513 11:03:13.456385 32447 net.cpp:394] fc8_kevin_encode_fc8_kevin_encode_0_split <- fc8_kevin_encode
I0513 11:03:13.456390 32447 net.cpp:356] fc8_kevin_encode_fc8_kevin_encode_0_split -> fc8_kevin_encode_fc8_kevin_encode_0_split_0
I0513 11:03:13.456399 32447 net.cpp:356] fc8_kevin_encode_fc8_kevin_encode_0_split -> fc8_kevin_encode_fc8_kevin_encode_0_split_1
I0513 11:03:13.456418 32447 net.cpp:356] fc8_kevin_encode_fc8_kevin_encode_0_split -> fc8_kevin_encode_fc8_kevin_encode_0_split_2
I0513 11:03:13.456425 32447 net.cpp:356] fc8_kevin_encode_fc8_kevin_encode_0_split -> fc8_kevin_encode_fc8_kevin_encode_0_split_3
I0513 11:03:13.456431 32447 net.cpp:356] fc8_kevin_encode_fc8_kevin_encode_0_split -> fc8_kevin_encode_fc8_kevin_encode_0_split_4
I0513 11:03:13.456437 32447 net.cpp:96] Setting up fc8_kevin_encode_fc8_kevin_encode_0_split
I0513 11:03:13.456444 32447 net.cpp:103] Top shape: 32 12 1 1 (384)
I0513 11:03:13.456447 32447 net.cpp:103] Top shape: 32 12 1 1 (384)
I0513 11:03:13.456482 32447 net.cpp:103] Top shape: 32 12 1 1 (384)
I0513 11:03:13.456487 32447 net.cpp:103] Top shape: 32 12 1 1 (384)
I0513 11:03:13.456491 32447 net.cpp:103] Top shape: 32 12 1 1 (384)
I0513 11:03:13.456496 32447 net.cpp:67] Creating Layer loss_1
I0513 11:03:13.456501 32447 net.cpp:394] loss_1 <- fc8_kevin_encode_fc8_kevin_encode_0_split_0
I0513 11:03:13.456506 32447 net.cpp:394] loss_1 <- fc8_kevin_encode_fc8_kevin_encode_0_split_1
I0513 11:03:13.456511 32447 net.cpp:356] loss_1 -> (automatic)
I0513 11:03:13.456516 32447 net.cpp:96] Setting up loss_1
I0513 11:03:13.456524 32447 net.cpp:103] Top shape: 1 1 1 1 (1)
I0513 11:03:13.456528 32447 net.cpp:109]     with loss weight 1
I0513 11:03:13.456564 32447 net.cpp:67] Creating Layer loss_2
I0513 11:03:13.456569 32447 net.cpp:394] loss_2 <- fc8_kevin_encode_fc8_kevin_encode_0_split_2
I0513 11:03:13.456574 32447 net.cpp:394] loss_2 <- fc8_kevin_encode_fc8_kevin_encode_0_split_3
I0513 11:03:13.456579 32447 net.cpp:356] loss_2 -> (automatic)
I0513 11:03:13.456583 32447 net.cpp:96] Setting up loss_2
I0513 11:03:13.456590 32447 net.cpp:103] Top shape: 1 1 1 1 (1)
I0513 11:03:13.456596 32447 net.cpp:109]     with loss weight 1
I0513 11:03:13.456604 32447 net.cpp:67] Creating Layer fc8_pascal
I0513 11:03:13.456607 32447 net.cpp:394] fc8_pascal <- fc8_kevin_encode_fc8_kevin_encode_0_split_4
I0513 11:03:13.456614 32447 net.cpp:356] fc8_pascal -> fc8_pascal
I0513 11:03:13.456619 32447 net.cpp:96] Setting up fc8_pascal
I0513 11:03:13.456632 32447 net.cpp:103] Top shape: 32 10 1 1 (320)
I0513 11:03:13.456643 32447 net.cpp:67] Creating Layer loss
I0513 11:03:13.456660 32447 net.cpp:394] loss <- fc8_pascal
I0513 11:03:13.456665 32447 net.cpp:394] loss <- label
I0513 11:03:13.456670 32447 net.cpp:356] loss -> (automatic)
I0513 11:03:13.456675 32447 net.cpp:96] Setting up loss
I0513 11:03:13.456683 32447 net.cpp:103] Top shape: 1 1 1 1 (1)
I0513 11:03:13.456687 32447 net.cpp:109]     with loss weight 1
I0513 11:03:13.456692 32447 net.cpp:170] loss needs backward computation.
I0513 11:03:13.456696 32447 net.cpp:170] fc8_pascal needs backward computation.
I0513 11:03:13.456699 32447 net.cpp:170] loss_2 needs backward computation.
I0513 11:03:13.456703 32447 net.cpp:170] loss_1 needs backward computation.
I0513 11:03:13.456707 32447 net.cpp:170] fc8_kevin_encode_fc8_kevin_encode_0_split needs backward computation.
…
I0513 11:03:13.457651 32447 solver.cpp:151] Creating test net (#0) specified by test_net file: /home/iis/deep/rcnn_packages/Caffe-DeepBinaryCodes/examples/mycifar10/KevinNet_v2/CIFAR10-12/KevinNet_CIFAR10_12_test.prototxt
I0513 11:03:13.457824 32447 net.cpp:39] Initializing net from parameters: 
name: "KevinNet_CIFAR10"
layers {
  top: "data"
  top: "label"
  name: "data"
  type: DATA
  data_param {
    source: "/home/iis/deep/rcnn_packages/caffe-new/examples/mycifar10/cifar10_val_leveldb"
    batch_size: 32
  }
  transform_param {
    mirror: true
    crop_size: 227
    mean_file: "/home/iis/deep/rcnn_packages/caffe-new/data/ilsvrc12/imagenet_mean.binaryproto"
  }
}
layers {
  bottom: "data"
  top: "conv1"
  name: "conv1"
  type: CONVOLUTION
  blobs_lr: 1
  blobs_lr: 2
  weight_decay: 1
  weight_decay: 0
  convolution_param {
    num_output: 96
    kernel_size: 11
    stride: 4
    weight_filler {
      type: "gaussian"
      std: 0.01
    }
    bias_filler {
      type: "constant"
      value: 0
    }
  }
}
layers {
  bottom: "conv1"
  top: "conv1"
  name: "relu1"
  type: RELU
}
layers {
  bottom: "conv1"
  top: "pool1"
  name: "pool1"
  type: POOLING
  pooling_param {
    pool: MAX
    kernel_size: 3
    stride: 2
  }
}
layers {
  bottom: "pool1"
  top: "norm1"
  name: "norm1"
  type: LRN
  lrn_param {
    local_size: 5
    alpha: 0.0001
    beta: 0.75
  }
}
layers {
  bottom: "norm1"
  top: "conv2"
  name: "conv2"
  type: CONVOLUTION
  blobs_lr: 1
  blobs_lr: 2
  weight_decay: 1
  weight_decay: 0
  convolution_param {
    num_output: 256
    pad: 2
    kernel_size: 5
    group: 2
    weight_filler {
      type: "gaussian"
      std: 0.01
    }
    bias_filler {
      type: "constant"
      value: 1
    }
  }
}
layers {
  bottom: "conv2"
  top: "conv2"
  name: "relu2"
  type: RELU
}
layers {
  bottom: "conv2"
  top: "pool2"
  name: "pool2"
  type: POOLING
  pooling_param {
    pool: MAX
    kernel_size: 3
    stride: 2
  }
}
layers {
  bottom: "pool2"
  top: "norm2"
  name: "norm2"
  type: LRN
  lrn_param {
    local_size: 5
    alpha: 0.0001
    beta: 0.75
  }
}
layers {
  bottom: "norm2"
  top: "conv3"
  name: "conv3"
  type: CONVOLUTION
  blobs_lr: 1
  blobs_lr: 2
  weight_decay: 1
  weight_decay: 0
  convolution_param {
    num_output: 384
    pad: 1
    kernel_size: 3
    weight_filler {
      type: "gaussian"
      std: 0.01
    }
    bias_filler {
      type: "constant"
      value: 0
    }
  }
}
layers {
  bottom: "conv3"
  top: "conv3"
  name: "relu3"
  type: RELU
}
layers {
  bottom: "conv3"
  top: "conv4"
  name: "conv4"
  type: CONVOLUTION
  blobs_lr: 1
  blobs_lr: 2
  weight_decay: 1
  weight_decay: 0
  convolution_param {
    num_output: 384
    pad: 1
    kernel_size: 3
    group: 2
    weight_filler {
      type: "gaussian"
      std: 0.01
    }
    bias_filler {
      type: "constant"
      value: 1
    }
  }
}
layers {
  bottom: "conv4"
  top: "conv4"
  name: "relu4"
  type: RELU
}
layers {
  bottom: "conv4"
  top: "conv5"
  name: "conv5"
  type: CONVOLUTION
  blobs_lr: 1
  blobs_lr: 2
  weight_decay: 1
  weight_decay: 0
  convolution_param {
    num_output: 256
    pad: 1
    kernel_size: 3
    group: 2
    weight_filler {
      type: "gaussian"
      std: 0.01
    }
    bias_filler {
      type: "constant"
      value: 1
    }
  }
}
layers {
  bottom: "conv5"
  top: "conv5"
  name: "relu5"
  type: RELU
}
layers {
  bottom: "conv5"
  top: "pool5"
  name: "pool5"
  type: POOLING
  pooling_param {
    pool: MAX
    kernel_size: 3
    stride: 2
  }
}
layers {
  bottom: "pool5"
  top: "fc6"
  name: "fc6"
  type: INNER_PRODUCT
  blobs_lr: 1
  blobs_lr: 2
  weight_decay: 1
  weight_decay: 0
  inner_product_param {
    num_output: 4096
    weight_filler {
      type: "gaussian"
      std: 0.005
    }
    bias_filler {
      type: "constant"
      value: 1
    }
  }
}
layers {
  bottom: "fc6"
  top: "fc6"
  name: "relu6"
  type: RELU
}
layers {
  bottom: "fc6"
  top: "fc6"
  name: "drop6"
  type: DROPOUT
  dropout_param {
    dropout_ratio: 0.5
  }
}
layers {
  bottom: "fc6"
  top: "fc7"
  name: "fc7"
  type: INNER_PRODUCT
  blobs_lr: 1
  blobs_lr: 2
  weight_decay: 1
  weight_decay: 0
  inner_product_param {
    num_output: 4096
    weight_filler {
      type: "gaussian"
      std: 0.005
    }
    bias_filler {
      type: "constant"
      value: 1
    }
  }
}
layers {
  bottom: "fc7"
  top: "fc7"
  name: "relu7"
  type: RELU
}
layers {
  bottom: "fc7"
  top: "fc7"
  name: "drop7"
  type: DROPOUT
  dropout_param {
    dropout_ratio: 0.5
  }
}
layers {
  bottom: "fc7"
  top: "fc8_kevin"
  name: "fc8_kevin"
  type: INNER_PRODUCT
  blobs_lr: 1
  blobs_lr: 2
  weight_decay: 1
  weight_decay: 0
  inner_product_param {
    num_output: 12
    weight_filler {
      type: "gaussian"
      std: 0.005
    }
    bias_filler {
      type: "constant"
      value: 1
    }
  }
}
layers {
  bottom: "fc8_kevin"
  top: "fc8_kevin_encode"
  name: "fc8_kevin_encode"
  type: SIGMOID
}
layers {
  bottom: "fc8_kevin_encode"
  bottom: "fc8_kevin_encode"
  name: "loss_1"
  type: K1_EUCLIDEAN_LOSS
}
layers {
  bottom: "fc8_kevin_encode"
  bottom: "fc8_kevin_encode"
  name: "loss_2"
  type: K2_EUCLIDEAN_LOSS
}
layers {
  bottom: "fc8_kevin_encode"
  top: "fc8_pascal"
  name: "fc8_pascal"
  type: INNER_PRODUCT
  blobs_lr: 10
  blobs_lr: 20
  weight_decay: 1
  weight_decay: 0
  inner_product_param {
    num_output: 10
    weight_filler {
      type: "gaussian"
      std: 0.01
    }
    bias_filler {
      type: "constant"
      value: 0
    }
  }
}
layers {
  bottom: "fc8_pascal"
  top: "prob"
  name: "prob"
  type: SOFTMAX
}
layers {
  bottom: "prob"
  bottom: "label"
  top: "accuracy"
  name: "accuracy"
  type: ACCURACY
}
state {
  phase: TEST
}
I0513 11:03:13.457918 32447 net.cpp:67] Creating Layer data
I0513 11:03:13.457926 32447 net.cpp:356] data -> data
I0513 11:03:13.457933 32447 net.cpp:356] data -> label
I0513 11:03:13.457939 32447 net.cpp:96] Setting up data
I0513 11:03:13.457944 32447 data_layer.cpp:45] Opening leveldb /home/iis/deep/rcnn_packages/caffe-new/examples/mycifar10/cifar10_val_leveldb
I0513 11:03:13.553313 32447 data_layer.cpp:128] output data size: 32,3,227,227
I0513 11:03:13.553334 32447 base_data_layer.cpp:36] Loading mean file from/home/iis/deep/rcnn_packages/caffe-new/data/ilsvrc12/imagenet_mean.binaryproto
I0513 11:03:13.561116 32447 net.cpp:103] Top shape: 32 3 227 227 (4946784)
I0513 11:03:13.561131 32447 net.cpp:103] Top shape: 32 1 1 1 (32)
I0513 11:03:13.561143 32447 net.cpp:67] Creating Layer conv1
I0513 11:03:13.561148 32447 net.cpp:394] conv1 <- data
I0513 11:03:13.561187 32447 net.cpp:356] conv1 -> conv1
I0513 11:03:13.561202 32447 net.cpp:96] Setting up conv1
I0513 11:03:13.562314 32447 net.cpp:103] Top shape: 32 96 55 55 (9292800)
I0513 11:03:13.562337 32447 net.cpp:67] Creating Layer relu1
I0513 11:03:13.562346 32447 net.cpp:394] relu1 <- conv1
I0513 11:03:13.562356 32447 net.cpp:345] relu1 -> conv1 (in-place)
I0513 11:03:13.562367 32447 net.cpp:96] Setting up relu1
I0513 11:03:13.562374 32447 net.cpp:103] Top shape: 32 96 55 55 (9292800)
I0513 11:03:13.562384 32447 net.cpp:67] Creating Layer pool1
I0513 11:03:13.562392 32447 net.cpp:394] pool1 <- conv1
I0513 11:03:13.562402 32447 net.cpp:356] pool1 -> pool1
I0513 11:03:13.562413 32447 net.cpp:96] Setting up pool1
I0513 11:03:13.562423 32447 net.cpp:103] Top shape: 32 96 27 27 (2239488)
I0513 11:03:13.562434 32447 net.cpp:67] Creating Layer norm1
I0513 11:03:13.562441 32447 net.cpp:394] norm1 <- pool1
I0513 11:03:13.562451 32447 net.cpp:356] norm1 -> norm1
I0513 11:03:13.562463 32447 net.cpp:96] Setting up norm1
I0513 11:03:13.562471 32447 net.cpp:103] Top shape: 32 96 27 27 (2239488)
I0513 11:03:13.562482 32447 net.cpp:67] Creating Layer conv2
I0513 11:03:13.562489 32447 net.cpp:394] conv2 <- norm1
I0513 11:03:13.562500 32447 net.cpp:356] conv2 -> conv2
I0513 11:03:13.562510 32447 net.cpp:96] Setting up conv2
I0513 11:03:13.572463 32447 net.cpp:103] Top shape: 32 256 27 27 (5971968)
I0513 11:03:13.572504 32447 net.cpp:67] Creating Layer relu2
I0513 11:03:13.572515 32447 net.cpp:394] relu2 <- conv2
I0513 11:03:13.572525 32447 net.cpp:345] relu2 -> conv2 (in-place)
I0513 11:03:13.572537 32447 net.cpp:96] Setting up relu2
I0513 11:03:13.572545 32447 net.cpp:103] Top shape: 32 256 27 27 (5971968)
I0513 11:03:13.572553 32447 net.cpp:67] Creating Layer pool2
I0513 11:03:13.572558 32447 net.cpp:394] pool2 <- conv2
I0513 11:03:13.572567 32447 net.cpp:356] pool2 -> pool2
I0513 11:03:13.572578 32447 net.cpp:96] Setting up pool2
I0513 11:03:13.572587 32447 net.cpp:103] Top shape: 32 256 13 13 (1384448)
I0513 11:03:13.572599 32447 net.cpp:67] Creating Layer norm2
I0513 11:03:13.572607 32447 net.cpp:394] norm2 <- pool2
I0513 11:03:13.572615 32447 net.cpp:356] norm2 -> norm2
I0513 11:03:13.572625 32447 net.cpp:96] Setting up norm2
I0513 11:03:13.572634 32447 net.cpp:103] Top shape: 32 256 13 13 (1384448)
I0513 11:03:13.572645 32447 net.cpp:67] Creating Layer conv3
I0513 11:03:13.572652 32447 net.cpp:394] conv3 <- norm2
I0513 11:03:13.572661 32447 net.cpp:356] conv3 -> conv3
I0513 11:03:13.572672 32447 net.cpp:96] Setting up conv3
I0513 11:03:13.601233 32447 net.cpp:103] Top shape: 32 384 13 13 (2076672)
I0513 11:03:13.601277 32447 net.cpp:67] Creating Layer relu3
I0513 11:03:13.601297 32447 net.cpp:394] relu3 <- conv3
I0513 11:03:13.601308 32447 net.cpp:345] relu3 -> conv3 (in-place)
I0513 11:03:13.601318 32447 net.cpp:96] Setting up relu3
I0513 11:03:13.601325 32447 net.cpp:103] Top shape: 32 384 13 13 (2076672)
I0513 11:03:13.601336 32447 net.cpp:67] Creating Layer conv4
I0513 11:03:13.601341 32447 net.cpp:394] conv4 <- conv3
I0513 11:03:13.601351 32447 net.cpp:356] conv4 -> conv4
I0513 11:03:13.601362 32447 net.cpp:96] Setting up conv4
I0513 11:03:13.623822 32447 net.cpp:103] Top shape: 32 384 13 13 (2076672)
I0513 11:03:13.623863 32447 net.cpp:67] Creating Layer relu4
I0513 11:03:13.623883 32447 net.cpp:394] relu4 <- conv4
I0513 11:03:13.623896 32447 net.cpp:345] relu4 -> conv4 (in-place)
I0513 11:03:13.623908 32447 net.cpp:96] Setting up relu4
I0513 11:03:13.623915 32447 net.cpp:103] Top shape: 32 384 13 13 (2076672)
I0513 11:03:13.623924 32447 net.cpp:67] Creating Layer conv5
I0513 11:03:13.623930 32447 net.cpp:394] conv5 <- conv4
I0513 11:03:13.623940 32447 net.cpp:356] conv5 -> conv5
I0513 11:03:13.623952 32447 net.cpp:96] Setting up conv5
I0513 11:03:13.638306 32447 net.cpp:103] Top shape: 32 256 13 13 (1384448)
I0513 11:03:13.638335 32447 net.cpp:67] Creating Layer relu5
I0513 11:03:13.638345 32447 net.cpp:394] relu5 <- conv5
I0513 11:03:13.638365 32447 net.cpp:345] relu5 -> conv5 (in-place)
I0513 11:03:13.638402 32447 net.cpp:96] Setting up relu5
I0513 11:03:13.638411 32447 net.cpp:103] Top shape: 32 256 13 13 (1384448)
I0513 11:03:13.638422 32447 net.cpp:67] Creating Layer pool5
I0513 11:03:13.638429 32447 net.cpp:394] pool5 <- conv5
I0513 11:03:13.638439 32447 net.cpp:356] pool5 -> pool5
I0513 11:03:13.638450 32447 net.cpp:96] Setting up pool5
I0513 11:03:13.638460 32447 net.cpp:103] Top shape: 32 256 6 6 (294912)
I0513 11:03:13.638484 32447 net.cpp:67] Creating Layer fc6
I0513 11:03:13.638492 32447 net.cpp:394] fc6 <- pool5
I0513 11:03:13.638502 32447 net.cpp:356] fc6 -> fc6
I0513 11:03:13.638514 32447 net.cpp:96] Setting up fc6
I0513 11:03:14.825510 32447 net.cpp:103] Top shape: 32 4096 1 1 (131072)
I0513 11:03:14.825556 32447 net.cpp:67] Creating Layer relu6
I0513 11:03:14.825564 32447 net.cpp:394] relu6 <- fc6
I0513 11:03:14.825575 32447 net.cpp:345] relu6 -> fc6 (in-place)
I0513 11:03:14.825588 32447 net.cpp:96] Setting up relu6
I0513 11:03:14.825598 32447 net.cpp:103] Top shape: 32 4096 1 1 (131072)
I0513 11:03:14.825618 32447 net.cpp:67] Creating Layer drop6
I0513 11:03:14.825623 32447 net.cpp:394] drop6 <- fc6
I0513 11:03:14.825628 32447 net.cpp:345] drop6 -> fc6 (in-place)
I0513 11:03:14.825635 32447 net.cpp:96] Setting up drop6
I0513 11:03:14.825639 32447 net.cpp:103] Top shape: 32 4096 1 1 (131072)
I0513 11:03:14.825645 32447 net.cpp:67] Creating Layer fc7
I0513 11:03:14.825649 32447 net.cpp:394] fc7 <- fc6
I0513 11:03:14.825655 32447 net.cpp:356] fc7 -> fc7
I0513 11:03:14.825664 32447 net.cpp:96] Setting up fc7
I0513 11:03:15.355280 32447 net.cpp:103] Top shape: 32 4096 1 1 (131072)
I0513 11:03:15.355317 32447 net.cpp:67] Creating Layer relu7
I0513 11:03:15.355324 32447 net.cpp:394] relu7 <- fc7
I0513 11:03:15.355332 32447 net.cpp:345] relu7 -> fc7 (in-place)
I0513 11:03:15.355340 32447 net.cpp:96] Setting up relu7
I0513 11:03:15.355345 32447 net.cpp:103] Top shape: 32 4096 1 1 (131072)
I0513 11:03:15.355350 32447 net.cpp:67] Creating Layer drop7
I0513 11:03:15.355355 32447 net.cpp:394] drop7 <- fc7
I0513 11:03:15.355360 32447 net.cpp:345] drop7 -> fc7 (in-place)
I0513 11:03:15.355365 32447 net.cpp:96] Setting up drop7
I0513 11:03:15.355381 32447 net.cpp:103] Top shape: 32 4096 1 1 (131072)
I0513 11:03:15.355386 32447 net.cpp:67] Creating Layer fc8_kevin
I0513 11:03:15.355392 32447 net.cpp:394] fc8_kevin <- fc7
I0513 11:03:15.355398 32447 net.cpp:356] fc8_kevin -> fc8_kevin
I0513 11:03:15.355406 32447 net.cpp:96] Setting up fc8_kevin
I0513 11:03:15.356915 32447 net.cpp:103] Top shape: 32 12 1 1 (384)
I0513 11:03:15.356927 32447 net.cpp:67] Creating Layer fc8_kevin_encode
I0513 11:03:15.356932 32447 net.cpp:394] fc8_kevin_encode <- fc8_kevin
I0513 11:03:15.356937 32447 net.cpp:356] fc8_kevin_encode -> fc8_kevin_encode
I0513 11:03:15.356942 32447 net.cpp:96] Setting up fc8_kevin_encode
I0513 11:03:15.356947 32447 net.cpp:103] Top shape: 32 12 1 1 (384)
I0513 11:03:15.356953 32447 net.cpp:67] Creating Layer fc8_kevin_encode_fc8_kevin_encode_0_split
I0513 11:03:15.356956 32447 net.cpp:394] fc8_kevin_encode_fc8_kevin_encode_0_split <- fc8_kevin_encode
I0513 11:03:15.356961 32447 net.cpp:356] fc8_kevin_encode_fc8_kevin_encode_0_split -> fc8_kevin_encode_fc8_kevin_encode_0_split_0
I0513 11:03:15.356971 32447 net.cpp:356] fc8_kevin_encode_fc8_kevin_encode_0_split -> fc8_kevin_encode_fc8_kevin_encode_0_split_1
I0513 11:03:15.356978 32447 net.cpp:356] fc8_kevin_encode_fc8_kevin_encode_0_split -> fc8_kevin_encode_fc8_kevin_encode_0_split_2
I0513 11:03:15.356997 32447 net.cpp:356] fc8_kevin_encode_fc8_kevin_encode_0_split -> fc8_kevin_encode_fc8_kevin_encode_0_split_3
I0513 11:03:15.357003 32447 net.cpp:356] fc8_kevin_encode_fc8_kevin_encode_0_split -> fc8_kevin_encode_fc8_kevin_encode_0_split_4
I0513 11:03:15.357008 32447 net.cpp:96] Setting up fc8_kevin_encode_fc8_kevin_encode_0_split
I0513 11:03:15.357014 32447 net.cpp:103] Top shape: 32 12 1 1 (384)
I0513 11:03:15.357018 32447 net.cpp:103] Top shape: 32 12 1 1 (384)
I0513 11:03:15.357022 32447 net.cpp:103] Top shape: 32 12 1 1 (384)
I0513 11:03:15.357060 32447 net.cpp:103] Top shape: 32 12 1 1 (384)
I0513 11:03:15.357069 32447 net.cpp:103] Top shape: 32 12 1 1 (384)
I0513 11:03:15.357077 32447 net.cpp:67] Creating Layer loss_1
I0513 11:03:15.357084 32447 net.cpp:394] loss_1 <- fc8_kevin_encode_fc8_kevin_encode_0_split_0
I0513 11:03:15.357096 32447 net.cpp:394] loss_1 <- fc8_kevin_encode_fc8_kevin_encode_0_split_1
I0513 11:03:15.357105 32447 net.cpp:356] loss_1 -> (automatic)
I0513 11:03:15.357121 32447 net.cpp:96] Setting up loss_1
I0513 11:03:15.357126 32447 net.cpp:103] Top shape: 1 1 1 1 (1)
I0513 11:03:15.357131 32447 net.cpp:109]     with loss weight 1
I0513 11:03:15.357142 32447 net.cpp:67] Creating Layer loss_2
I0513 11:03:15.357146 32447 net.cpp:394] loss_2 <- fc8_kevin_encode_fc8_kevin_encode_0_split_2
I0513 11:03:15.357151 32447 net.cpp:394] loss_2 <- fc8_kevin_encode_fc8_kevin_encode_0_split_3
I0513 11:03:15.357156 32447 net.cpp:356] loss_2 -> (automatic)
I0513 11:03:15.357162 32447 net.cpp:96] Setting up loss_2
I0513 11:03:15.357167 32447 net.cpp:103] Top shape: 1 1 1 1 (1)
I0513 11:03:15.357170 32447 net.cpp:109]     with loss weight 1
I0513 11:03:15.357177 32447 net.cpp:67] Creating Layer fc8_pascal
I0513 11:03:15.357182 32447 net.cpp:394] fc8_pascal <- fc8_kevin_encode_fc8_kevin_encode_0_split_4
I0513 11:03:15.357187 32447 net.cpp:356] fc8_pascal -> fc8_pascal
I0513 11:03:15.357193 32447 net.cpp:96] Setting up fc8_pascal
I0513 11:03:15.357215 32447 net.cpp:103] Top shape: 32 10 1 1 (320)
I0513 11:03:15.357226 32447 net.cpp:67] Creating Layer prob
I0513 11:03:15.357231 32447 net.cpp:394] prob <- fc8_pascal
I0513 11:03:15.357238 32447 net.cpp:356] prob -> prob
I0513 11:03:15.357242 32447 net.cpp:96] Setting up prob
I0513 11:03:15.357247 32447 net.cpp:103] Top shape: 32 10 1 1 (320)
I0513 11:03:15.357252 32447 net.cpp:67] Creating Layer accuracy
I0513 11:03:15.357266 32447 net.cpp:394] accuracy <- prob
I0513 11:03:15.357271 32447 net.cpp:394] accuracy <- label
I0513 11:03:15.357276 32447 net.cpp:356] accuracy -> accuracy
I0513 11:03:15.357281 32447 net.cpp:96] Setting up accuracy
I0513 11:03:15.357291 32447 net.cpp:103] Top shape: 1 1 1 1 (1)
I0513 11:03:15.357295 32447 net.cpp:172] accuracy does not need backward computation.
I0513 11:03:15.357300 32447 net.cpp:172] prob does not need backward computation.
I0513 11:03:15.357302 32447 net.cpp:172] fc8_pascal does not need backward computation.
I0513 11:03:15.357306 32447 net.cpp:170] loss_2 needs backward computation.
I0513 11:03:15.357309 32447 net.cpp:170] loss_1 needs backward computation.
…
