…
E0511 10:51:01.782244 32108 upgrade_proto.cpp:608] Note that future Caffe releases will not support V0NetParameter; use ./build/tools/upgrade_net_proto_text for prototxt and ./build/tools/upgrade_net_proto_binary for model weights upgrade this and any other net protos to the new format.
I0511 10:51:01.782434 32108 net.cpp:39] Initializing net from parameters: 
name: "KevinNet_CIFAR10"
layers {
  top: "data"
  top: "label"
  name: "data"
  type: DATA
  data_param {
    source: "/home/iis/deep/rcnn_packages/caffe-new/examples/mycifar10/cifar10_train_leveldb"
    batch_size: 32
  }
  transform_param {
    mirror: true
    crop_size: 227
    mean_file: "/home/iis/deep/rcnn_packages/caffe-new/data/ilsvrc12/imagenet_mean.binaryproto"
  }
}
layers {
  bottom: "data"
  top: "conv1"
  name: "conv1"
  type: CONVOLUTION
  blobs_lr: 1
  blobs_lr: 2
  weight_decay: 1
  weight_decay: 0
  convolution_param {
    num_output: 96
    kernel_size: 11
    stride: 4
    weight_filler {
      type: "gaussian"
      std: 0.01
    }
    bias_filler {
      type: "constant"
      value: 0
    }
  }
}
layers {
  bottom: "conv1"
  top: "conv1"
  name: "relu1"
  type: RELU
}
layers {
  bottom: "conv1"
  top: "pool1"
  name: "pool1"
  type: POOLING
  pooling_param {
    pool: MAX
    kernel_size: 3
    stride: 2
  }
}
layers {
  bottom: "pool1"
  top: "norm1"
  name: "norm1"
  type: LRN
  lrn_param {
    local_size: 5
    alpha: 0.0001
    beta: 0.75
  }
}
layers {
  bottom: "norm1"
  top: "conv2"
  name: "conv2"
  type: CONVOLUTION
  blobs_lr: 1
  blobs_lr: 2
  weight_decay: 1
  weight_decay: 0
  convolution_param {
    num_output: 256
    pad: 2
    kernel_size: 5
    group: 2
    weight_filler {
      type: "gaussian"
      std: 0.01
    }
    bias_filler {
      type: "constant"
      value: 1
    }
  }
}
layers {
  bottom: "conv2"
  top: "conv2"
  name: "relu2"
  type: RELU
}
layers {
  bottom: "conv2"
  top: "pool2"
  name: "pool2"
  type: POOLING
  pooling_param {
    pool: MAX
    kernel_size: 3
    stride: 2
  }
}
layers {
  bottom: "pool2"
  top: "norm2"
  name: "norm2"
  type: LRN
  lrn_param {
    local_size: 5
    alpha: 0.0001
    beta: 0.75
  }
}
layers {
  bottom: "norm2"
  top: "conv3"
  name: "conv3"
  type: CONVOLUTION
  blobs_lr: 1
  blobs_lr: 2
  weight_decay: 1
  weight_decay: 0
  convolution_param {
    num_output: 384
    pad: 1
    kernel_size: 3
    weight_filler {
      type: "gaussian"
      std: 0.01
    }
    bias_filler {
      type: "constant"
      value: 0
    }
  }
}
layers {
  bottom: "conv3"
  top: "conv3"
  name: "relu3"
  type: RELU
}
layers {
  bottom: "conv3"
  top: "conv4"
  name: "conv4"
  type: CONVOLUTION
  blobs_lr: 1
  blobs_lr: 2
  weight_decay: 1
  weight_decay: 0
  convolution_param {
    num_output: 384
    pad: 1
    kernel_size: 3
    group: 2
    weight_filler {
      type: "gaussian"
      std: 0.01
    }
    bias_filler {
      type: "constant"
      value: 1
    }
  }
}
layers {
  bottom: "conv4"
  top: "conv4"
  name: "relu4"
  type: RELU
}
layers {
  bottom: "conv4"
  top: "conv5"
  name: "conv5"
  type: CONVOLUTION
  blobs_lr: 1
  blobs_lr: 2
  weight_decay: 1
  weight_decay: 0
  convolution_param {
    num_output: 256
    pad: 1
    kernel_size: 3
    group: 2
    weight_filler {
      type: "gaussian"
      std: 0.01
    }
    bias_filler {
      type: "constant"
      value: 1
    }
  }
}
layers {
  bottom: "conv5"
  top: "conv5"
  name: "relu5"
  type: RELU
}
layers {
  bottom: "conv5"
  top: "pool5"
  name: "pool5"
  type: POOLING
  pooling_param {
    pool: MAX
    kernel_size: 3
    stride: 2
  }
}
layers {
  bottom: "pool5"
  top: "fc6"
  name: "fc6"
  type: INNER_PRODUCT
  blobs_lr: 1
  blobs_lr: 2
  weight_decay: 1
  weight_decay: 0
  inner_product_param {
    num_output: 4096
    weight_filler {
      type: "gaussian"
      std: 0.005
    }
    bias_filler {
      type: "constant"
      value: 1
    }
  }
}
layers {
  bottom: "fc6"
  top: "fc6"
  name: "relu6"
  type: RELU
}
layers {
  bottom: "fc6"
  top: "fc6"
  name: "drop6"
  type: DROPOUT
  dropout_param {
    dropout_ratio: 0.5
  }
}
layers {
  bottom: "fc6"
  top: "fc7"
  name: "fc7"
  type: INNER_PRODUCT
  blobs_lr: 1
  blobs_lr: 2
  weight_decay: 1
  weight_decay: 0
  inner_product_param {
    num_output: 4096
    weight_filler {
      type: "gaussian"
      std: 0.005
    }
    bias_filler {
      type: "constant"
      value: 1
    }
  }
}
layers {
  bottom: "fc7"
  top: "fc7"
  name: "relu7"
  type: RELU
}
layers {
  bottom: "fc7"
  top: "fc7"
  name: "drop7"
  type: DROPOUT
  dropout_param {
    dropout_ratio: 0.5
  }
}
layers {
  bottom: "fc7"
  top: "fc8_kevin"
  name: "fc8_kevin"
  type: INNER_PRODUCT
  blobs_lr: 1
  blobs_lr: 2
  weight_decay: 1
  weight_decay: 0
  inner_product_param {
    num_output: 32
    weight_filler {
      type: "gaussian"
      std: 0.005
    }
    bias_filler {
      type: "constant"
      value: 1
    }
  }
}
layers {
  bottom: "fc8_kevin"
  top: "fc8_kevin_encode"
  name: "fc8_kevin_encode"
  type: SIGMOID
}
layers {
  bottom: "fc8_kevin_encode"
  bottom: "fc8_kevin_encode"
  name: "loss_1"
  type: K1_EUCLIDEAN_LOSS
}
layers {
  bottom: "fc8_kevin_encode"
  bottom: "fc8_kevin_encode"
  name: "loss_2"
  type: K2_EUCLIDEAN_LOSS
}
layers {
  bottom: "fc8_kevin_encode"
  top: "fc8_pascal"
  name: "fc8_pascal"
  type: INNER_PRODUCT
  blobs_lr: 10
  blobs_lr: 20
  weight_decay: 1
  weight_decay: 0
  inner_product_param {
    num_output: 10
    weight_filler {
      type: "gaussian"
      std: 0.01
    }
    bias_filler {
      type: "constant"
      value: 0
    }
  }
}
layers {
  bottom: "fc8_pascal"
  bottom: "label"
  name: "loss"
  type: SOFTMAX_LOSS
}
state {
  phase: TRAIN
}
I0511 10:51:01.782546 32108 net.cpp:67] Creating Layer data
I0511 10:51:01.782555 32108 net.cpp:356] data -> data
I0511 10:51:01.782568 32108 net.cpp:356] data -> label
I0511 10:51:01.782575 32108 net.cpp:96] Setting up data
I0511 10:51:01.782591 32108 data_layer.cpp:45] Opening leveldb /home/iis/deep/rcnn_packages/caffe-new/examples/mycifar10/cifar10_train_leveldb
I0511 10:51:01.857898 32108 data_layer.cpp:128] output data size: 32,3,227,227
I0511 10:51:01.857925 32108 base_data_layer.cpp:36] Loading mean file from/home/iis/deep/rcnn_packages/caffe-new/data/ilsvrc12/imagenet_mean.binaryproto
I0511 10:51:01.867173 32108 net.cpp:103] Top shape: 32 3 227 227 (4946784)
I0511 10:51:01.867192 32108 net.cpp:103] Top shape: 32 1 1 1 (32)
I0511 10:51:01.867208 32108 net.cpp:67] Creating Layer conv1
I0511 10:51:01.867213 32108 net.cpp:394] conv1 <- data
I0511 10:51:01.867223 32108 net.cpp:356] conv1 -> conv1
I0511 10:51:01.867234 32108 net.cpp:96] Setting up conv1
I0511 10:51:01.868381 32108 net.cpp:103] Top shape: 32 96 55 55 (9292800)
I0511 10:51:01.868399 32108 net.cpp:67] Creating Layer relu1
I0511 10:51:01.868418 32108 net.cpp:394] relu1 <- conv1
I0511 10:51:01.868425 32108 net.cpp:345] relu1 -> conv1 (in-place)
I0511 10:51:01.868432 32108 net.cpp:96] Setting up relu1
I0511 10:51:01.868437 32108 net.cpp:103] Top shape: 32 96 55 55 (9292800)
I0511 10:51:01.868443 32108 net.cpp:67] Creating Layer pool1
I0511 10:51:01.868446 32108 net.cpp:394] pool1 <- conv1
I0511 10:51:01.868451 32108 net.cpp:356] pool1 -> pool1
I0511 10:51:01.868458 32108 net.cpp:96] Setting up pool1
I0511 10:51:01.868475 32108 net.cpp:103] Top shape: 32 96 27 27 (2239488)
I0511 10:51:01.868489 32108 net.cpp:67] Creating Layer norm1
I0511 10:51:01.868499 32108 net.cpp:394] norm1 <- pool1
I0511 10:51:01.868507 32108 net.cpp:356] norm1 -> norm1
I0511 10:51:01.868517 32108 net.cpp:96] Setting up norm1
I0511 10:51:01.868525 32108 net.cpp:103] Top shape: 32 96 27 27 (2239488)
I0511 10:51:01.868530 32108 net.cpp:67] Creating Layer conv2
I0511 10:51:01.868535 32108 net.cpp:394] conv2 <- norm1
I0511 10:51:01.868540 32108 net.cpp:356] conv2 -> conv2
I0511 10:51:01.868546 32108 net.cpp:96] Setting up conv2
I0511 10:51:01.878931 32108 net.cpp:103] Top shape: 32 256 27 27 (5971968)
I0511 10:51:01.878973 32108 net.cpp:67] Creating Layer relu2
I0511 10:51:01.878978 32108 net.cpp:394] relu2 <- conv2
I0511 10:51:01.878986 32108 net.cpp:345] relu2 -> conv2 (in-place)
I0511 10:51:01.878994 32108 net.cpp:96] Setting up relu2
I0511 10:51:01.878999 32108 net.cpp:103] Top shape: 32 256 27 27 (5971968)
I0511 10:51:01.879005 32108 net.cpp:67] Creating Layer pool2
I0511 10:51:01.879009 32108 net.cpp:394] pool2 <- conv2
I0511 10:51:01.879014 32108 net.cpp:356] pool2 -> pool2
I0511 10:51:01.879020 32108 net.cpp:96] Setting up pool2
I0511 10:51:01.879026 32108 net.cpp:103] Top shape: 32 256 13 13 (1384448)
I0511 10:51:01.879040 32108 net.cpp:67] Creating Layer norm2
I0511 10:51:01.879047 32108 net.cpp:394] norm2 <- pool2
I0511 10:51:01.879057 32108 net.cpp:356] norm2 -> norm2
I0511 10:51:01.879070 32108 net.cpp:96] Setting up norm2
I0511 10:51:01.879078 32108 net.cpp:103] Top shape: 32 256 13 13 (1384448)
I0511 10:51:01.879086 32108 net.cpp:67] Creating Layer conv3
I0511 10:51:01.879089 32108 net.cpp:394] conv3 <- norm2
I0511 10:51:01.879096 32108 net.cpp:356] conv3 -> conv3
I0511 10:51:01.879102 32108 net.cpp:96] Setting up conv3
I0511 10:51:01.910235 32108 net.cpp:103] Top shape: 32 384 13 13 (2076672)
I0511 10:51:01.910277 32108 net.cpp:67] Creating Layer relu3
I0511 10:51:01.910284 32108 net.cpp:394] relu3 <- conv3
I0511 10:51:01.910291 32108 net.cpp:345] relu3 -> conv3 (in-place)
I0511 10:51:01.910300 32108 net.cpp:96] Setting up relu3
I0511 10:51:01.910303 32108 net.cpp:103] Top shape: 32 384 13 13 (2076672)
I0511 10:51:01.910310 32108 net.cpp:67] Creating Layer conv4
I0511 10:51:01.910315 32108 net.cpp:394] conv4 <- conv3
I0511 10:51:01.910320 32108 net.cpp:356] conv4 -> conv4
I0511 10:51:01.910327 32108 net.cpp:96] Setting up conv4
I0511 10:51:01.933117 32108 net.cpp:103] Top shape: 32 384 13 13 (2076672)
I0511 10:51:01.933151 32108 net.cpp:67] Creating Layer relu4
I0511 10:51:01.933156 32108 net.cpp:394] relu4 <- conv4
I0511 10:51:01.933163 32108 net.cpp:345] relu4 -> conv4 (in-place)
I0511 10:51:01.933171 32108 net.cpp:96] Setting up relu4
I0511 10:51:01.933176 32108 net.cpp:103] Top shape: 32 384 13 13 (2076672)
I0511 10:51:01.933182 32108 net.cpp:67] Creating Layer conv5
I0511 10:51:01.933187 32108 net.cpp:394] conv5 <- conv4
I0511 10:51:01.933192 32108 net.cpp:356] conv5 -> conv5
I0511 10:51:01.933198 32108 net.cpp:96] Setting up conv5
I0511 10:51:01.947891 32108 net.cpp:103] Top shape: 32 256 13 13 (1384448)
I0511 10:51:01.947922 32108 net.cpp:67] Creating Layer relu5
I0511 10:51:01.947928 32108 net.cpp:394] relu5 <- conv5
I0511 10:51:01.947937 32108 net.cpp:345] relu5 -> conv5 (in-place)
I0511 10:51:01.947945 32108 net.cpp:96] Setting up relu5
I0511 10:51:01.947950 32108 net.cpp:103] Top shape: 32 256 13 13 (1384448)
I0511 10:51:01.947957 32108 net.cpp:67] Creating Layer pool5
I0511 10:51:01.947960 32108 net.cpp:394] pool5 <- conv5
I0511 10:51:01.947986 32108 net.cpp:356] pool5 -> pool5
I0511 10:51:01.947993 32108 net.cpp:96] Setting up pool5
I0511 10:51:01.947999 32108 net.cpp:103] Top shape: 32 256 6 6 (294912)
I0511 10:51:01.948009 32108 net.cpp:67] Creating Layer fc6
I0511 10:51:01.948014 32108 net.cpp:394] fc6 <- pool5
I0511 10:51:01.948019 32108 net.cpp:356] fc6 -> fc6
I0511 10:51:01.948025 32108 net.cpp:96] Setting up fc6
I0511 10:51:03.196935 32108 net.cpp:103] Top shape: 32 4096 1 1 (131072)
I0511 10:51:03.196976 32108 net.cpp:67] Creating Layer relu6
I0511 10:51:03.196982 32108 net.cpp:394] relu6 <- fc6
I0511 10:51:03.196991 32108 net.cpp:345] relu6 -> fc6 (in-place)
I0511 10:51:03.197000 32108 net.cpp:96] Setting up relu6
I0511 10:51:03.197005 32108 net.cpp:103] Top shape: 32 4096 1 1 (131072)
I0511 10:51:03.197010 32108 net.cpp:67] Creating Layer drop6
I0511 10:51:03.197013 32108 net.cpp:394] drop6 <- fc6
I0511 10:51:03.197018 32108 net.cpp:345] drop6 -> fc6 (in-place)
I0511 10:51:03.197024 32108 net.cpp:96] Setting up drop6
I0511 10:51:03.197033 32108 net.cpp:103] Top shape: 32 4096 1 1 (131072)
I0511 10:51:03.197041 32108 net.cpp:67] Creating Layer fc7
I0511 10:51:03.197046 32108 net.cpp:394] fc7 <- fc6
I0511 10:51:03.197052 32108 net.cpp:356] fc7 -> fc7
I0511 10:51:03.197059 32108 net.cpp:96] Setting up fc7
I0511 10:51:03.749056 32108 net.cpp:103] Top shape: 32 4096 1 1 (131072)
I0511 10:51:03.749094 32108 net.cpp:67] Creating Layer relu7
I0511 10:51:03.749100 32108 net.cpp:394] relu7 <- fc7
I0511 10:51:03.749109 32108 net.cpp:345] relu7 -> fc7 (in-place)
I0511 10:51:03.749116 32108 net.cpp:96] Setting up relu7
I0511 10:51:03.749120 32108 net.cpp:103] Top shape: 32 4096 1 1 (131072)
I0511 10:51:03.749126 32108 net.cpp:67] Creating Layer drop7
I0511 10:51:03.749130 32108 net.cpp:394] drop7 <- fc7
I0511 10:51:03.749135 32108 net.cpp:345] drop7 -> fc7 (in-place)
I0511 10:51:03.749140 32108 net.cpp:96] Setting up drop7
I0511 10:51:03.749145 32108 net.cpp:103] Top shape: 32 4096 1 1 (131072)
I0511 10:51:03.749151 32108 net.cpp:67] Creating Layer fc8_kevin
I0511 10:51:03.749157 32108 net.cpp:394] fc8_kevin <- fc7
I0511 10:51:03.749164 32108 net.cpp:356] fc8_kevin -> fc8_kevin
I0511 10:51:03.749171 32108 net.cpp:96] Setting up fc8_kevin
I0511 10:51:03.753424 32108 net.cpp:103] Top shape: 32 32 1 1 (1024)
I0511 10:51:03.753437 32108 net.cpp:67] Creating Layer fc8_kevin_encode
I0511 10:51:03.753443 32108 net.cpp:394] fc8_kevin_encode <- fc8_kevin
I0511 10:51:03.753448 32108 net.cpp:356] fc8_kevin_encode -> fc8_kevin_encode
I0511 10:51:03.753454 32108 net.cpp:96] Setting up fc8_kevin_encode
I0511 10:51:03.753458 32108 net.cpp:103] Top shape: 32 32 1 1 (1024)
I0511 10:51:03.753464 32108 net.cpp:67] Creating Layer fc8_kevin_encode_fc8_kevin_encode_0_split
I0511 10:51:03.753468 32108 net.cpp:394] fc8_kevin_encode_fc8_kevin_encode_0_split <- fc8_kevin_encode
I0511 10:51:03.753474 32108 net.cpp:356] fc8_kevin_encode_fc8_kevin_encode_0_split -> fc8_kevin_encode_fc8_kevin_encode_0_split_0
I0511 10:51:03.753484 32108 net.cpp:356] fc8_kevin_encode_fc8_kevin_encode_0_split -> fc8_kevin_encode_fc8_kevin_encode_0_split_1
I0511 10:51:03.753491 32108 net.cpp:356] fc8_kevin_encode_fc8_kevin_encode_0_split -> fc8_kevin_encode_fc8_kevin_encode_0_split_2
I0511 10:51:03.753499 32108 net.cpp:356] fc8_kevin_encode_fc8_kevin_encode_0_split -> fc8_kevin_encode_fc8_kevin_encode_0_split_3
I0511 10:51:03.753504 32108 net.cpp:356] fc8_kevin_encode_fc8_kevin_encode_0_split -> fc8_kevin_encode_fc8_kevin_encode_0_split_4
I0511 10:51:03.753510 32108 net.cpp:96] Setting up fc8_kevin_encode_fc8_kevin_encode_0_split
I0511 10:51:03.753517 32108 net.cpp:103] Top shape: 32 32 1 1 (1024)
I0511 10:51:03.753521 32108 net.cpp:103] Top shape: 32 32 1 1 (1024)
I0511 10:51:03.753525 32108 net.cpp:103] Top shape: 32 32 1 1 (1024)
I0511 10:51:03.753528 32108 net.cpp:103] Top shape: 32 32 1 1 (1024)
I0511 10:51:03.753532 32108 net.cpp:103] Top shape: 32 32 1 1 (1024)
I0511 10:51:03.753537 32108 net.cpp:67] Creating Layer loss_1
I0511 10:51:03.753541 32108 net.cpp:394] loss_1 <- fc8_kevin_encode_fc8_kevin_encode_0_split_0
I0511 10:51:03.753566 32108 net.cpp:394] loss_1 <- fc8_kevin_encode_fc8_kevin_encode_0_split_1
I0511 10:51:03.753574 32108 net.cpp:356] loss_1 -> (automatic)
I0511 10:51:03.753581 32108 net.cpp:96] Setting up loss_1
I0511 10:51:03.753592 32108 net.cpp:103] Top shape: 1 1 1 1 (1)
I0511 10:51:03.753595 32108 net.cpp:109]     with loss weight 1
I0511 10:51:03.753623 32108 net.cpp:67] Creating Layer loss_2
I0511 10:51:03.753628 32108 net.cpp:394] loss_2 <- fc8_kevin_encode_fc8_kevin_encode_0_split_2
I0511 10:51:03.753633 32108 net.cpp:394] loss_2 <- fc8_kevin_encode_fc8_kevin_encode_0_split_3
I0511 10:51:03.753638 32108 net.cpp:356] loss_2 -> (automatic)
I0511 10:51:03.753643 32108 net.cpp:96] Setting up loss_2
I0511 10:51:03.753649 32108 net.cpp:103] Top shape: 1 1 1 1 (1)
I0511 10:51:03.753654 32108 net.cpp:109]     with loss weight 1
I0511 10:51:03.753660 32108 net.cpp:67] Creating Layer fc8_pascal
I0511 10:51:03.753665 32108 net.cpp:394] fc8_pascal <- fc8_kevin_encode_fc8_kevin_encode_0_split_4
I0511 10:51:03.753670 32108 net.cpp:356] fc8_pascal -> fc8_pascal
I0511 10:51:03.753679 32108 net.cpp:96] Setting up fc8_pascal
I0511 10:51:03.753697 32108 net.cpp:103] Top shape: 32 10 1 1 (320)
I0511 10:51:03.753710 32108 net.cpp:67] Creating Layer loss
I0511 10:51:03.753715 32108 net.cpp:394] loss <- fc8_pascal
I0511 10:51:03.753720 32108 net.cpp:394] loss <- label
I0511 10:51:03.753726 32108 net.cpp:356] loss -> (automatic)
I0511 10:51:03.753729 32108 net.cpp:96] Setting up loss
I0511 10:51:03.753739 32108 net.cpp:103] Top shape: 1 1 1 1 (1)
I0511 10:51:03.753743 32108 net.cpp:109]     with loss weight 1
I0511 10:51:03.753748 32108 net.cpp:170] loss needs backward computation.
I0511 10:51:03.753752 32108 net.cpp:170] fc8_pascal needs backward computation.
I0511 10:51:03.753756 32108 net.cpp:170] loss_2 needs backward computation.
I0511 10:51:03.753761 32108 net.cpp:170] loss_1 needs backward computation.
I0511 10:51:03.753764 32108 net.cpp:170] fc8_kevin_encode_fc8_kevin_encode_0_split needs backward computation.
…
E0511 10:51:03.754698 32108 upgrade_proto.cpp:608] Note that future Caffe releases will not support V0NetParameter; use ./build/tools/upgrade_net_proto_text for prototxt and ./build/tools/upgrade_net_proto_binary for model weights upgrade this and any other net protos to the new format.
I0511 10:51:03.754721 32108 solver.cpp:151] Creating test net (#0) specified by test_net file: KevinNet_CIFAR10_32_test.prototxt
I0511 10:51:03.754899 32108 net.cpp:39] Initializing net from parameters: 
name: "KevinNet_CIFAR10"
layers {
  top: "data"
  top: "label"
  name: "data"
  type: DATA
  data_param {
    source: "/home/iis/deep/rcnn_packages/caffe-new/examples/mycifar10/cifar10_val_leveldb"
    batch_size: 32
  }
  transform_param {
    mirror: true
    crop_size: 227
    mean_file: "/home/iis/deep/rcnn_packages/caffe-new/data/ilsvrc12/imagenet_mean.binaryproto"
  }
}
layers {
  bottom: "data"
  top: "conv1"
  name: "conv1"
  type: CONVOLUTION
  blobs_lr: 1
  blobs_lr: 2
  weight_decay: 1
  weight_decay: 0
  convolution_param {
    num_output: 96
    kernel_size: 11
    stride: 4
    weight_filler {
      type: "gaussian"
      std: 0.01
    }
    bias_filler {
      type: "constant"
      value: 0
    }
  }
}
layers {
  bottom: "conv1"
  top: "conv1"
  name: "relu1"
  type: RELU
}
layers {
  bottom: "conv1"
  top: "pool1"
  name: "pool1"
  type: POOLING
  pooling_param {
    pool: MAX
    kernel_size: 3
    stride: 2
  }
}
layers {
  bottom: "pool1"
  top: "norm1"
  name: "norm1"
  type: LRN
  lrn_param {
    local_size: 5
    alpha: 0.0001
    beta: 0.75
  }
}
layers {
  bottom: "norm1"
  top: "conv2"
  name: "conv2"
  type: CONVOLUTION
  blobs_lr: 1
  blobs_lr: 2
  weight_decay: 1
  weight_decay: 0
  convolution_param {
    num_output: 256
    pad: 2
    kernel_size: 5
    group: 2
    weight_filler {
      type: "gaussian"
      std: 0.01
    }
    bias_filler {
      type: "constant"
      value: 1
    }
  }
}
layers {
  bottom: "conv2"
  top: "conv2"
  name: "relu2"
  type: RELU
}
layers {
  bottom: "conv2"
  top: "pool2"
  name: "pool2"
  type: POOLING
  pooling_param {
    pool: MAX
    kernel_size: 3
    stride: 2
  }
}
layers {
  bottom: "pool2"
  top: "norm2"
  name: "norm2"
  type: LRN
  lrn_param {
    local_size: 5
    alpha: 0.0001
    beta: 0.75
  }
}
layers {
  bottom: "norm2"
  top: "conv3"
  name: "conv3"
  type: CONVOLUTION
  blobs_lr: 1
  blobs_lr: 2
  weight_decay: 1
  weight_decay: 0
  convolution_param {
    num_output: 384
    pad: 1
    kernel_size: 3
    weight_filler {
      type: "gaussian"
      std: 0.01
    }
    bias_filler {
      type: "constant"
      value: 0
    }
  }
}
layers {
  bottom: "conv3"
  top: "conv3"
  name: "relu3"
  type: RELU
}
layers {
  bottom: "conv3"
  top: "conv4"
  name: "conv4"
  type: CONVOLUTION
  blobs_lr: 1
  blobs_lr: 2
  weight_decay: 1
  weight_decay: 0
  convolution_param {
    num_output: 384
    pad: 1
    kernel_size: 3
    group: 2
    weight_filler {
      type: "gaussian"
      std: 0.01
    }
    bias_filler {
      type: "constant"
      value: 1
    }
  }
}
layers {
  bottom: "conv4"
  top: "conv4"
  name: "relu4"
  type: RELU
}
layers {
  bottom: "conv4"
  top: "conv5"
  name: "conv5"
  type: CONVOLUTION
  blobs_lr: 1
  blobs_lr: 2
  weight_decay: 1
  weight_decay: 0
  convolution_param {
    num_output: 256
    pad: 1
    kernel_size: 3
    group: 2
    weight_filler {
      type: "gaussian"
      std: 0.01
    }
    bias_filler {
      type: "constant"
      value: 1
    }
  }
}
layers {
  bottom: "conv5"
  top: "conv5"
  name: "relu5"
  type: RELU
}
layers {
  bottom: "conv5"
  top: "pool5"
  name: "pool5"
  type: POOLING
  pooling_param {
    pool: MAX
    kernel_size: 3
    stride: 2
  }
}
layers {
  bottom: "pool5"
  top: "fc6"
  name: "fc6"
  type: INNER_PRODUCT
  blobs_lr: 1
  blobs_lr: 2
  weight_decay: 1
  weight_decay: 0
  inner_product_param {
    num_output: 4096
    weight_filler {
      type: "gaussian"
      std: 0.005
    }
    bias_filler {
      type: "constant"
      value: 1
    }
  }
}
layers {
  bottom: "fc6"
  top: "fc6"
  name: "relu6"
  type: RELU
}
layers {
  bottom: "fc6"
  top: "fc6"
  name: "drop6"
  type: DROPOUT
  dropout_param {
    dropout_ratio: 0.5
  }
}
layers {
  bottom: "fc6"
  top: "fc7"
  name: "fc7"
  type: INNER_PRODUCT
  blobs_lr: 1
  blobs_lr: 2
  weight_decay: 1
  weight_decay: 0
  inner_product_param {
    num_output: 4096
    weight_filler {
      type: "gaussian"
      std: 0.005
    }
    bias_filler {
      type: "constant"
      value: 1
    }
  }
}
layers {
  bottom: "fc7"
  top: "fc7"
  name: "relu7"
  type: RELU
}
layers {
  bottom: "fc7"
  top: "fc7"
  name: "drop7"
  type: DROPOUT
  dropout_param {
    dropout_ratio: 0.5
  }
}
layers {
  bottom: "fc7"
  top: "fc8_kevin"
  name: "fc8_kevin"
  type: INNER_PRODUCT
  blobs_lr: 1
  blobs_lr: 2
  weight_decay: 1
  weight_decay: 0
  inner_product_param {
    num_output: 32
    weight_filler {
      type: "gaussian"
      std: 0.005
    }
    bias_filler {
      type: "constant"
      value: 1
    }
  }
}
layers {
  bottom: "fc8_kevin"
  top: "fc8_kevin_encode"
  name: "fc8_kevin_encode"
  type: SIGMOID
}
layers {
  bottom: "fc8_kevin_encode"
  bottom: "fc8_kevin_encode"
  name: "loss_1"
  type: K1_EUCLIDEAN_LOSS
}
layers {
  bottom: "fc8_kevin_encode"
  bottom: "fc8_kevin_encode"
  name: "loss_2"
  type: K2_EUCLIDEAN_LOSS
}
layers {
  bottom: "fc8_kevin_encode"
  top: "fc8_pascal"
  name: "fc8_pascal"
  type: INNER_PRODUCT
  blobs_lr: 10
  blobs_lr: 20
  weight_decay: 1
  weight_decay: 0
  inner_product_param {
    num_output: 10
    weight_filler {
      type: "gaussian"
      std: 0.01
    }
    bias_filler {
      type: "constant"
      value: 0
    }
  }
}
layers {
  bottom: "fc8_pascal"
  top: "prob"
  name: "prob"
  type: SOFTMAX
}
layers {
  bottom: "prob"
  bottom: "label"
  top: "accuracy"
  name: "accuracy"
  type: ACCURACY
}
state {
  phase: TEST
}
I0511 10:51:03.755004 32108 net.cpp:67] Creating Layer data
I0511 10:51:03.755013 32108 net.cpp:356] data -> data
I0511 10:51:03.755022 32108 net.cpp:356] data -> label
I0511 10:51:03.755028 32108 net.cpp:96] Setting up data
I0511 10:51:03.755033 32108 data_layer.cpp:45] Opening leveldb /home/iis/deep/rcnn_packages/caffe-new/examples/mycifar10/cifar10_val_leveldb
I0511 10:51:03.824367 32108 data_layer.cpp:128] output data size: 32,3,227,227
I0511 10:51:03.824415 32108 base_data_layer.cpp:36] Loading mean file from/home/iis/deep/rcnn_packages/caffe-new/data/ilsvrc12/imagenet_mean.binaryproto
I0511 10:51:03.833434 32108 net.cpp:103] Top shape: 32 3 227 227 (4946784)
I0511 10:51:03.833453 32108 net.cpp:103] Top shape: 32 1 1 1 (32)
I0511 10:51:03.833468 32108 net.cpp:67] Creating Layer conv1
I0511 10:51:03.833474 32108 net.cpp:394] conv1 <- data
I0511 10:51:03.833483 32108 net.cpp:356] conv1 -> conv1
I0511 10:51:03.833493 32108 net.cpp:96] Setting up conv1
I0511 10:51:03.834614 32108 net.cpp:103] Top shape: 32 96 55 55 (9292800)
I0511 10:51:03.834630 32108 net.cpp:67] Creating Layer relu1
I0511 10:51:03.834635 32108 net.cpp:394] relu1 <- conv1
I0511 10:51:03.834641 32108 net.cpp:345] relu1 -> conv1 (in-place)
I0511 10:51:03.834646 32108 net.cpp:96] Setting up relu1
I0511 10:51:03.834650 32108 net.cpp:103] Top shape: 32 96 55 55 (9292800)
I0511 10:51:03.834676 32108 net.cpp:67] Creating Layer pool1
I0511 10:51:03.834681 32108 net.cpp:394] pool1 <- conv1
I0511 10:51:03.834687 32108 net.cpp:356] pool1 -> pool1
I0511 10:51:03.834693 32108 net.cpp:96] Setting up pool1
I0511 10:51:03.834699 32108 net.cpp:103] Top shape: 32 96 27 27 (2239488)
I0511 10:51:03.834707 32108 net.cpp:67] Creating Layer norm1
I0511 10:51:03.834712 32108 net.cpp:394] norm1 <- pool1
I0511 10:51:03.834718 32108 net.cpp:356] norm1 -> norm1
I0511 10:51:03.834724 32108 net.cpp:96] Setting up norm1
I0511 10:51:03.834730 32108 net.cpp:103] Top shape: 32 96 27 27 (2239488)
I0511 10:51:03.834736 32108 net.cpp:67] Creating Layer conv2
I0511 10:51:03.834740 32108 net.cpp:394] conv2 <- norm1
I0511 10:51:03.834745 32108 net.cpp:356] conv2 -> conv2
I0511 10:51:03.834751 32108 net.cpp:96] Setting up conv2
I0511 10:51:03.844797 32108 net.cpp:103] Top shape: 32 256 27 27 (5971968)
I0511 10:51:03.844835 32108 net.cpp:67] Creating Layer relu2
I0511 10:51:03.844841 32108 net.cpp:394] relu2 <- conv2
I0511 10:51:03.844848 32108 net.cpp:345] relu2 -> conv2 (in-place)
I0511 10:51:03.844856 32108 net.cpp:96] Setting up relu2
I0511 10:51:03.844861 32108 net.cpp:103] Top shape: 32 256 27 27 (5971968)
I0511 10:51:03.844866 32108 net.cpp:67] Creating Layer pool2
I0511 10:51:03.844871 32108 net.cpp:394] pool2 <- conv2
I0511 10:51:03.844876 32108 net.cpp:356] pool2 -> pool2
I0511 10:51:03.844882 32108 net.cpp:96] Setting up pool2
I0511 10:51:03.844887 32108 net.cpp:103] Top shape: 32 256 13 13 (1384448)
I0511 10:51:03.844899 32108 net.cpp:67] Creating Layer norm2
I0511 10:51:03.844907 32108 net.cpp:394] norm2 <- pool2
I0511 10:51:03.844918 32108 net.cpp:356] norm2 -> norm2
I0511 10:51:03.844931 32108 net.cpp:96] Setting up norm2
I0511 10:51:03.844939 32108 net.cpp:103] Top shape: 32 256 13 13 (1384448)
I0511 10:51:03.844948 32108 net.cpp:67] Creating Layer conv3
I0511 10:51:03.844954 32108 net.cpp:394] conv3 <- norm2
I0511 10:51:03.844964 32108 net.cpp:356] conv3 -> conv3
I0511 10:51:03.844980 32108 net.cpp:96] Setting up conv3
I0511 10:51:03.874176 32108 net.cpp:103] Top shape: 32 384 13 13 (2076672)
I0511 10:51:03.874215 32108 net.cpp:67] Creating Layer relu3
I0511 10:51:03.874222 32108 net.cpp:394] relu3 <- conv3
I0511 10:51:03.874228 32108 net.cpp:345] relu3 -> conv3 (in-place)
I0511 10:51:03.874235 32108 net.cpp:96] Setting up relu3
I0511 10:51:03.874240 32108 net.cpp:103] Top shape: 32 384 13 13 (2076672)
I0511 10:51:03.874248 32108 net.cpp:67] Creating Layer conv4
I0511 10:51:03.874251 32108 net.cpp:394] conv4 <- conv3
I0511 10:51:03.874256 32108 net.cpp:356] conv4 -> conv4
I0511 10:51:03.874263 32108 net.cpp:96] Setting up conv4
I0511 10:51:03.896101 32108 net.cpp:103] Top shape: 32 384 13 13 (2076672)
I0511 10:51:03.896136 32108 net.cpp:67] Creating Layer relu4
I0511 10:51:03.896142 32108 net.cpp:394] relu4 <- conv4
I0511 10:51:03.896149 32108 net.cpp:345] relu4 -> conv4 (in-place)
I0511 10:51:03.896157 32108 net.cpp:96] Setting up relu4
I0511 10:51:03.896162 32108 net.cpp:103] Top shape: 32 384 13 13 (2076672)
I0511 10:51:03.896168 32108 net.cpp:67] Creating Layer conv5
I0511 10:51:03.896172 32108 net.cpp:394] conv5 <- conv4
I0511 10:51:03.896177 32108 net.cpp:356] conv5 -> conv5
I0511 10:51:03.896183 32108 net.cpp:96] Setting up conv5
I0511 10:51:03.910737 32108 net.cpp:103] Top shape: 32 256 13 13 (1384448)
I0511 10:51:03.910753 32108 net.cpp:67] Creating Layer relu5
I0511 10:51:03.910758 32108 net.cpp:394] relu5 <- conv5
I0511 10:51:03.910763 32108 net.cpp:345] relu5 -> conv5 (in-place)
I0511 10:51:03.910769 32108 net.cpp:96] Setting up relu5
I0511 10:51:03.910773 32108 net.cpp:103] Top shape: 32 256 13 13 (1384448)
I0511 10:51:03.910779 32108 net.cpp:67] Creating Layer pool5
I0511 10:51:03.910784 32108 net.cpp:394] pool5 <- conv5
I0511 10:51:03.910789 32108 net.cpp:356] pool5 -> pool5
I0511 10:51:03.910794 32108 net.cpp:96] Setting up pool5
I0511 10:51:03.910800 32108 net.cpp:103] Top shape: 32 256 6 6 (294912)
I0511 10:51:03.910809 32108 net.cpp:67] Creating Layer fc6
I0511 10:51:03.910814 32108 net.cpp:394] fc6 <- pool5
I0511 10:51:03.910836 32108 net.cpp:356] fc6 -> fc6
I0511 10:51:03.910845 32108 net.cpp:96] Setting up fc6
I0511 10:51:05.151988 32108 net.cpp:103] Top shape: 32 4096 1 1 (131072)
I0511 10:51:05.152027 32108 net.cpp:67] Creating Layer relu6
I0511 10:51:05.152034 32108 net.cpp:394] relu6 <- fc6
I0511 10:51:05.152042 32108 net.cpp:345] relu6 -> fc6 (in-place)
I0511 10:51:05.152050 32108 net.cpp:96] Setting up relu6
I0511 10:51:05.152055 32108 net.cpp:103] Top shape: 32 4096 1 1 (131072)
I0511 10:51:05.152061 32108 net.cpp:67] Creating Layer drop6
I0511 10:51:05.152065 32108 net.cpp:394] drop6 <- fc6
I0511 10:51:05.152071 32108 net.cpp:345] drop6 -> fc6 (in-place)
I0511 10:51:05.152076 32108 net.cpp:96] Setting up drop6
I0511 10:51:05.152081 32108 net.cpp:103] Top shape: 32 4096 1 1 (131072)
I0511 10:51:05.152087 32108 net.cpp:67] Creating Layer fc7
I0511 10:51:05.152096 32108 net.cpp:394] fc7 <- fc6
I0511 10:51:05.152106 32108 net.cpp:356] fc7 -> fc7
I0511 10:51:05.152117 32108 net.cpp:96] Setting up fc7
I0511 10:51:05.703583 32108 net.cpp:103] Top shape: 32 4096 1 1 (131072)
I0511 10:51:05.703624 32108 net.cpp:67] Creating Layer relu7
I0511 10:51:05.703629 32108 net.cpp:394] relu7 <- fc7
I0511 10:51:05.703639 32108 net.cpp:345] relu7 -> fc7 (in-place)
I0511 10:51:05.703647 32108 net.cpp:96] Setting up relu7
I0511 10:51:05.703651 32108 net.cpp:103] Top shape: 32 4096 1 1 (131072)
I0511 10:51:05.703657 32108 net.cpp:67] Creating Layer drop7
I0511 10:51:05.703661 32108 net.cpp:394] drop7 <- fc7
I0511 10:51:05.703666 32108 net.cpp:345] drop7 -> fc7 (in-place)
I0511 10:51:05.703671 32108 net.cpp:96] Setting up drop7
I0511 10:51:05.703676 32108 net.cpp:103] Top shape: 32 4096 1 1 (131072)
I0511 10:51:05.703686 32108 net.cpp:67] Creating Layer fc8_kevin
I0511 10:51:05.703691 32108 net.cpp:394] fc8_kevin <- fc7
I0511 10:51:05.703696 32108 net.cpp:356] fc8_kevin -> fc8_kevin
I0511 10:51:05.703703 32108 net.cpp:96] Setting up fc8_kevin
I0511 10:51:05.707880 32108 net.cpp:103] Top shape: 32 32 1 1 (1024)
I0511 10:51:05.707893 32108 net.cpp:67] Creating Layer fc8_kevin_encode
I0511 10:51:05.707898 32108 net.cpp:394] fc8_kevin_encode <- fc8_kevin
I0511 10:51:05.707905 32108 net.cpp:356] fc8_kevin_encode -> fc8_kevin_encode
I0511 10:51:05.707911 32108 net.cpp:96] Setting up fc8_kevin_encode
I0511 10:51:05.707916 32108 net.cpp:103] Top shape: 32 32 1 1 (1024)
I0511 10:51:05.707922 32108 net.cpp:67] Creating Layer fc8_kevin_encode_fc8_kevin_encode_0_split
I0511 10:51:05.707927 32108 net.cpp:394] fc8_kevin_encode_fc8_kevin_encode_0_split <- fc8_kevin_encode
I0511 10:51:05.707932 32108 net.cpp:356] fc8_kevin_encode_fc8_kevin_encode_0_split -> fc8_kevin_encode_fc8_kevin_encode_0_split_0
I0511 10:51:05.707942 32108 net.cpp:356] fc8_kevin_encode_fc8_kevin_encode_0_split -> fc8_kevin_encode_fc8_kevin_encode_0_split_1
I0511 10:51:05.707949 32108 net.cpp:356] fc8_kevin_encode_fc8_kevin_encode_0_split -> fc8_kevin_encode_fc8_kevin_encode_0_split_2
I0511 10:51:05.707958 32108 net.cpp:356] fc8_kevin_encode_fc8_kevin_encode_0_split -> fc8_kevin_encode_fc8_kevin_encode_0_split_3
I0511 10:51:05.707964 32108 net.cpp:356] fc8_kevin_encode_fc8_kevin_encode_0_split -> fc8_kevin_encode_fc8_kevin_encode_0_split_4
I0511 10:51:05.707972 32108 net.cpp:96] Setting up fc8_kevin_encode_fc8_kevin_encode_0_split
I0511 10:51:05.707976 32108 net.cpp:103] Top shape: 32 32 1 1 (1024)
I0511 10:51:05.707981 32108 net.cpp:103] Top shape: 32 32 1 1 (1024)
I0511 10:51:05.707985 32108 net.cpp:103] Top shape: 32 32 1 1 (1024)
I0511 10:51:05.707989 32108 net.cpp:103] Top shape: 32 32 1 1 (1024)
I0511 10:51:05.707993 32108 net.cpp:103] Top shape: 32 32 1 1 (1024)
I0511 10:51:05.707998 32108 net.cpp:67] Creating Layer loss_1
I0511 10:51:05.708003 32108 net.cpp:394] loss_1 <- fc8_kevin_encode_fc8_kevin_encode_0_split_0
I0511 10:51:05.708009 32108 net.cpp:394] loss_1 <- fc8_kevin_encode_fc8_kevin_encode_0_split_1
I0511 10:51:05.708014 32108 net.cpp:356] loss_1 -> (automatic)
I0511 10:51:05.708019 32108 net.cpp:96] Setting up loss_1
I0511 10:51:05.708025 32108 net.cpp:103] Top shape: 1 1 1 1 (1)
I0511 10:51:05.708045 32108 net.cpp:109]     with loss weight 1
I0511 10:51:05.708057 32108 net.cpp:67] Creating Layer loss_2
I0511 10:51:05.708063 32108 net.cpp:394] loss_2 <- fc8_kevin_encode_fc8_kevin_encode_0_split_2
I0511 10:51:05.708068 32108 net.cpp:394] loss_2 <- fc8_kevin_encode_fc8_kevin_encode_0_split_3
I0511 10:51:05.708073 32108 net.cpp:356] loss_2 -> (automatic)
I0511 10:51:05.708080 32108 net.cpp:96] Setting up loss_2
I0511 10:51:05.708086 32108 net.cpp:103] Top shape: 1 1 1 1 (1)
I0511 10:51:05.708091 32108 net.cpp:109]     with loss weight 1
I0511 10:51:05.708097 32108 net.cpp:67] Creating Layer fc8_pascal
I0511 10:51:05.708103 32108 net.cpp:394] fc8_pascal <- fc8_kevin_encode_fc8_kevin_encode_0_split_4
I0511 10:51:05.708109 32108 net.cpp:356] fc8_pascal -> fc8_pascal
I0511 10:51:05.708117 32108 net.cpp:96] Setting up fc8_pascal
I0511 10:51:05.708135 32108 net.cpp:103] Top shape: 32 10 1 1 (320)
I0511 10:51:05.708147 32108 net.cpp:67] Creating Layer prob
I0511 10:51:05.708153 32108 net.cpp:394] prob <- fc8_pascal
I0511 10:51:05.708158 32108 net.cpp:356] prob -> prob
I0511 10:51:05.708164 32108 net.cpp:96] Setting up prob
I0511 10:51:05.708169 32108 net.cpp:103] Top shape: 32 10 1 1 (320)
I0511 10:51:05.708176 32108 net.cpp:67] Creating Layer accuracy
I0511 10:51:05.708180 32108 net.cpp:394] accuracy <- prob
I0511 10:51:05.708184 32108 net.cpp:394] accuracy <- label
I0511 10:51:05.708191 32108 net.cpp:356] accuracy -> accuracy
I0511 10:51:05.708197 32108 net.cpp:96] Setting up accuracy
I0511 10:51:05.708206 32108 net.cpp:103] Top shape: 1 1 1 1 (1)
I0511 10:51:05.708212 32108 net.cpp:172] accuracy does not need backward computation.
I0511 10:51:05.708216 32108 net.cpp:172] prob does not need backward computation.
I0511 10:51:05.708220 32108 net.cpp:172] fc8_pascal does not need backward computation.
I0511 10:51:05.708222 32108 net.cpp:170] loss_2 needs backward computation.
I0511 10:51:05.708226 32108 net.cpp:170] loss_1 needs backward computation.
…
