…
E0513 15:11:11.419883  5038 upgrade_proto.cpp:608] Note that future Caffe releases will not support V0NetParameter; use ./build/tools/upgrade_net_proto_text for prototxt and ./build/tools/upgrade_net_proto_binary for model weights upgrade this and any other net protos to the new format.
I0513 15:11:11.420094  5038 net.cpp:39] Initializing net from parameters: 
name: "KevinNet_CIFAR10"
layers {
  top: "data"
  top: "label"
  name: "data"
  type: DATA
  data_param {
    source: "/home/iis/deep/rcnn_packages/caffe-new/examples/mycifar10/cifar10_train_leveldb"
    batch_size: 32
  }
  transform_param {
    mirror: true
    crop_size: 227
    mean_file: "/home/iis/deep/rcnn_packages/caffe-new/data/ilsvrc12/imagenet_mean.binaryproto"
  }
}
layers {
  bottom: "data"
  top: "conv1"
  name: "conv1"
  type: CONVOLUTION
  blobs_lr: 1
  blobs_lr: 2
  weight_decay: 1
  weight_decay: 0
  convolution_param {
    num_output: 96
    kernel_size: 11
    stride: 4
    weight_filler {
      type: "gaussian"
      std: 0.01
    }
    bias_filler {
      type: "constant"
      value: 0
    }
  }
}
layers {
  bottom: "conv1"
  top: "conv1"
  name: "relu1"
  type: RELU
}
layers {
  bottom: "conv1"
  top: "pool1"
  name: "pool1"
  type: POOLING
  pooling_param {
    pool: MAX
    kernel_size: 3
    stride: 2
  }
}
layers {
  bottom: "pool1"
  top: "norm1"
  name: "norm1"
  type: LRN
  lrn_param {
    local_size: 5
    alpha: 0.0001
    beta: 0.75
  }
}
layers {
  bottom: "norm1"
  top: "conv2"
  name: "conv2"
  type: CONVOLUTION
  blobs_lr: 1
  blobs_lr: 2
  weight_decay: 1
  weight_decay: 0
  convolution_param {
    num_output: 256
    pad: 2
    kernel_size: 5
    group: 2
    weight_filler {
      type: "gaussian"
      std: 0.01
    }
    bias_filler {
      type: "constant"
      value: 1
    }
  }
}
layers {
  bottom: "conv2"
  top: "conv2"
  name: "relu2"
  type: RELU
}
layers {
  bottom: "conv2"
  top: "pool2"
  name: "pool2"
  type: POOLING
  pooling_param {
    pool: MAX
    kernel_size: 3
    stride: 2
  }
}
layers {
  bottom: "pool2"
  top: "norm2"
  name: "norm2"
  type: LRN
  lrn_param {
    local_size: 5
    alpha: 0.0001
    beta: 0.75
  }
}
layers {
  bottom: "norm2"
  top: "conv3"
  name: "conv3"
  type: CONVOLUTION
  blobs_lr: 1
  blobs_lr: 2
  weight_decay: 1
  weight_decay: 0
  convolution_param {
    num_output: 384
    pad: 1
    kernel_size: 3
    weight_filler {
      type: "gaussian"
      std: 0.01
    }
    bias_filler {
      type: "constant"
      value: 0
    }
  }
}
layers {
  bottom: "conv3"
  top: "conv3"
  name: "relu3"
  type: RELU
}
layers {
  bottom: "conv3"
  top: "conv4"
  name: "conv4"
  type: CONVOLUTION
  blobs_lr: 1
  blobs_lr: 2
  weight_decay: 1
  weight_decay: 0
  convolution_param {
    num_output: 384
    pad: 1
    kernel_size: 3
    group: 2
    weight_filler {
      type: "gaussian"
      std: 0.01
    }
    bias_filler {
      type: "constant"
      value: 1
    }
  }
}
layers {
  bottom: "conv4"
  top: "conv4"
  name: "relu4"
  type: RELU
}
layers {
  bottom: "conv4"
  top: "conv5"
  name: "conv5"
  type: CONVOLUTION
  blobs_lr: 1
  blobs_lr: 2
  weight_decay: 1
  weight_decay: 0
  convolution_param {
    num_output: 256
    pad: 1
    kernel_size: 3
    group: 2
    weight_filler {
      type: "gaussian"
      std: 0.01
    }
    bias_filler {
      type: "constant"
      value: 1
    }
  }
}
layers {
  bottom: "conv5"
  top: "conv5"
  name: "relu5"
  type: RELU
}
layers {
  bottom: "conv5"
  top: "pool5"
  name: "pool5"
  type: POOLING
  pooling_param {
    pool: MAX
    kernel_size: 3
    stride: 2
  }
}
layers {
  bottom: "pool5"
  top: "fc6"
  name: "fc6"
  type: INNER_PRODUCT
  blobs_lr: 1
  blobs_lr: 2
  weight_decay: 1
  weight_decay: 0
  inner_product_param {
    num_output: 4096
    weight_filler {
      type: "gaussian"
      std: 0.005
    }
    bias_filler {
      type: "constant"
      value: 1
    }
  }
}
layers {
  bottom: "fc6"
  top: "fc6"
  name: "relu6"
  type: RELU
}
layers {
  bottom: "fc6"
  top: "fc6"
  name: "drop6"
  type: DROPOUT
  dropout_param {
    dropout_ratio: 0.5
  }
}
layers {
  bottom: "fc6"
  top: "fc7"
  name: "fc7"
  type: INNER_PRODUCT
  blobs_lr: 1
  blobs_lr: 2
  weight_decay: 1
  weight_decay: 0
  inner_product_param {
    num_output: 4096
    weight_filler {
      type: "gaussian"
      std: 0.005
    }
    bias_filler {
      type: "constant"
      value: 1
    }
  }
}
layers {
  bottom: "fc7"
  top: "fc7"
  name: "relu7"
  type: RELU
}
layers {
  bottom: "fc7"
  top: "fc7"
  name: "drop7"
  type: DROPOUT
  dropout_param {
    dropout_ratio: 0.5
  }
}
layers {
  bottom: "fc7"
  top: "fc8_kevin"
  name: "fc8_kevin"
  type: INNER_PRODUCT
  blobs_lr: 1
  blobs_lr: 2
  weight_decay: 1
  weight_decay: 0
  inner_product_param {
    num_output: 64
    weight_filler {
      type: "gaussian"
      std: 0.005
    }
    bias_filler {
      type: "constant"
      value: 1
    }
  }
}
layers {
  bottom: "fc8_kevin"
  top: "fc8_kevin_encode"
  name: "fc8_kevin_encode"
  type: SIGMOID
}
layers {
  bottom: "fc8_kevin_encode"
  bottom: "fc8_kevin_encode"
  name: "loss_1"
  type: K1_EUCLIDEAN_LOSS
}
layers {
  bottom: "fc8_kevin_encode"
  bottom: "fc8_kevin_encode"
  name: "loss_2"
  type: K2_EUCLIDEAN_LOSS
}
layers {
  bottom: "fc8_kevin_encode"
  top: "fc8_pascal"
  name: "fc8_pascal"
  type: INNER_PRODUCT
  blobs_lr: 10
  blobs_lr: 20
  weight_decay: 1
  weight_decay: 0
  inner_product_param {
    num_output: 10
    weight_filler {
      type: "gaussian"
      std: 0.01
    }
    bias_filler {
      type: "constant"
      value: 0
    }
  }
}
layers {
  bottom: "fc8_pascal"
  bottom: "label"
  name: "loss"
  type: SOFTMAX_LOSS
}
state {
  phase: TRAIN
}
I0513 15:11:11.420241  5038 net.cpp:67] Creating Layer data
I0513 15:11:11.420255  5038 net.cpp:356] data -> data
I0513 15:11:11.420274  5038 net.cpp:356] data -> label
I0513 15:11:11.420286  5038 net.cpp:96] Setting up data
I0513 15:11:11.420308  5038 data_layer.cpp:45] Opening leveldb /home/iis/deep/rcnn_packages/caffe-new/examples/mycifar10/cifar10_train_leveldb
I0513 15:11:11.497493  5038 data_layer.cpp:128] output data size: 32,3,227,227
I0513 15:11:11.497519  5038 base_data_layer.cpp:36] Loading mean file from/home/iis/deep/rcnn_packages/caffe-new/data/ilsvrc12/imagenet_mean.binaryproto
I0513 15:11:11.512938  5038 net.cpp:103] Top shape: 32 3 227 227 (4946784)
I0513 15:11:11.512975  5038 net.cpp:103] Top shape: 32 1 1 1 (32)
I0513 15:11:11.513052  5038 net.cpp:67] Creating Layer conv1
I0513 15:11:11.513092  5038 net.cpp:394] conv1 <- data
I0513 15:11:11.513103  5038 net.cpp:356] conv1 -> conv1
I0513 15:11:11.513111  5038 net.cpp:96] Setting up conv1
I0513 15:11:11.516439  5038 net.cpp:103] Top shape: 32 96 55 55 (9292800)
I0513 15:11:11.516491  5038 net.cpp:67] Creating Layer relu1
I0513 15:11:11.516506  5038 net.cpp:394] relu1 <- conv1
I0513 15:11:11.516523  5038 net.cpp:345] relu1 -> conv1 (in-place)
I0513 15:11:11.516540  5038 net.cpp:96] Setting up relu1
I0513 15:11:11.516554  5038 net.cpp:103] Top shape: 32 96 55 55 (9292800)
I0513 15:11:11.516582  5038 net.cpp:67] Creating Layer pool1
I0513 15:11:11.516587  5038 net.cpp:394] pool1 <- conv1
I0513 15:11:11.516592  5038 net.cpp:356] pool1 -> pool1
I0513 15:11:11.516598  5038 net.cpp:96] Setting up pool1
I0513 15:11:11.516609  5038 net.cpp:103] Top shape: 32 96 27 27 (2239488)
I0513 15:11:11.516616  5038 net.cpp:67] Creating Layer norm1
I0513 15:11:11.516620  5038 net.cpp:394] norm1 <- pool1
I0513 15:11:11.516625  5038 net.cpp:356] norm1 -> norm1
I0513 15:11:11.516633  5038 net.cpp:96] Setting up norm1
I0513 15:11:11.516641  5038 net.cpp:103] Top shape: 32 96 27 27 (2239488)
I0513 15:11:11.516648  5038 net.cpp:67] Creating Layer conv2
I0513 15:11:11.516651  5038 net.cpp:394] conv2 <- norm1
I0513 15:11:11.516656  5038 net.cpp:356] conv2 -> conv2
I0513 15:11:11.516662  5038 net.cpp:96] Setting up conv2
I0513 15:11:11.528229  5038 net.cpp:103] Top shape: 32 256 27 27 (5971968)
I0513 15:11:11.528266  5038 net.cpp:67] Creating Layer relu2
I0513 15:11:11.528271  5038 net.cpp:394] relu2 <- conv2
I0513 15:11:11.528280  5038 net.cpp:345] relu2 -> conv2 (in-place)
I0513 15:11:11.528287  5038 net.cpp:96] Setting up relu2
I0513 15:11:11.528292  5038 net.cpp:103] Top shape: 32 256 27 27 (5971968)
I0513 15:11:11.528297  5038 net.cpp:67] Creating Layer pool2
I0513 15:11:11.528301  5038 net.cpp:394] pool2 <- conv2
I0513 15:11:11.528306  5038 net.cpp:356] pool2 -> pool2
I0513 15:11:11.528313  5038 net.cpp:96] Setting up pool2
I0513 15:11:11.528319  5038 net.cpp:103] Top shape: 32 256 13 13 (1384448)
I0513 15:11:11.528326  5038 net.cpp:67] Creating Layer norm2
I0513 15:11:11.528331  5038 net.cpp:394] norm2 <- pool2
I0513 15:11:11.528336  5038 net.cpp:356] norm2 -> norm2
I0513 15:11:11.528340  5038 net.cpp:96] Setting up norm2
I0513 15:11:11.528345  5038 net.cpp:103] Top shape: 32 256 13 13 (1384448)
I0513 15:11:11.528352  5038 net.cpp:67] Creating Layer conv3
I0513 15:11:11.528355  5038 net.cpp:394] conv3 <- norm2
I0513 15:11:11.528362  5038 net.cpp:356] conv3 -> conv3
I0513 15:11:11.528367  5038 net.cpp:96] Setting up conv3
I0513 15:11:11.557668  5038 net.cpp:103] Top shape: 32 384 13 13 (2076672)
I0513 15:11:11.557704  5038 net.cpp:67] Creating Layer relu3
I0513 15:11:11.557710  5038 net.cpp:394] relu3 <- conv3
I0513 15:11:11.557718  5038 net.cpp:345] relu3 -> conv3 (in-place)
I0513 15:11:11.557724  5038 net.cpp:96] Setting up relu3
I0513 15:11:11.557729  5038 net.cpp:103] Top shape: 32 384 13 13 (2076672)
I0513 15:11:11.557736  5038 net.cpp:67] Creating Layer conv4
I0513 15:11:11.557740  5038 net.cpp:394] conv4 <- conv3
I0513 15:11:11.557745  5038 net.cpp:356] conv4 -> conv4
I0513 15:11:11.557752  5038 net.cpp:96] Setting up conv4
I0513 15:11:11.579670  5038 net.cpp:103] Top shape: 32 384 13 13 (2076672)
I0513 15:11:11.579685  5038 net.cpp:67] Creating Layer relu4
I0513 15:11:11.579690  5038 net.cpp:394] relu4 <- conv4
I0513 15:11:11.579695  5038 net.cpp:345] relu4 -> conv4 (in-place)
I0513 15:11:11.579701  5038 net.cpp:96] Setting up relu4
I0513 15:11:11.579705  5038 net.cpp:103] Top shape: 32 384 13 13 (2076672)
I0513 15:11:11.579711  5038 net.cpp:67] Creating Layer conv5
I0513 15:11:11.579715  5038 net.cpp:394] conv5 <- conv4
I0513 15:11:11.579720  5038 net.cpp:356] conv5 -> conv5
I0513 15:11:11.579726  5038 net.cpp:96] Setting up conv5
I0513 15:11:11.594342  5038 net.cpp:103] Top shape: 32 256 13 13 (1384448)
I0513 15:11:11.594367  5038 net.cpp:67] Creating Layer relu5
I0513 15:11:11.594388  5038 net.cpp:394] relu5 <- conv5
I0513 15:11:11.594395  5038 net.cpp:345] relu5 -> conv5 (in-place)
I0513 15:11:11.594401  5038 net.cpp:96] Setting up relu5
I0513 15:11:11.594405  5038 net.cpp:103] Top shape: 32 256 13 13 (1384448)
I0513 15:11:11.594411  5038 net.cpp:67] Creating Layer pool5
I0513 15:11:11.594415  5038 net.cpp:394] pool5 <- conv5
I0513 15:11:11.594421  5038 net.cpp:356] pool5 -> pool5
I0513 15:11:11.594427  5038 net.cpp:96] Setting up pool5
I0513 15:11:11.594434  5038 net.cpp:103] Top shape: 32 256 6 6 (294912)
I0513 15:11:11.594441  5038 net.cpp:67] Creating Layer fc6
I0513 15:11:11.594445  5038 net.cpp:394] fc6 <- pool5
I0513 15:11:11.594451  5038 net.cpp:356] fc6 -> fc6
I0513 15:11:11.594458  5038 net.cpp:96] Setting up fc6
I0513 15:11:12.816170  5038 net.cpp:103] Top shape: 32 4096 1 1 (131072)
I0513 15:11:12.816208  5038 net.cpp:67] Creating Layer relu6
I0513 15:11:12.816215  5038 net.cpp:394] relu6 <- fc6
I0513 15:11:12.816222  5038 net.cpp:345] relu6 -> fc6 (in-place)
I0513 15:11:12.816231  5038 net.cpp:96] Setting up relu6
I0513 15:11:12.816234  5038 net.cpp:103] Top shape: 32 4096 1 1 (131072)
I0513 15:11:12.816239  5038 net.cpp:67] Creating Layer drop6
I0513 15:11:12.816243  5038 net.cpp:394] drop6 <- fc6
I0513 15:11:12.816247  5038 net.cpp:345] drop6 -> fc6 (in-place)
I0513 15:11:12.816253  5038 net.cpp:96] Setting up drop6
I0513 15:11:12.816263  5038 net.cpp:103] Top shape: 32 4096 1 1 (131072)
I0513 15:11:12.816282  5038 net.cpp:67] Creating Layer fc7
I0513 15:11:12.816285  5038 net.cpp:394] fc7 <- fc6
I0513 15:11:12.816290  5038 net.cpp:356] fc7 -> fc7
I0513 15:11:12.816298  5038 net.cpp:96] Setting up fc7
I0513 15:11:13.340641  5038 net.cpp:103] Top shape: 32 4096 1 1 (131072)
I0513 15:11:13.340679  5038 net.cpp:67] Creating Layer relu7
I0513 15:11:13.340684  5038 net.cpp:394] relu7 <- fc7
I0513 15:11:13.340692  5038 net.cpp:345] relu7 -> fc7 (in-place)
I0513 15:11:13.340699  5038 net.cpp:96] Setting up relu7
I0513 15:11:13.340703  5038 net.cpp:103] Top shape: 32 4096 1 1 (131072)
I0513 15:11:13.340709  5038 net.cpp:67] Creating Layer drop7
I0513 15:11:13.340713  5038 net.cpp:394] drop7 <- fc7
I0513 15:11:13.340718  5038 net.cpp:345] drop7 -> fc7 (in-place)
I0513 15:11:13.340723  5038 net.cpp:96] Setting up drop7
I0513 15:11:13.340728  5038 net.cpp:103] Top shape: 32 4096 1 1 (131072)
I0513 15:11:13.340735  5038 net.cpp:67] Creating Layer fc8_kevin
I0513 15:11:13.340751  5038 net.cpp:394] fc8_kevin <- fc7
I0513 15:11:13.340757  5038 net.cpp:356] fc8_kevin -> fc8_kevin
I0513 15:11:13.340764  5038 net.cpp:96] Setting up fc8_kevin
I0513 15:11:13.349031  5038 net.cpp:103] Top shape: 32 64 1 1 (2048)
I0513 15:11:13.349046  5038 net.cpp:67] Creating Layer fc8_kevin_encode
I0513 15:11:13.349050  5038 net.cpp:394] fc8_kevin_encode <- fc8_kevin
I0513 15:11:13.349056  5038 net.cpp:356] fc8_kevin_encode -> fc8_kevin_encode
I0513 15:11:13.349062  5038 net.cpp:96] Setting up fc8_kevin_encode
I0513 15:11:13.349066  5038 net.cpp:103] Top shape: 32 64 1 1 (2048)
I0513 15:11:13.349072  5038 net.cpp:67] Creating Layer fc8_kevin_encode_fc8_kevin_encode_0_split
I0513 15:11:13.349076  5038 net.cpp:394] fc8_kevin_encode_fc8_kevin_encode_0_split <- fc8_kevin_encode
I0513 15:11:13.349081  5038 net.cpp:356] fc8_kevin_encode_fc8_kevin_encode_0_split -> fc8_kevin_encode_fc8_kevin_encode_0_split_0
I0513 15:11:13.349102  5038 net.cpp:356] fc8_kevin_encode_fc8_kevin_encode_0_split -> fc8_kevin_encode_fc8_kevin_encode_0_split_1
I0513 15:11:13.349110  5038 net.cpp:356] fc8_kevin_encode_fc8_kevin_encode_0_split -> fc8_kevin_encode_fc8_kevin_encode_0_split_2
I0513 15:11:13.349117  5038 net.cpp:356] fc8_kevin_encode_fc8_kevin_encode_0_split -> fc8_kevin_encode_fc8_kevin_encode_0_split_3
I0513 15:11:13.349123  5038 net.cpp:356] fc8_kevin_encode_fc8_kevin_encode_0_split -> fc8_kevin_encode_fc8_kevin_encode_0_split_4
I0513 15:11:13.349128  5038 net.cpp:96] Setting up fc8_kevin_encode_fc8_kevin_encode_0_split
I0513 15:11:13.349133  5038 net.cpp:103] Top shape: 32 64 1 1 (2048)
I0513 15:11:13.349160  5038 net.cpp:103] Top shape: 32 64 1 1 (2048)
I0513 15:11:13.349165  5038 net.cpp:103] Top shape: 32 64 1 1 (2048)
I0513 15:11:13.349179  5038 net.cpp:103] Top shape: 32 64 1 1 (2048)
I0513 15:11:13.349184  5038 net.cpp:103] Top shape: 32 64 1 1 (2048)
I0513 15:11:13.349189  5038 net.cpp:67] Creating Layer loss_1
I0513 15:11:13.349192  5038 net.cpp:394] loss_1 <- fc8_kevin_encode_fc8_kevin_encode_0_split_0
I0513 15:11:13.349197  5038 net.cpp:394] loss_1 <- fc8_kevin_encode_fc8_kevin_encode_0_split_1
I0513 15:11:13.349202  5038 net.cpp:356] loss_1 -> (automatic)
I0513 15:11:13.349207  5038 net.cpp:96] Setting up loss_1
I0513 15:11:13.349216  5038 net.cpp:103] Top shape: 1 1 1 1 (1)
I0513 15:11:13.349220  5038 net.cpp:109]     with loss weight 1
I0513 15:11:13.349246  5038 net.cpp:67] Creating Layer loss_2
I0513 15:11:13.349251  5038 net.cpp:394] loss_2 <- fc8_kevin_encode_fc8_kevin_encode_0_split_2
I0513 15:11:13.349254  5038 net.cpp:394] loss_2 <- fc8_kevin_encode_fc8_kevin_encode_0_split_3
I0513 15:11:13.349259  5038 net.cpp:356] loss_2 -> (automatic)
I0513 15:11:13.349264  5038 net.cpp:96] Setting up loss_2
I0513 15:11:13.349269  5038 net.cpp:103] Top shape: 1 1 1 1 (1)
I0513 15:11:13.349275  5038 net.cpp:109]     with loss weight 1
I0513 15:11:13.349282  5038 net.cpp:67] Creating Layer fc8_pascal
I0513 15:11:13.349300  5038 net.cpp:394] fc8_pascal <- fc8_kevin_encode_fc8_kevin_encode_0_split_4
I0513 15:11:13.349306  5038 net.cpp:356] fc8_pascal -> fc8_pascal
I0513 15:11:13.349313  5038 net.cpp:96] Setting up fc8_pascal
I0513 15:11:13.349340  5038 net.cpp:103] Top shape: 32 10 1 1 (320)
I0513 15:11:13.349364  5038 net.cpp:67] Creating Layer loss
I0513 15:11:13.349370  5038 net.cpp:394] loss <- fc8_pascal
I0513 15:11:13.349375  5038 net.cpp:394] loss <- label
I0513 15:11:13.349380  5038 net.cpp:356] loss -> (automatic)
I0513 15:11:13.349385  5038 net.cpp:96] Setting up loss
I0513 15:11:13.349395  5038 net.cpp:103] Top shape: 1 1 1 1 (1)
I0513 15:11:13.349398  5038 net.cpp:109]     with loss weight 1
I0513 15:11:13.349402  5038 net.cpp:170] loss needs backward computation.
I0513 15:11:13.349406  5038 net.cpp:170] fc8_pascal needs backward computation.
I0513 15:11:13.349421  5038 net.cpp:170] loss_2 needs backward computation.
I0513 15:11:13.349426  5038 net.cpp:170] loss_1 needs backward computation.
I0513 15:11:13.349429  5038 net.cpp:170] fc8_kevin_encode_fc8_kevin_encode_0_split needs backward computation.
…
I0513 15:11:13.350365  5038 solver.cpp:151] Creating test net (#0) specified by test_net file: /home/iis/deep/rcnn_packages/Caffe-DeepBinaryCodes/examples/mycifar10/KevinNet_v2/CIFAR10-64/KevinNet_CIFAR10_64_test.prototxt
I0513 15:11:13.350540  5038 net.cpp:39] Initializing net from parameters: 
name: "KevinNet_CIFAR10"
layers {
  top: "data"
  top: "label"
  name: "data"
  type: DATA
  data_param {
    source: "/home/iis/deep/rcnn_packages/caffe-new/examples/mycifar10/cifar10_val_leveldb"
    batch_size: 32
  }
  transform_param {
    mirror: true
    crop_size: 227
    mean_file: "/home/iis/deep/rcnn_packages/caffe-new/data/ilsvrc12/imagenet_mean.binaryproto"
  }
}
layers {
  bottom: "data"
  top: "conv1"
  name: "conv1"
  type: CONVOLUTION
  blobs_lr: 1
  blobs_lr: 2
  weight_decay: 1
  weight_decay: 0
  convolution_param {
    num_output: 96
    kernel_size: 11
    stride: 4
    weight_filler {
      type: "gaussian"
      std: 0.01
    }
    bias_filler {
      type: "constant"
      value: 0
    }
  }
}
layers {
  bottom: "conv1"
  top: "conv1"
  name: "relu1"
  type: RELU
}
layers {
  bottom: "conv1"
  top: "pool1"
  name: "pool1"
  type: POOLING
  pooling_param {
    pool: MAX
    kernel_size: 3
    stride: 2
  }
}
layers {
  bottom: "pool1"
  top: "norm1"
  name: "norm1"
  type: LRN
  lrn_param {
    local_size: 5
    alpha: 0.0001
    beta: 0.75
  }
}
layers {
  bottom: "norm1"
  top: "conv2"
  name: "conv2"
  type: CONVOLUTION
  blobs_lr: 1
  blobs_lr: 2
  weight_decay: 1
  weight_decay: 0
  convolution_param {
    num_output: 256
    pad: 2
    kernel_size: 5
    group: 2
    weight_filler {
      type: "gaussian"
      std: 0.01
    }
    bias_filler {
      type: "constant"
      value: 1
    }
  }
}
layers {
  bottom: "conv2"
  top: "conv2"
  name: "relu2"
  type: RELU
}
layers {
  bottom: "conv2"
  top: "pool2"
  name: "pool2"
  type: POOLING
  pooling_param {
    pool: MAX
    kernel_size: 3
    stride: 2
  }
}
layers {
  bottom: "pool2"
  top: "norm2"
  name: "norm2"
  type: LRN
  lrn_param {
    local_size: 5
    alpha: 0.0001
    beta: 0.75
  }
}
layers {
  bottom: "norm2"
  top: "conv3"
  name: "conv3"
  type: CONVOLUTION
  blobs_lr: 1
  blobs_lr: 2
  weight_decay: 1
  weight_decay: 0
  convolution_param {
    num_output: 384
    pad: 1
    kernel_size: 3
    weight_filler {
      type: "gaussian"
      std: 0.01
    }
    bias_filler {
      type: "constant"
      value: 0
    }
  }
}
layers {
  bottom: "conv3"
  top: "conv3"
  name: "relu3"
  type: RELU
}
layers {
  bottom: "conv3"
  top: "conv4"
  name: "conv4"
  type: CONVOLUTION
  blobs_lr: 1
  blobs_lr: 2
  weight_decay: 1
  weight_decay: 0
  convolution_param {
    num_output: 384
    pad: 1
    kernel_size: 3
    group: 2
    weight_filler {
      type: "gaussian"
      std: 0.01
    }
    bias_filler {
      type: "constant"
      value: 1
    }
  }
}
layers {
  bottom: "conv4"
  top: "conv4"
  name: "relu4"
  type: RELU
}
layers {
  bottom: "conv4"
  top: "conv5"
  name: "conv5"
  type: CONVOLUTION
  blobs_lr: 1
  blobs_lr: 2
  weight_decay: 1
  weight_decay: 0
  convolution_param {
    num_output: 256
    pad: 1
    kernel_size: 3
    group: 2
    weight_filler {
      type: "gaussian"
      std: 0.01
    }
    bias_filler {
      type: "constant"
      value: 1
    }
  }
}
layers {
  bottom: "conv5"
  top: "conv5"
  name: "relu5"
  type: RELU
}
layers {
  bottom: "conv5"
  top: "pool5"
  name: "pool5"
  type: POOLING
  pooling_param {
    pool: MAX
    kernel_size: 3
    stride: 2
  }
}
layers {
  bottom: "pool5"
  top: "fc6"
  name: "fc6"
  type: INNER_PRODUCT
  blobs_lr: 1
  blobs_lr: 2
  weight_decay: 1
  weight_decay: 0
  inner_product_param {
    num_output: 4096
    weight_filler {
      type: "gaussian"
      std: 0.005
    }
    bias_filler {
      type: "constant"
      value: 1
    }
  }
}
layers {
  bottom: "fc6"
  top: "fc6"
  name: "relu6"
  type: RELU
}
layers {
  bottom: "fc6"
  top: "fc6"
  name: "drop6"
  type: DROPOUT
  dropout_param {
    dropout_ratio: 0.5
  }
}
layers {
  bottom: "fc6"
  top: "fc7"
  name: "fc7"
  type: INNER_PRODUCT
  blobs_lr: 1
  blobs_lr: 2
  weight_decay: 1
  weight_decay: 0
  inner_product_param {
    num_output: 4096
    weight_filler {
      type: "gaussian"
      std: 0.005
    }
    bias_filler {
      type: "constant"
      value: 1
    }
  }
}
layers {
  bottom: "fc7"
  top: "fc7"
  name: "relu7"
  type: RELU
}
layers {
  bottom: "fc7"
  top: "fc7"
  name: "drop7"
  type: DROPOUT
  dropout_param {
    dropout_ratio: 0.5
  }
}
layers {
  bottom: "fc7"
  top: "fc8_kevin"
  name: "fc8_kevin"
  type: INNER_PRODUCT
  blobs_lr: 1
  blobs_lr: 2
  weight_decay: 1
  weight_decay: 0
  inner_product_param {
    num_output: 64
    weight_filler {
      type: "gaussian"
      std: 0.005
    }
    bias_filler {
      type: "constant"
      value: 1
    }
  }
}
layers {
  bottom: "fc8_kevin"
  top: "fc8_kevin_encode"
  name: "fc8_kevin_encode"
  type: SIGMOID
}
layers {
  bottom: "fc8_kevin_encode"
  bottom: "fc8_kevin_encode"
  name: "loss_1"
  type: K1_EUCLIDEAN_LOSS
}
layers {
  bottom: "fc8_kevin_encode"
  bottom: "fc8_kevin_encode"
  name: "loss_2"
  type: K2_EUCLIDEAN_LOSS
}
layers {
  bottom: "fc8_kevin_encode"
  top: "fc8_pascal"
  name: "fc8_pascal"
  type: INNER_PRODUCT
  blobs_lr: 10
  blobs_lr: 20
  weight_decay: 1
  weight_decay: 0
  inner_product_param {
    num_output: 10
    weight_filler {
      type: "gaussian"
      std: 0.01
    }
    bias_filler {
      type: "constant"
      value: 0
    }
  }
}
layers {
  bottom: "fc8_pascal"
  top: "prob"
  name: "prob"
  type: SOFTMAX
}
layers {
  bottom: "prob"
  bottom: "label"
  top: "accuracy"
  name: "accuracy"
  type: ACCURACY
}
state {
  phase: TEST
}
I0513 15:11:13.350631  5038 net.cpp:67] Creating Layer data
I0513 15:11:13.350638  5038 net.cpp:356] data -> data
I0513 15:11:13.350646  5038 net.cpp:356] data -> label
I0513 15:11:13.350652  5038 net.cpp:96] Setting up data
I0513 15:11:13.350657  5038 data_layer.cpp:45] Opening leveldb /home/iis/deep/rcnn_packages/caffe-new/examples/mycifar10/cifar10_val_leveldb
I0513 15:11:13.433599  5038 data_layer.cpp:128] output data size: 32,3,227,227
I0513 15:11:13.433645  5038 base_data_layer.cpp:36] Loading mean file from/home/iis/deep/rcnn_packages/caffe-new/data/ilsvrc12/imagenet_mean.binaryproto
I0513 15:11:13.444774  5038 net.cpp:103] Top shape: 32 3 227 227 (4946784)
I0513 15:11:13.444789  5038 net.cpp:103] Top shape: 32 1 1 1 (32)
I0513 15:11:13.444802  5038 net.cpp:67] Creating Layer conv1
I0513 15:11:13.444824  5038 net.cpp:394] conv1 <- data
I0513 15:11:13.444834  5038 net.cpp:356] conv1 -> conv1
I0513 15:11:13.444855  5038 net.cpp:96] Setting up conv1
I0513 15:11:13.445950  5038 net.cpp:103] Top shape: 32 96 55 55 (9292800)
I0513 15:11:13.445972  5038 net.cpp:67] Creating Layer relu1
I0513 15:11:13.445982  5038 net.cpp:394] relu1 <- conv1
I0513 15:11:13.445992  5038 net.cpp:345] relu1 -> conv1 (in-place)
I0513 15:11:13.446001  5038 net.cpp:96] Setting up relu1
I0513 15:11:13.446007  5038 net.cpp:103] Top shape: 32 96 55 55 (9292800)
I0513 15:11:13.446013  5038 net.cpp:67] Creating Layer pool1
I0513 15:11:13.446017  5038 net.cpp:394] pool1 <- conv1
I0513 15:11:13.446022  5038 net.cpp:356] pool1 -> pool1
I0513 15:11:13.446028  5038 net.cpp:96] Setting up pool1
I0513 15:11:13.446034  5038 net.cpp:103] Top shape: 32 96 27 27 (2239488)
I0513 15:11:13.446040  5038 net.cpp:67] Creating Layer norm1
I0513 15:11:13.446044  5038 net.cpp:394] norm1 <- pool1
I0513 15:11:13.446049  5038 net.cpp:356] norm1 -> norm1
I0513 15:11:13.446055  5038 net.cpp:96] Setting up norm1
I0513 15:11:13.446060  5038 net.cpp:103] Top shape: 32 96 27 27 (2239488)
I0513 15:11:13.446066  5038 net.cpp:67] Creating Layer conv2
I0513 15:11:13.446069  5038 net.cpp:394] conv2 <- norm1
I0513 15:11:13.446075  5038 net.cpp:356] conv2 -> conv2
I0513 15:11:13.446080  5038 net.cpp:96] Setting up conv2
I0513 15:11:13.455790  5038 net.cpp:103] Top shape: 32 256 27 27 (5971968)
I0513 15:11:13.455832  5038 net.cpp:67] Creating Layer relu2
I0513 15:11:13.455842  5038 net.cpp:394] relu2 <- conv2
I0513 15:11:13.455853  5038 net.cpp:345] relu2 -> conv2 (in-place)
I0513 15:11:13.455867  5038 net.cpp:96] Setting up relu2
I0513 15:11:13.455873  5038 net.cpp:103] Top shape: 32 256 27 27 (5971968)
I0513 15:11:13.455880  5038 net.cpp:67] Creating Layer pool2
I0513 15:11:13.455884  5038 net.cpp:394] pool2 <- conv2
I0513 15:11:13.455889  5038 net.cpp:356] pool2 -> pool2
I0513 15:11:13.455896  5038 net.cpp:96] Setting up pool2
I0513 15:11:13.455903  5038 net.cpp:103] Top shape: 32 256 13 13 (1384448)
I0513 15:11:13.455914  5038 net.cpp:67] Creating Layer norm2
I0513 15:11:13.455924  5038 net.cpp:394] norm2 <- pool2
I0513 15:11:13.455935  5038 net.cpp:356] norm2 -> norm2
I0513 15:11:13.455940  5038 net.cpp:96] Setting up norm2
I0513 15:11:13.455945  5038 net.cpp:103] Top shape: 32 256 13 13 (1384448)
I0513 15:11:13.455952  5038 net.cpp:67] Creating Layer conv3
I0513 15:11:13.455955  5038 net.cpp:394] conv3 <- norm2
I0513 15:11:13.455961  5038 net.cpp:356] conv3 -> conv3
I0513 15:11:13.455967  5038 net.cpp:96] Setting up conv3
I0513 15:11:13.484612  5038 net.cpp:103] Top shape: 32 384 13 13 (2076672)
I0513 15:11:13.484653  5038 net.cpp:67] Creating Layer relu3
I0513 15:11:13.484660  5038 net.cpp:394] relu3 <- conv3
I0513 15:11:13.484668  5038 net.cpp:345] relu3 -> conv3 (in-place)
I0513 15:11:13.484674  5038 net.cpp:96] Setting up relu3
I0513 15:11:13.484680  5038 net.cpp:103] Top shape: 32 384 13 13 (2076672)
I0513 15:11:13.484690  5038 net.cpp:67] Creating Layer conv4
I0513 15:11:13.484696  5038 net.cpp:394] conv4 <- conv3
I0513 15:11:13.484705  5038 net.cpp:356] conv4 -> conv4
I0513 15:11:13.484714  5038 net.cpp:96] Setting up conv4
I0513 15:11:13.505938  5038 net.cpp:103] Top shape: 32 384 13 13 (2076672)
I0513 15:11:13.505969  5038 net.cpp:67] Creating Layer relu4
I0513 15:11:13.505975  5038 net.cpp:394] relu4 <- conv4
I0513 15:11:13.505980  5038 net.cpp:345] relu4 -> conv4 (in-place)
I0513 15:11:13.505987  5038 net.cpp:96] Setting up relu4
I0513 15:11:13.505993  5038 net.cpp:103] Top shape: 32 384 13 13 (2076672)
I0513 15:11:13.506003  5038 net.cpp:67] Creating Layer conv5
I0513 15:11:13.506011  5038 net.cpp:394] conv5 <- conv4
I0513 15:11:13.506031  5038 net.cpp:356] conv5 -> conv5
I0513 15:11:13.506042  5038 net.cpp:96] Setting up conv5
I0513 15:11:13.519858  5038 net.cpp:103] Top shape: 32 256 13 13 (1384448)
I0513 15:11:13.519876  5038 net.cpp:67] Creating Layer relu5
I0513 15:11:13.519881  5038 net.cpp:394] relu5 <- conv5
I0513 15:11:13.519886  5038 net.cpp:345] relu5 -> conv5 (in-place)
I0513 15:11:13.519928  5038 net.cpp:96] Setting up relu5
I0513 15:11:13.519937  5038 net.cpp:103] Top shape: 32 256 13 13 (1384448)
I0513 15:11:13.519948  5038 net.cpp:67] Creating Layer pool5
I0513 15:11:13.519955  5038 net.cpp:394] pool5 <- conv5
I0513 15:11:13.519965  5038 net.cpp:356] pool5 -> pool5
I0513 15:11:13.519975  5038 net.cpp:96] Setting up pool5
I0513 15:11:13.519996  5038 net.cpp:103] Top shape: 32 256 6 6 (294912)
I0513 15:11:13.520009  5038 net.cpp:67] Creating Layer fc6
I0513 15:11:13.520020  5038 net.cpp:394] fc6 <- pool5
I0513 15:11:13.520030  5038 net.cpp:356] fc6 -> fc6
I0513 15:11:13.520043  5038 net.cpp:96] Setting up fc6
I0513 15:11:14.701824  5038 net.cpp:103] Top shape: 32 4096 1 1 (131072)
I0513 15:11:14.701864  5038 net.cpp:67] Creating Layer relu6
I0513 15:11:14.701869  5038 net.cpp:394] relu6 <- fc6
I0513 15:11:14.701877  5038 net.cpp:345] relu6 -> fc6 (in-place)
I0513 15:11:14.701885  5038 net.cpp:96] Setting up relu6
I0513 15:11:14.701889  5038 net.cpp:103] Top shape: 32 4096 1 1 (131072)
I0513 15:11:14.701899  5038 net.cpp:67] Creating Layer drop6
I0513 15:11:14.701905  5038 net.cpp:394] drop6 <- fc6
I0513 15:11:14.701911  5038 net.cpp:345] drop6 -> fc6 (in-place)
I0513 15:11:14.701920  5038 net.cpp:96] Setting up drop6
I0513 15:11:14.701926  5038 net.cpp:103] Top shape: 32 4096 1 1 (131072)
I0513 15:11:14.701936  5038 net.cpp:67] Creating Layer fc7
I0513 15:11:14.701943  5038 net.cpp:394] fc7 <- fc6
I0513 15:11:14.701952  5038 net.cpp:356] fc7 -> fc7
I0513 15:11:14.701963  5038 net.cpp:96] Setting up fc7
I0513 15:11:15.229640  5038 net.cpp:103] Top shape: 32 4096 1 1 (131072)
I0513 15:11:15.229689  5038 net.cpp:67] Creating Layer relu7
I0513 15:11:15.229696  5038 net.cpp:394] relu7 <- fc7
I0513 15:11:15.229704  5038 net.cpp:345] relu7 -> fc7 (in-place)
I0513 15:11:15.229712  5038 net.cpp:96] Setting up relu7
I0513 15:11:15.229718  5038 net.cpp:103] Top shape: 32 4096 1 1 (131072)
I0513 15:11:15.229727  5038 net.cpp:67] Creating Layer drop7
I0513 15:11:15.229733  5038 net.cpp:394] drop7 <- fc7
I0513 15:11:15.229740  5038 net.cpp:345] drop7 -> fc7 (in-place)
I0513 15:11:15.229749  5038 net.cpp:96] Setting up drop7
I0513 15:11:15.229756  5038 net.cpp:103] Top shape: 32 4096 1 1 (131072)
I0513 15:11:15.229765  5038 net.cpp:67] Creating Layer fc8_kevin
I0513 15:11:15.229773  5038 net.cpp:394] fc8_kevin <- fc7
I0513 15:11:15.229782  5038 net.cpp:356] fc8_kevin -> fc8_kevin
I0513 15:11:15.229794  5038 net.cpp:96] Setting up fc8_kevin
I0513 15:11:15.237828  5038 net.cpp:103] Top shape: 32 64 1 1 (2048)
I0513 15:11:15.237854  5038 net.cpp:67] Creating Layer fc8_kevin_encode
I0513 15:11:15.237859  5038 net.cpp:394] fc8_kevin_encode <- fc8_kevin
I0513 15:11:15.237864  5038 net.cpp:356] fc8_kevin_encode -> fc8_kevin_encode
I0513 15:11:15.237870  5038 net.cpp:96] Setting up fc8_kevin_encode
I0513 15:11:15.237876  5038 net.cpp:103] Top shape: 32 64 1 1 (2048)
I0513 15:11:15.237886  5038 net.cpp:67] Creating Layer fc8_kevin_encode_fc8_kevin_encode_0_split
I0513 15:11:15.237895  5038 net.cpp:394] fc8_kevin_encode_fc8_kevin_encode_0_split <- fc8_kevin_encode
I0513 15:11:15.237905  5038 net.cpp:356] fc8_kevin_encode_fc8_kevin_encode_0_split -> fc8_kevin_encode_fc8_kevin_encode_0_split_0
I0513 15:11:15.237918  5038 net.cpp:356] fc8_kevin_encode_fc8_kevin_encode_0_split -> fc8_kevin_encode_fc8_kevin_encode_0_split_1
I0513 15:11:15.237931  5038 net.cpp:356] fc8_kevin_encode_fc8_kevin_encode_0_split -> fc8_kevin_encode_fc8_kevin_encode_0_split_2
I0513 15:11:15.237943  5038 net.cpp:356] fc8_kevin_encode_fc8_kevin_encode_0_split -> fc8_kevin_encode_fc8_kevin_encode_0_split_3
I0513 15:11:15.237956  5038 net.cpp:356] fc8_kevin_encode_fc8_kevin_encode_0_split -> fc8_kevin_encode_fc8_kevin_encode_0_split_4
I0513 15:11:15.237968  5038 net.cpp:96] Setting up fc8_kevin_encode_fc8_kevin_encode_0_split
I0513 15:11:15.237978  5038 net.cpp:103] Top shape: 32 64 1 1 (2048)
I0513 15:11:15.237985  5038 net.cpp:103] Top shape: 32 64 1 1 (2048)
I0513 15:11:15.237993  5038 net.cpp:103] Top shape: 32 64 1 1 (2048)
I0513 15:11:15.238028  5038 net.cpp:103] Top shape: 32 64 1 1 (2048)
I0513 15:11:15.238034  5038 net.cpp:103] Top shape: 32 64 1 1 (2048)
I0513 15:11:15.238039  5038 net.cpp:67] Creating Layer loss_1
I0513 15:11:15.238044  5038 net.cpp:394] loss_1 <- fc8_kevin_encode_fc8_kevin_encode_0_split_0
I0513 15:11:15.238049  5038 net.cpp:394] loss_1 <- fc8_kevin_encode_fc8_kevin_encode_0_split_1
I0513 15:11:15.238054  5038 net.cpp:356] loss_1 -> (automatic)
I0513 15:11:15.238059  5038 net.cpp:96] Setting up loss_1
I0513 15:11:15.238065  5038 net.cpp:103] Top shape: 1 1 1 1 (1)
I0513 15:11:15.238068  5038 net.cpp:109]     with loss weight 1
I0513 15:11:15.238085  5038 net.cpp:67] Creating Layer loss_2
I0513 15:11:15.238091  5038 net.cpp:394] loss_2 <- fc8_kevin_encode_fc8_kevin_encode_0_split_2
I0513 15:11:15.238100  5038 net.cpp:394] loss_2 <- fc8_kevin_encode_fc8_kevin_encode_0_split_3
I0513 15:11:15.238109  5038 net.cpp:356] loss_2 -> (automatic)
I0513 15:11:15.238121  5038 net.cpp:96] Setting up loss_2
I0513 15:11:15.238131  5038 net.cpp:103] Top shape: 1 1 1 1 (1)
I0513 15:11:15.238139  5038 net.cpp:109]     with loss weight 1
I0513 15:11:15.238153  5038 net.cpp:67] Creating Layer fc8_pascal
I0513 15:11:15.238163  5038 net.cpp:394] fc8_pascal <- fc8_kevin_encode_fc8_kevin_encode_0_split_4
I0513 15:11:15.238176  5038 net.cpp:356] fc8_pascal -> fc8_pascal
I0513 15:11:15.238188  5038 net.cpp:96] Setting up fc8_pascal
I0513 15:11:15.238231  5038 net.cpp:103] Top shape: 32 10 1 1 (320)
I0513 15:11:15.238248  5038 net.cpp:67] Creating Layer prob
I0513 15:11:15.238257  5038 net.cpp:394] prob <- fc8_pascal
I0513 15:11:15.238267  5038 net.cpp:356] prob -> prob
I0513 15:11:15.238279  5038 net.cpp:96] Setting up prob
I0513 15:11:15.238289  5038 net.cpp:103] Top shape: 32 10 1 1 (320)
I0513 15:11:15.238299  5038 net.cpp:67] Creating Layer accuracy
I0513 15:11:15.238303  5038 net.cpp:394] accuracy <- prob
I0513 15:11:15.238308  5038 net.cpp:394] accuracy <- label
I0513 15:11:15.238313  5038 net.cpp:356] accuracy -> accuracy
I0513 15:11:15.238319  5038 net.cpp:96] Setting up accuracy
I0513 15:11:15.238327  5038 net.cpp:103] Top shape: 1 1 1 1 (1)
I0513 15:11:15.238332  5038 net.cpp:172] accuracy does not need backward computation.
I0513 15:11:15.238335  5038 net.cpp:172] prob does not need backward computation.
I0513 15:11:15.238338  5038 net.cpp:172] fc8_pascal does not need backward computation.
I0513 15:11:15.238342  5038 net.cpp:170] loss_2 needs backward computation.
I0513 15:11:15.238345  5038 net.cpp:170] loss_1 needs backward computation.
…
