…
E0511 17:13:26.270817  8357 upgrade_proto.cpp:608] Note that future Caffe releases will not support V0NetParameter; use ./build/tools/upgrade_net_proto_text for prototxt and ./build/tools/upgrade_net_proto_binary for model weights upgrade this and any other net protos to the new format.
I0511 17:13:26.271035  8357 net.cpp:39] Initializing net from parameters: 
name: "KevinNet_CIFAR10"
layers {
  top: "data"
  top: "label"
  name: "data"
  type: DATA
  data_param {
    source: "/home/iis/deep/rcnn_packages/caffe-new/examples/mycifar10/cifar10_train_leveldb"
    batch_size: 32
  }
  transform_param {
    mirror: true
    crop_size: 227
    mean_file: "/home/iis/deep/rcnn_packages/caffe-new/data/ilsvrc12/imagenet_mean.binaryproto"
  }
}
layers {
  bottom: "data"
  top: "conv1"
  name: "conv1"
  type: CONVOLUTION
  blobs_lr: 1
  blobs_lr: 2
  weight_decay: 1
  weight_decay: 0
  convolution_param {
    num_output: 96
    kernel_size: 11
    stride: 4
    weight_filler {
      type: "gaussian"
      std: 0.01
    }
    bias_filler {
      type: "constant"
      value: 0
    }
  }
}
layers {
  bottom: "conv1"
  top: "conv1"
  name: "relu1"
  type: RELU
}
layers {
  bottom: "conv1"
  top: "pool1"
  name: "pool1"
  type: POOLING
  pooling_param {
    pool: MAX
    kernel_size: 3
    stride: 2
  }
}
layers {
  bottom: "pool1"
  top: "norm1"
  name: "norm1"
  type: LRN
  lrn_param {
    local_size: 5
    alpha: 0.0001
    beta: 0.75
  }
}
layers {
  bottom: "norm1"
  top: "conv2"
  name: "conv2"
  type: CONVOLUTION
  blobs_lr: 1
  blobs_lr: 2
  weight_decay: 1
  weight_decay: 0
  convolution_param {
    num_output: 256
    pad: 2
    kernel_size: 5
    group: 2
    weight_filler {
      type: "gaussian"
      std: 0.01
    }
    bias_filler {
      type: "constant"
      value: 1
    }
  }
}
layers {
  bottom: "conv2"
  top: "conv2"
  name: "relu2"
  type: RELU
}
layers {
  bottom: "conv2"
  top: "pool2"
  name: "pool2"
  type: POOLING
  pooling_param {
    pool: MAX
    kernel_size: 3
    stride: 2
  }
}
layers {
  bottom: "pool2"
  top: "norm2"
  name: "norm2"
  type: LRN
  lrn_param {
    local_size: 5
    alpha: 0.0001
    beta: 0.75
  }
}
layers {
  bottom: "norm2"
  top: "conv3"
  name: "conv3"
  type: CONVOLUTION
  blobs_lr: 1
  blobs_lr: 2
  weight_decay: 1
  weight_decay: 0
  convolution_param {
    num_output: 384
    pad: 1
    kernel_size: 3
    weight_filler {
      type: "gaussian"
      std: 0.01
    }
    bias_filler {
      type: "constant"
      value: 0
    }
  }
}
layers {
  bottom: "conv3"
  top: "conv3"
  name: "relu3"
  type: RELU
}
layers {
  bottom: "conv3"
  top: "conv4"
  name: "conv4"
  type: CONVOLUTION
  blobs_lr: 1
  blobs_lr: 2
  weight_decay: 1
  weight_decay: 0
  convolution_param {
    num_output: 384
    pad: 1
    kernel_size: 3
    group: 2
    weight_filler {
      type: "gaussian"
      std: 0.01
    }
    bias_filler {
      type: "constant"
      value: 1
    }
  }
}
layers {
  bottom: "conv4"
  top: "conv4"
  name: "relu4"
  type: RELU
}
layers {
  bottom: "conv4"
  top: "conv5"
  name: "conv5"
  type: CONVOLUTION
  blobs_lr: 1
  blobs_lr: 2
  weight_decay: 1
  weight_decay: 0
  convolution_param {
    num_output: 256
    pad: 1
    kernel_size: 3
    group: 2
    weight_filler {
      type: "gaussian"
      std: 0.01
    }
    bias_filler {
      type: "constant"
      value: 1
    }
  }
}
layers {
  bottom: "conv5"
  top: "conv5"
  name: "relu5"
  type: RELU
}
layers {
  bottom: "conv5"
  top: "pool5"
  name: "pool5"
  type: POOLING
  pooling_param {
    pool: MAX
    kernel_size: 3
    stride: 2
  }
}
layers {
  bottom: "pool5"
  top: "fc6"
  name: "fc6"
  type: INNER_PRODUCT
  blobs_lr: 1
  blobs_lr: 2
  weight_decay: 1
  weight_decay: 0
  inner_product_param {
    num_output: 4096
    weight_filler {
      type: "gaussian"
      std: 0.005
    }
    bias_filler {
      type: "constant"
      value: 1
    }
  }
}
layers {
  bottom: "fc6"
  top: "fc6"
  name: "relu6"
  type: RELU
}
layers {
  bottom: "fc6"
  top: "fc6"
  name: "drop6"
  type: DROPOUT
  dropout_param {
    dropout_ratio: 0.5
  }
}
layers {
  bottom: "fc6"
  top: "fc7"
  name: "fc7"
  type: INNER_PRODUCT
  blobs_lr: 1
  blobs_lr: 2
  weight_decay: 1
  weight_decay: 0
  inner_product_param {
    num_output: 4096
    weight_filler {
      type: "gaussian"
      std: 0.005
    }
    bias_filler {
      type: "constant"
      value: 1
    }
  }
}
layers {
  bottom: "fc7"
  top: "fc7"
  name: "relu7"
  type: RELU
}
layers {
  bottom: "fc7"
  top: "fc7"
  name: "drop7"
  type: DROPOUT
  dropout_param {
    dropout_ratio: 0.5
  }
}
layers {
  bottom: "fc7"
  top: "fc8_kevin"
  name: "fc8_kevin"
  type: INNER_PRODUCT
  blobs_lr: 1
  blobs_lr: 2
  weight_decay: 1
  weight_decay: 0
  inner_product_param {
    num_output: 48
    weight_filler {
      type: "gaussian"
      std: 0.005
    }
    bias_filler {
      type: "constant"
      value: 1
    }
  }
}
layers {
  bottom: "fc8_kevin"
  top: "fc8_kevin_encode"
  name: "fc8_kevin_encode"
  type: SIGMOID
}
layers {
  bottom: "fc8_kevin_encode"
  bottom: "fc8_kevin_encode"
  name: "loss_1"
  type: K1_EUCLIDEAN_LOSS
}
layers {
  bottom: "fc8_kevin_encode"
  bottom: "fc8_kevin_encode"
  name: "loss_2"
  type: K2_EUCLIDEAN_LOSS
}
layers {
  bottom: "fc8_kevin_encode"
  top: "fc8_pascal"
  name: "fc8_pascal"
  type: INNER_PRODUCT
  blobs_lr: 10
  blobs_lr: 20
  weight_decay: 1
  weight_decay: 0
  inner_product_param {
    num_output: 10
    weight_filler {
      type: "gaussian"
      std: 0.01
    }
    bias_filler {
      type: "constant"
      value: 0
    }
  }
}
layers {
  bottom: "fc8_pascal"
  bottom: "label"
  name: "loss"
  type: SOFTMAX_LOSS
}
state {
  phase: TRAIN
}
I0511 17:13:26.271179  8357 net.cpp:67] Creating Layer data
I0511 17:13:26.271193  8357 net.cpp:356] data -> data
I0511 17:13:26.271212  8357 net.cpp:356] data -> label
I0511 17:13:26.271225  8357 net.cpp:96] Setting up data
I0511 17:13:26.271247  8357 data_layer.cpp:45] Opening leveldb /home/iis/deep/rcnn_packages/caffe-new/examples/mycifar10/cifar10_train_leveldb
I0511 17:13:26.351035  8357 data_layer.cpp:128] output data size: 32,3,227,227
I0511 17:13:26.351057  8357 base_data_layer.cpp:36] Loading mean file from/home/iis/deep/rcnn_packages/caffe-new/data/ilsvrc12/imagenet_mean.binaryproto
I0511 17:13:26.359287  8357 net.cpp:103] Top shape: 32 3 227 227 (4946784)
I0511 17:13:26.359299  8357 net.cpp:103] Top shape: 32 1 1 1 (32)
I0511 17:13:26.359315  8357 net.cpp:67] Creating Layer conv1
I0511 17:13:26.359320  8357 net.cpp:394] conv1 <- data
I0511 17:13:26.359329  8357 net.cpp:356] conv1 -> conv1
I0511 17:13:26.359339  8357 net.cpp:96] Setting up conv1
I0511 17:13:26.360494  8357 net.cpp:103] Top shape: 32 96 55 55 (9292800)
I0511 17:13:26.360514  8357 net.cpp:67] Creating Layer relu1
I0511 17:13:26.360533  8357 net.cpp:394] relu1 <- conv1
I0511 17:13:26.360540  8357 net.cpp:345] relu1 -> conv1 (in-place)
I0511 17:13:26.360546  8357 net.cpp:96] Setting up relu1
I0511 17:13:26.360553  8357 net.cpp:103] Top shape: 32 96 55 55 (9292800)
I0511 17:13:26.360559  8357 net.cpp:67] Creating Layer pool1
I0511 17:13:26.360563  8357 net.cpp:394] pool1 <- conv1
I0511 17:13:26.360569  8357 net.cpp:356] pool1 -> pool1
I0511 17:13:26.360574  8357 net.cpp:96] Setting up pool1
I0511 17:13:26.360585  8357 net.cpp:103] Top shape: 32 96 27 27 (2239488)
I0511 17:13:26.360594  8357 net.cpp:67] Creating Layer norm1
I0511 17:13:26.360597  8357 net.cpp:394] norm1 <- pool1
I0511 17:13:26.360604  8357 net.cpp:356] norm1 -> norm1
I0511 17:13:26.360611  8357 net.cpp:96] Setting up norm1
I0511 17:13:26.360618  8357 net.cpp:103] Top shape: 32 96 27 27 (2239488)
I0511 17:13:26.360625  8357 net.cpp:67] Creating Layer conv2
I0511 17:13:26.360628  8357 net.cpp:394] conv2 <- norm1
I0511 17:13:26.360633  8357 net.cpp:356] conv2 -> conv2
I0511 17:13:26.360640  8357 net.cpp:96] Setting up conv2
I0511 17:13:26.370965  8357 net.cpp:103] Top shape: 32 256 27 27 (5971968)
I0511 17:13:26.371003  8357 net.cpp:67] Creating Layer relu2
I0511 17:13:26.371008  8357 net.cpp:394] relu2 <- conv2
I0511 17:13:26.371016  8357 net.cpp:345] relu2 -> conv2 (in-place)
I0511 17:13:26.371023  8357 net.cpp:96] Setting up relu2
I0511 17:13:26.371028  8357 net.cpp:103] Top shape: 32 256 27 27 (5971968)
I0511 17:13:26.371036  8357 net.cpp:67] Creating Layer pool2
I0511 17:13:26.371038  8357 net.cpp:394] pool2 <- conv2
I0511 17:13:26.371044  8357 net.cpp:356] pool2 -> pool2
I0511 17:13:26.371050  8357 net.cpp:96] Setting up pool2
I0511 17:13:26.371057  8357 net.cpp:103] Top shape: 32 256 13 13 (1384448)
I0511 17:13:26.371064  8357 net.cpp:67] Creating Layer norm2
I0511 17:13:26.371068  8357 net.cpp:394] norm2 <- pool2
I0511 17:13:26.371073  8357 net.cpp:356] norm2 -> norm2
I0511 17:13:26.371079  8357 net.cpp:96] Setting up norm2
I0511 17:13:26.371084  8357 net.cpp:103] Top shape: 32 256 13 13 (1384448)
I0511 17:13:26.371091  8357 net.cpp:67] Creating Layer conv3
I0511 17:13:26.371095  8357 net.cpp:394] conv3 <- norm2
I0511 17:13:26.371100  8357 net.cpp:356] conv3 -> conv3
I0511 17:13:26.371107  8357 net.cpp:96] Setting up conv3
I0511 17:13:26.400617  8357 net.cpp:103] Top shape: 32 384 13 13 (2076672)
I0511 17:13:26.400655  8357 net.cpp:67] Creating Layer relu3
I0511 17:13:26.400661  8357 net.cpp:394] relu3 <- conv3
I0511 17:13:26.400670  8357 net.cpp:345] relu3 -> conv3 (in-place)
I0511 17:13:26.400677  8357 net.cpp:96] Setting up relu3
I0511 17:13:26.400681  8357 net.cpp:103] Top shape: 32 384 13 13 (2076672)
I0511 17:13:26.400688  8357 net.cpp:67] Creating Layer conv4
I0511 17:13:26.400692  8357 net.cpp:394] conv4 <- conv3
I0511 17:13:26.400698  8357 net.cpp:356] conv4 -> conv4
I0511 17:13:26.400704  8357 net.cpp:96] Setting up conv4
I0511 17:13:26.422777  8357 net.cpp:103] Top shape: 32 384 13 13 (2076672)
I0511 17:13:26.422801  8357 net.cpp:67] Creating Layer relu4
I0511 17:13:26.422807  8357 net.cpp:394] relu4 <- conv4
I0511 17:13:26.422813  8357 net.cpp:345] relu4 -> conv4 (in-place)
I0511 17:13:26.422821  8357 net.cpp:96] Setting up relu4
I0511 17:13:26.422826  8357 net.cpp:103] Top shape: 32 384 13 13 (2076672)
I0511 17:13:26.422835  8357 net.cpp:67] Creating Layer conv5
I0511 17:13:26.422842  8357 net.cpp:394] conv5 <- conv4
I0511 17:13:26.422852  8357 net.cpp:356] conv5 -> conv5
I0511 17:13:26.422859  8357 net.cpp:96] Setting up conv5
I0511 17:13:26.437613  8357 net.cpp:103] Top shape: 32 256 13 13 (1384448)
I0511 17:13:26.437636  8357 net.cpp:67] Creating Layer relu5
I0511 17:13:26.437643  8357 net.cpp:394] relu5 <- conv5
I0511 17:13:26.437649  8357 net.cpp:345] relu5 -> conv5 (in-place)
I0511 17:13:26.437655  8357 net.cpp:96] Setting up relu5
I0511 17:13:26.437659  8357 net.cpp:103] Top shape: 32 256 13 13 (1384448)
I0511 17:13:26.437665  8357 net.cpp:67] Creating Layer pool5
I0511 17:13:26.437669  8357 net.cpp:394] pool5 <- conv5
I0511 17:13:26.437695  8357 net.cpp:356] pool5 -> pool5
I0511 17:13:26.437702  8357 net.cpp:96] Setting up pool5
I0511 17:13:26.437708  8357 net.cpp:103] Top shape: 32 256 6 6 (294912)
I0511 17:13:26.437716  8357 net.cpp:67] Creating Layer fc6
I0511 17:13:26.437721  8357 net.cpp:394] fc6 <- pool5
I0511 17:13:26.437726  8357 net.cpp:356] fc6 -> fc6
I0511 17:13:26.437733  8357 net.cpp:96] Setting up fc6
I0511 17:13:27.694327  8357 net.cpp:103] Top shape: 32 4096 1 1 (131072)
I0511 17:13:27.694367  8357 net.cpp:67] Creating Layer relu6
I0511 17:13:27.694373  8357 net.cpp:394] relu6 <- fc6
I0511 17:13:27.694382  8357 net.cpp:345] relu6 -> fc6 (in-place)
I0511 17:13:27.694391  8357 net.cpp:96] Setting up relu6
I0511 17:13:27.694396  8357 net.cpp:103] Top shape: 32 4096 1 1 (131072)
I0511 17:13:27.694401  8357 net.cpp:67] Creating Layer drop6
I0511 17:13:27.694404  8357 net.cpp:394] drop6 <- fc6
I0511 17:13:27.694411  8357 net.cpp:345] drop6 -> fc6 (in-place)
I0511 17:13:27.694416  8357 net.cpp:96] Setting up drop6
I0511 17:13:27.694425  8357 net.cpp:103] Top shape: 32 4096 1 1 (131072)
I0511 17:13:27.694434  8357 net.cpp:67] Creating Layer fc7
I0511 17:13:27.694438  8357 net.cpp:394] fc7 <- fc6
I0511 17:13:27.694444  8357 net.cpp:356] fc7 -> fc7
I0511 17:13:27.694452  8357 net.cpp:96] Setting up fc7
I0511 17:13:28.254117  8357 net.cpp:103] Top shape: 32 4096 1 1 (131072)
I0511 17:13:28.254155  8357 net.cpp:67] Creating Layer relu7
I0511 17:13:28.254161  8357 net.cpp:394] relu7 <- fc7
I0511 17:13:28.254171  8357 net.cpp:345] relu7 -> fc7 (in-place)
I0511 17:13:28.254180  8357 net.cpp:96] Setting up relu7
I0511 17:13:28.254184  8357 net.cpp:103] Top shape: 32 4096 1 1 (131072)
I0511 17:13:28.254191  8357 net.cpp:67] Creating Layer drop7
I0511 17:13:28.254194  8357 net.cpp:394] drop7 <- fc7
I0511 17:13:28.254200  8357 net.cpp:345] drop7 -> fc7 (in-place)
I0511 17:13:28.254206  8357 net.cpp:96] Setting up drop7
I0511 17:13:28.254211  8357 net.cpp:103] Top shape: 32 4096 1 1 (131072)
I0511 17:13:28.254220  8357 net.cpp:67] Creating Layer fc8_kevin
I0511 17:13:28.254223  8357 net.cpp:394] fc8_kevin <- fc7
I0511 17:13:28.254230  8357 net.cpp:356] fc8_kevin -> fc8_kevin
I0511 17:13:28.254236  8357 net.cpp:96] Setting up fc8_kevin
I0511 17:13:28.260735  8357 net.cpp:103] Top shape: 32 48 1 1 (1536)
I0511 17:13:28.260751  8357 net.cpp:67] Creating Layer fc8_kevin_encode
I0511 17:13:28.260756  8357 net.cpp:394] fc8_kevin_encode <- fc8_kevin
I0511 17:13:28.260763  8357 net.cpp:356] fc8_kevin_encode -> fc8_kevin_encode
I0511 17:13:28.260769  8357 net.cpp:96] Setting up fc8_kevin_encode
I0511 17:13:28.260774  8357 net.cpp:103] Top shape: 32 48 1 1 (1536)
I0511 17:13:28.260781  8357 net.cpp:67] Creating Layer fc8_kevin_encode_fc8_kevin_encode_0_split
I0511 17:13:28.260784  8357 net.cpp:394] fc8_kevin_encode_fc8_kevin_encode_0_split <- fc8_kevin_encode
I0511 17:13:28.260790  8357 net.cpp:356] fc8_kevin_encode_fc8_kevin_encode_0_split -> fc8_kevin_encode_fc8_kevin_encode_0_split_0
I0511 17:13:28.260802  8357 net.cpp:356] fc8_kevin_encode_fc8_kevin_encode_0_split -> fc8_kevin_encode_fc8_kevin_encode_0_split_1
I0511 17:13:28.260809  8357 net.cpp:356] fc8_kevin_encode_fc8_kevin_encode_0_split -> fc8_kevin_encode_fc8_kevin_encode_0_split_2
I0511 17:13:28.260817  8357 net.cpp:356] fc8_kevin_encode_fc8_kevin_encode_0_split -> fc8_kevin_encode_fc8_kevin_encode_0_split_3
I0511 17:13:28.260823  8357 net.cpp:356] fc8_kevin_encode_fc8_kevin_encode_0_split -> fc8_kevin_encode_fc8_kevin_encode_0_split_4
I0511 17:13:28.260828  8357 net.cpp:96] Setting up fc8_kevin_encode_fc8_kevin_encode_0_split
I0511 17:13:28.260834  8357 net.cpp:103] Top shape: 32 48 1 1 (1536)
I0511 17:13:28.260838  8357 net.cpp:103] Top shape: 32 48 1 1 (1536)
I0511 17:13:28.260843  8357 net.cpp:103] Top shape: 32 48 1 1 (1536)
I0511 17:13:28.260845  8357 net.cpp:103] Top shape: 32 48 1 1 (1536)
I0511 17:13:28.260849  8357 net.cpp:103] Top shape: 32 48 1 1 (1536)
I0511 17:13:28.260855  8357 net.cpp:67] Creating Layer loss_1
I0511 17:13:28.260859  8357 net.cpp:394] loss_1 <- fc8_kevin_encode_fc8_kevin_encode_0_split_0
I0511 17:13:28.260880  8357 net.cpp:394] loss_1 <- fc8_kevin_encode_fc8_kevin_encode_0_split_1
I0511 17:13:28.260887  8357 net.cpp:356] loss_1 -> (automatic)
I0511 17:13:28.260892  8357 net.cpp:96] Setting up loss_1
I0511 17:13:28.260902  8357 net.cpp:103] Top shape: 1 1 1 1 (1)
I0511 17:13:28.260906  8357 net.cpp:109]     with loss weight 1
I0511 17:13:28.260934  8357 net.cpp:67] Creating Layer loss_2
I0511 17:13:28.260939  8357 net.cpp:394] loss_2 <- fc8_kevin_encode_fc8_kevin_encode_0_split_2
I0511 17:13:28.260944  8357 net.cpp:394] loss_2 <- fc8_kevin_encode_fc8_kevin_encode_0_split_3
I0511 17:13:28.260951  8357 net.cpp:356] loss_2 -> (automatic)
I0511 17:13:28.260957  8357 net.cpp:96] Setting up loss_2
I0511 17:13:28.260963  8357 net.cpp:103] Top shape: 1 1 1 1 (1)
I0511 17:13:28.260967  8357 net.cpp:109]     with loss weight 1
I0511 17:13:28.260977  8357 net.cpp:67] Creating Layer fc8_pascal
I0511 17:13:28.260982  8357 net.cpp:394] fc8_pascal <- fc8_kevin_encode_fc8_kevin_encode_0_split_4
I0511 17:13:28.260987  8357 net.cpp:356] fc8_pascal -> fc8_pascal
I0511 17:13:28.260993  8357 net.cpp:96] Setting up fc8_pascal
I0511 17:13:28.261018  8357 net.cpp:103] Top shape: 32 10 1 1 (320)
I0511 17:13:28.261030  8357 net.cpp:67] Creating Layer loss
I0511 17:13:28.261035  8357 net.cpp:394] loss <- fc8_pascal
I0511 17:13:28.261040  8357 net.cpp:394] loss <- label
I0511 17:13:28.261046  8357 net.cpp:356] loss -> (automatic)
I0511 17:13:28.261052  8357 net.cpp:96] Setting up loss
I0511 17:13:28.261062  8357 net.cpp:103] Top shape: 1 1 1 1 (1)
I0511 17:13:28.261068  8357 net.cpp:109]     with loss weight 1
I0511 17:13:28.261073  8357 net.cpp:170] loss needs backward computation.
I0511 17:13:28.261078  8357 net.cpp:170] fc8_pascal needs backward computation.
I0511 17:13:28.261082  8357 net.cpp:170] loss_2 needs backward computation.
I0511 17:13:28.261086  8357 net.cpp:170] loss_1 needs backward computation.
I0511 17:13:28.261090  8357 net.cpp:170] fc8_kevin_encode_fc8_kevin_encode_0_split needs backward computation.
…
E0511 17:13:28.261981  8357 upgrade_proto.cpp:608] Note that future Caffe releases will not support V0NetParameter; use ./build/tools/upgrade_net_proto_text for prototxt and ./build/tools/upgrade_net_proto_binary for model weights upgrade this and any other net protos to the new format.
I0511 17:13:28.262004  8357 solver.cpp:151] Creating test net (#0) specified by test_net file: KevinNet_CIFAR10_48_test.prototxt
I0511 17:13:28.262192  8357 net.cpp:39] Initializing net from parameters: 
name: "KevinNet_CIFAR10"
layers {
  top: "data"
  top: "label"
  name: "data"
  type: DATA
  data_param {
    source: "/home/iis/deep/rcnn_packages/caffe-new/examples/mycifar10/cifar10_val_leveldb"
    batch_size: 32
  }
  transform_param {
    mirror: true
    crop_size: 227
    mean_file: "/home/iis/deep/rcnn_packages/caffe-new/data/ilsvrc12/imagenet_mean.binaryproto"
  }
}
layers {
  bottom: "data"
  top: "conv1"
  name: "conv1"
  type: CONVOLUTION
  blobs_lr: 1
  blobs_lr: 2
  weight_decay: 1
  weight_decay: 0
  convolution_param {
    num_output: 96
    kernel_size: 11
    stride: 4
    weight_filler {
      type: "gaussian"
      std: 0.01
    }
    bias_filler {
      type: "constant"
      value: 0
    }
  }
}
layers {
  bottom: "conv1"
  top: "conv1"
  name: "relu1"
  type: RELU
}
layers {
  bottom: "conv1"
  top: "pool1"
  name: "pool1"
  type: POOLING
  pooling_param {
    pool: MAX
    kernel_size: 3
    stride: 2
  }
}
layers {
  bottom: "pool1"
  top: "norm1"
  name: "norm1"
  type: LRN
  lrn_param {
    local_size: 5
    alpha: 0.0001
    beta: 0.75
  }
}
layers {
  bottom: "norm1"
  top: "conv2"
  name: "conv2"
  type: CONVOLUTION
  blobs_lr: 1
  blobs_lr: 2
  weight_decay: 1
  weight_decay: 0
  convolution_param {
    num_output: 256
    pad: 2
    kernel_size: 5
    group: 2
    weight_filler {
      type: "gaussian"
      std: 0.01
    }
    bias_filler {
      type: "constant"
      value: 1
    }
  }
}
layers {
  bottom: "conv2"
  top: "conv2"
  name: "relu2"
  type: RELU
}
layers {
  bottom: "conv2"
  top: "pool2"
  name: "pool2"
  type: POOLING
  pooling_param {
    pool: MAX
    kernel_size: 3
    stride: 2
  }
}
layers {
  bottom: "pool2"
  top: "norm2"
  name: "norm2"
  type: LRN
  lrn_param {
    local_size: 5
    alpha: 0.0001
    beta: 0.75
  }
}
layers {
  bottom: "norm2"
  top: "conv3"
  name: "conv3"
  type: CONVOLUTION
  blobs_lr: 1
  blobs_lr: 2
  weight_decay: 1
  weight_decay: 0
  convolution_param {
    num_output: 384
    pad: 1
    kernel_size: 3
    weight_filler {
      type: "gaussian"
      std: 0.01
    }
    bias_filler {
      type: "constant"
      value: 0
    }
  }
}
layers {
  bottom: "conv3"
  top: "conv3"
  name: "relu3"
  type: RELU
}
layers {
  bottom: "conv3"
  top: "conv4"
  name: "conv4"
  type: CONVOLUTION
  blobs_lr: 1
  blobs_lr: 2
  weight_decay: 1
  weight_decay: 0
  convolution_param {
    num_output: 384
    pad: 1
    kernel_size: 3
    group: 2
    weight_filler {
      type: "gaussian"
      std: 0.01
    }
    bias_filler {
      type: "constant"
      value: 1
    }
  }
}
layers {
  bottom: "conv4"
  top: "conv4"
  name: "relu4"
  type: RELU
}
layers {
  bottom: "conv4"
  top: "conv5"
  name: "conv5"
  type: CONVOLUTION
  blobs_lr: 1
  blobs_lr: 2
  weight_decay: 1
  weight_decay: 0
  convolution_param {
    num_output: 256
    pad: 1
    kernel_size: 3
    group: 2
    weight_filler {
      type: "gaussian"
      std: 0.01
    }
    bias_filler {
      type: "constant"
      value: 1
    }
  }
}
layers {
  bottom: "conv5"
  top: "conv5"
  name: "relu5"
  type: RELU
}
layers {
  bottom: "conv5"
  top: "pool5"
  name: "pool5"
  type: POOLING
  pooling_param {
    pool: MAX
    kernel_size: 3
    stride: 2
  }
}
layers {
  bottom: "pool5"
  top: "fc6"
  name: "fc6"
  type: INNER_PRODUCT
  blobs_lr: 1
  blobs_lr: 2
  weight_decay: 1
  weight_decay: 0
  inner_product_param {
    num_output: 4096
    weight_filler {
      type: "gaussian"
      std: 0.005
    }
    bias_filler {
      type: "constant"
      value: 1
    }
  }
}
layers {
  bottom: "fc6"
  top: "fc6"
  name: "relu6"
  type: RELU
}
layers {
  bottom: "fc6"
  top: "fc6"
  name: "drop6"
  type: DROPOUT
  dropout_param {
    dropout_ratio: 0.5
  }
}
layers {
  bottom: "fc6"
  top: "fc7"
  name: "fc7"
  type: INNER_PRODUCT
  blobs_lr: 1
  blobs_lr: 2
  weight_decay: 1
  weight_decay: 0
  inner_product_param {
    num_output: 4096
    weight_filler {
      type: "gaussian"
      std: 0.005
    }
    bias_filler {
      type: "constant"
      value: 1
    }
  }
}
layers {
  bottom: "fc7"
  top: "fc7"
  name: "relu7"
  type: RELU
}
layers {
  bottom: "fc7"
  top: "fc7"
  name: "drop7"
  type: DROPOUT
  dropout_param {
    dropout_ratio: 0.5
  }
}
layers {
  bottom: "fc7"
  top: "fc8_kevin"
  name: "fc8_kevin"
  type: INNER_PRODUCT
  blobs_lr: 1
  blobs_lr: 2
  weight_decay: 1
  weight_decay: 0
  inner_product_param {
    num_output: 48
    weight_filler {
      type: "gaussian"
      std: 0.005
    }
    bias_filler {
      type: "constant"
      value: 1
    }
  }
}
layers {
  bottom: "fc8_kevin"
  top: "fc8_kevin_encode"
  name: "fc8_kevin_encode"
  type: SIGMOID
}
layers {
  bottom: "fc8_kevin_encode"
  bottom: "fc8_kevin_encode"
  name: "loss_1"
  type: K1_EUCLIDEAN_LOSS
}
layers {
  bottom: "fc8_kevin_encode"
  bottom: "fc8_kevin_encode"
  name: "loss_2"
  type: K2_EUCLIDEAN_LOSS
}
layers {
  bottom: "fc8_kevin_encode"
  top: "fc8_pascal"
  name: "fc8_pascal"
  type: INNER_PRODUCT
  blobs_lr: 10
  blobs_lr: 20
  weight_decay: 1
  weight_decay: 0
  inner_product_param {
    num_output: 10
    weight_filler {
      type: "gaussian"
      std: 0.01
    }
    bias_filler {
      type: "constant"
      value: 0
    }
  }
}
layers {
  bottom: "fc8_pascal"
  top: "prob"
  name: "prob"
  type: SOFTMAX
}
layers {
  bottom: "prob"
  bottom: "label"
  top: "accuracy"
  name: "accuracy"
  type: ACCURACY
}
state {
  phase: TEST
}
I0511 17:13:28.262287  8357 net.cpp:67] Creating Layer data
I0511 17:13:28.262295  8357 net.cpp:356] data -> data
I0511 17:13:28.262302  8357 net.cpp:356] data -> label
I0511 17:13:28.262310  8357 net.cpp:96] Setting up data
I0511 17:13:28.262315  8357 data_layer.cpp:45] Opening leveldb /home/iis/deep/rcnn_packages/caffe-new/examples/mycifar10/cifar10_val_leveldb
I0511 17:13:28.342033  8357 data_layer.cpp:128] output data size: 32,3,227,227
I0511 17:13:28.342069  8357 base_data_layer.cpp:36] Loading mean file from/home/iis/deep/rcnn_packages/caffe-new/data/ilsvrc12/imagenet_mean.binaryproto
I0511 17:13:28.358355  8357 net.cpp:103] Top shape: 32 3 227 227 (4946784)
I0511 17:13:28.358376  8357 net.cpp:103] Top shape: 32 1 1 1 (32)
I0511 17:13:28.358392  8357 net.cpp:67] Creating Layer conv1
I0511 17:13:28.358397  8357 net.cpp:394] conv1 <- data
I0511 17:13:28.358404  8357 net.cpp:356] conv1 -> conv1
I0511 17:13:28.358417  8357 net.cpp:96] Setting up conv1
I0511 17:13:28.359603  8357 net.cpp:103] Top shape: 32 96 55 55 (9292800)
I0511 17:13:28.359623  8357 net.cpp:67] Creating Layer relu1
I0511 17:13:28.359628  8357 net.cpp:394] relu1 <- conv1
I0511 17:13:28.359634  8357 net.cpp:345] relu1 -> conv1 (in-place)
I0511 17:13:28.359642  8357 net.cpp:96] Setting up relu1
I0511 17:13:28.359645  8357 net.cpp:103] Top shape: 32 96 55 55 (9292800)
I0511 17:13:28.359675  8357 net.cpp:67] Creating Layer pool1
I0511 17:13:28.359688  8357 net.cpp:394] pool1 <- conv1
I0511 17:13:28.359699  8357 net.cpp:356] pool1 -> pool1
I0511 17:13:28.359709  8357 net.cpp:96] Setting up pool1
I0511 17:13:28.359719  8357 net.cpp:103] Top shape: 32 96 27 27 (2239488)
I0511 17:13:28.359731  8357 net.cpp:67] Creating Layer norm1
I0511 17:13:28.359738  8357 net.cpp:394] norm1 <- pool1
I0511 17:13:28.359750  8357 net.cpp:356] norm1 -> norm1
I0511 17:13:28.359761  8357 net.cpp:96] Setting up norm1
I0511 17:13:28.359771  8357 net.cpp:103] Top shape: 32 96 27 27 (2239488)
I0511 17:13:28.359782  8357 net.cpp:67] Creating Layer conv2
I0511 17:13:28.359796  8357 net.cpp:394] conv2 <- norm1
I0511 17:13:28.359807  8357 net.cpp:356] conv2 -> conv2
I0511 17:13:28.359820  8357 net.cpp:96] Setting up conv2
I0511 17:13:28.370364  8357 net.cpp:103] Top shape: 32 256 27 27 (5971968)
I0511 17:13:28.370407  8357 net.cpp:67] Creating Layer relu2
I0511 17:13:28.370414  8357 net.cpp:394] relu2 <- conv2
I0511 17:13:28.370421  8357 net.cpp:345] relu2 -> conv2 (in-place)
I0511 17:13:28.370429  8357 net.cpp:96] Setting up relu2
I0511 17:13:28.370434  8357 net.cpp:103] Top shape: 32 256 27 27 (5971968)
I0511 17:13:28.370440  8357 net.cpp:67] Creating Layer pool2
I0511 17:13:28.370443  8357 net.cpp:394] pool2 <- conv2
I0511 17:13:28.370450  8357 net.cpp:356] pool2 -> pool2
I0511 17:13:28.370460  8357 net.cpp:96] Setting up pool2
I0511 17:13:28.370471  8357 net.cpp:103] Top shape: 32 256 13 13 (1384448)
I0511 17:13:28.370484  8357 net.cpp:67] Creating Layer norm2
I0511 17:13:28.370496  8357 net.cpp:394] norm2 <- pool2
I0511 17:13:28.370507  8357 net.cpp:356] norm2 -> norm2
I0511 17:13:28.370514  8357 net.cpp:96] Setting up norm2
I0511 17:13:28.370519  8357 net.cpp:103] Top shape: 32 256 13 13 (1384448)
I0511 17:13:28.370527  8357 net.cpp:67] Creating Layer conv3
I0511 17:13:28.370530  8357 net.cpp:394] conv3 <- norm2
I0511 17:13:28.370537  8357 net.cpp:356] conv3 -> conv3
I0511 17:13:28.370543  8357 net.cpp:96] Setting up conv3
I0511 17:13:28.399871  8357 net.cpp:103] Top shape: 32 384 13 13 (2076672)
I0511 17:13:28.399911  8357 net.cpp:67] Creating Layer relu3
I0511 17:13:28.399917  8357 net.cpp:394] relu3 <- conv3
I0511 17:13:28.399925  8357 net.cpp:345] relu3 -> conv3 (in-place)
I0511 17:13:28.399932  8357 net.cpp:96] Setting up relu3
I0511 17:13:28.399937  8357 net.cpp:103] Top shape: 32 384 13 13 (2076672)
I0511 17:13:28.399945  8357 net.cpp:67] Creating Layer conv4
I0511 17:13:28.399948  8357 net.cpp:394] conv4 <- conv3
I0511 17:13:28.399953  8357 net.cpp:356] conv4 -> conv4
I0511 17:13:28.399960  8357 net.cpp:96] Setting up conv4
I0511 17:13:28.421902  8357 net.cpp:103] Top shape: 32 384 13 13 (2076672)
I0511 17:13:28.421931  8357 net.cpp:67] Creating Layer relu4
I0511 17:13:28.421939  8357 net.cpp:394] relu4 <- conv4
I0511 17:13:28.421950  8357 net.cpp:345] relu4 -> conv4 (in-place)
I0511 17:13:28.421964  8357 net.cpp:96] Setting up relu4
I0511 17:13:28.421970  8357 net.cpp:103] Top shape: 32 384 13 13 (2076672)
I0511 17:13:28.421977  8357 net.cpp:67] Creating Layer conv5
I0511 17:13:28.421982  8357 net.cpp:394] conv5 <- conv4
I0511 17:13:28.421986  8357 net.cpp:356] conv5 -> conv5
I0511 17:13:28.421993  8357 net.cpp:96] Setting up conv5
I0511 17:13:28.436607  8357 net.cpp:103] Top shape: 32 256 13 13 (1384448)
I0511 17:13:28.436633  8357 net.cpp:67] Creating Layer relu5
I0511 17:13:28.436638  8357 net.cpp:394] relu5 <- conv5
I0511 17:13:28.436645  8357 net.cpp:345] relu5 -> conv5 (in-place)
I0511 17:13:28.436650  8357 net.cpp:96] Setting up relu5
I0511 17:13:28.436656  8357 net.cpp:103] Top shape: 32 256 13 13 (1384448)
I0511 17:13:28.436663  8357 net.cpp:67] Creating Layer pool5
I0511 17:13:28.436667  8357 net.cpp:394] pool5 <- conv5
I0511 17:13:28.436672  8357 net.cpp:356] pool5 -> pool5
I0511 17:13:28.436679  8357 net.cpp:96] Setting up pool5
I0511 17:13:28.436686  8357 net.cpp:103] Top shape: 32 256 6 6 (294912)
I0511 17:13:28.436693  8357 net.cpp:67] Creating Layer fc6
I0511 17:13:28.436698  8357 net.cpp:394] fc6 <- pool5
I0511 17:13:28.436717  8357 net.cpp:356] fc6 -> fc6
I0511 17:13:28.436724  8357 net.cpp:96] Setting up fc6
I0511 17:13:29.682466  8357 net.cpp:103] Top shape: 32 4096 1 1 (131072)
I0511 17:13:29.682504  8357 net.cpp:67] Creating Layer relu6
I0511 17:13:29.682510  8357 net.cpp:394] relu6 <- fc6
I0511 17:13:29.682519  8357 net.cpp:345] relu6 -> fc6 (in-place)
I0511 17:13:29.682526  8357 net.cpp:96] Setting up relu6
I0511 17:13:29.682531  8357 net.cpp:103] Top shape: 32 4096 1 1 (131072)
I0511 17:13:29.682539  8357 net.cpp:67] Creating Layer drop6
I0511 17:13:29.682543  8357 net.cpp:394] drop6 <- fc6
I0511 17:13:29.682548  8357 net.cpp:345] drop6 -> fc6 (in-place)
I0511 17:13:29.682554  8357 net.cpp:96] Setting up drop6
I0511 17:13:29.682559  8357 net.cpp:103] Top shape: 32 4096 1 1 (131072)
I0511 17:13:29.682565  8357 net.cpp:67] Creating Layer fc7
I0511 17:13:29.682569  8357 net.cpp:394] fc7 <- fc6
I0511 17:13:29.682575  8357 net.cpp:356] fc7 -> fc7
I0511 17:13:29.682584  8357 net.cpp:96] Setting up fc7
I0511 17:13:30.236184  8357 net.cpp:103] Top shape: 32 4096 1 1 (131072)
I0511 17:13:30.236223  8357 net.cpp:67] Creating Layer relu7
I0511 17:13:30.236229  8357 net.cpp:394] relu7 <- fc7
I0511 17:13:30.236238  8357 net.cpp:345] relu7 -> fc7 (in-place)
I0511 17:13:30.236245  8357 net.cpp:96] Setting up relu7
I0511 17:13:30.236249  8357 net.cpp:103] Top shape: 32 4096 1 1 (131072)
I0511 17:13:30.236256  8357 net.cpp:67] Creating Layer drop7
I0511 17:13:30.236260  8357 net.cpp:394] drop7 <- fc7
I0511 17:13:30.236265  8357 net.cpp:345] drop7 -> fc7 (in-place)
I0511 17:13:30.236271  8357 net.cpp:96] Setting up drop7
I0511 17:13:30.236276  8357 net.cpp:103] Top shape: 32 4096 1 1 (131072)
I0511 17:13:30.236282  8357 net.cpp:67] Creating Layer fc8_kevin
I0511 17:13:30.236289  8357 net.cpp:394] fc8_kevin <- fc7
I0511 17:13:30.236295  8357 net.cpp:356] fc8_kevin -> fc8_kevin
I0511 17:13:30.236302  8357 net.cpp:96] Setting up fc8_kevin
I0511 17:13:30.242610  8357 net.cpp:103] Top shape: 32 48 1 1 (1536)
I0511 17:13:30.242625  8357 net.cpp:67] Creating Layer fc8_kevin_encode
I0511 17:13:30.242630  8357 net.cpp:394] fc8_kevin_encode <- fc8_kevin
I0511 17:13:30.242636  8357 net.cpp:356] fc8_kevin_encode -> fc8_kevin_encode
I0511 17:13:30.242642  8357 net.cpp:96] Setting up fc8_kevin_encode
I0511 17:13:30.242647  8357 net.cpp:103] Top shape: 32 48 1 1 (1536)
I0511 17:13:30.242653  8357 net.cpp:67] Creating Layer fc8_kevin_encode_fc8_kevin_encode_0_split
I0511 17:13:30.242657  8357 net.cpp:394] fc8_kevin_encode_fc8_kevin_encode_0_split <- fc8_kevin_encode
I0511 17:13:30.242663  8357 net.cpp:356] fc8_kevin_encode_fc8_kevin_encode_0_split -> fc8_kevin_encode_fc8_kevin_encode_0_split_0
I0511 17:13:30.242676  8357 net.cpp:356] fc8_kevin_encode_fc8_kevin_encode_0_split -> fc8_kevin_encode_fc8_kevin_encode_0_split_1
I0511 17:13:30.242682  8357 net.cpp:356] fc8_kevin_encode_fc8_kevin_encode_0_split -> fc8_kevin_encode_fc8_kevin_encode_0_split_2
I0511 17:13:30.242689  8357 net.cpp:356] fc8_kevin_encode_fc8_kevin_encode_0_split -> fc8_kevin_encode_fc8_kevin_encode_0_split_3
I0511 17:13:30.242696  8357 net.cpp:356] fc8_kevin_encode_fc8_kevin_encode_0_split -> fc8_kevin_encode_fc8_kevin_encode_0_split_4
I0511 17:13:30.242702  8357 net.cpp:96] Setting up fc8_kevin_encode_fc8_kevin_encode_0_split
I0511 17:13:30.242707  8357 net.cpp:103] Top shape: 32 48 1 1 (1536)
I0511 17:13:30.242712  8357 net.cpp:103] Top shape: 32 48 1 1 (1536)
I0511 17:13:30.242715  8357 net.cpp:103] Top shape: 32 48 1 1 (1536)
I0511 17:13:30.242719  8357 net.cpp:103] Top shape: 32 48 1 1 (1536)
I0511 17:13:30.242723  8357 net.cpp:103] Top shape: 32 48 1 1 (1536)
I0511 17:13:30.242728  8357 net.cpp:67] Creating Layer loss_1
I0511 17:13:30.242733  8357 net.cpp:394] loss_1 <- fc8_kevin_encode_fc8_kevin_encode_0_split_0
I0511 17:13:30.242739  8357 net.cpp:394] loss_1 <- fc8_kevin_encode_fc8_kevin_encode_0_split_1
I0511 17:13:30.242745  8357 net.cpp:356] loss_1 -> (automatic)
I0511 17:13:30.242750  8357 net.cpp:96] Setting up loss_1
I0511 17:13:30.242756  8357 net.cpp:103] Top shape: 1 1 1 1 (1)
I0511 17:13:30.242779  8357 net.cpp:109]     with loss weight 1
I0511 17:13:30.242791  8357 net.cpp:67] Creating Layer loss_2
I0511 17:13:30.242795  8357 net.cpp:394] loss_2 <- fc8_kevin_encode_fc8_kevin_encode_0_split_2
I0511 17:13:30.242800  8357 net.cpp:394] loss_2 <- fc8_kevin_encode_fc8_kevin_encode_0_split_3
I0511 17:13:30.242807  8357 net.cpp:356] loss_2 -> (automatic)
I0511 17:13:30.242812  8357 net.cpp:96] Setting up loss_2
I0511 17:13:30.242817  8357 net.cpp:103] Top shape: 1 1 1 1 (1)
I0511 17:13:30.242821  8357 net.cpp:109]     with loss weight 1
I0511 17:13:30.242830  8357 net.cpp:67] Creating Layer fc8_pascal
I0511 17:13:30.242833  8357 net.cpp:394] fc8_pascal <- fc8_kevin_encode_fc8_kevin_encode_0_split_4
I0511 17:13:30.242840  8357 net.cpp:356] fc8_pascal -> fc8_pascal
I0511 17:13:30.242846  8357 net.cpp:96] Setting up fc8_pascal
I0511 17:13:30.242868  8357 net.cpp:103] Top shape: 32 10 1 1 (320)
I0511 17:13:30.242880  8357 net.cpp:67] Creating Layer prob
I0511 17:13:30.242884  8357 net.cpp:394] prob <- fc8_pascal
I0511 17:13:30.242890  8357 net.cpp:356] prob -> prob
I0511 17:13:30.242897  8357 net.cpp:96] Setting up prob
I0511 17:13:30.242902  8357 net.cpp:103] Top shape: 32 10 1 1 (320)
I0511 17:13:30.242908  8357 net.cpp:67] Creating Layer accuracy
I0511 17:13:30.242912  8357 net.cpp:394] accuracy <- prob
I0511 17:13:30.242915  8357 net.cpp:394] accuracy <- label
I0511 17:13:30.242920  8357 net.cpp:356] accuracy -> accuracy
I0511 17:13:30.242931  8357 net.cpp:96] Setting up accuracy
I0511 17:13:30.242944  8357 net.cpp:103] Top shape: 1 1 1 1 (1)
I0511 17:13:30.242949  8357 net.cpp:172] accuracy does not need backward computation.
I0511 17:13:30.242952  8357 net.cpp:172] prob does not need backward computation.
I0511 17:13:30.242955  8357 net.cpp:172] fc8_pascal does not need backward computation.
I0511 17:13:30.242959  8357 net.cpp:170] loss_2 needs backward computation.
I0511 17:13:30.242964  8357 net.cpp:170] loss_1 needs backward computation.
…
