…
I0818 17:09:28.145364  4055 net.cpp:339] The NetState phase (0) differed from the phase (1) specified by a rule in layer accuracy
I0818 17:09:28.145551  4055 net.cpp:50] Initializing net from parameters: 
name: "VGG_ILSVRC_16_layers"
state {
  phase: TRAIN
}
layer {
  name: "data"
  type: "Data"
  top: "data"
  top: "label"
  include {
    phase: TRAIN
  }
  transform_param {
    mirror: true
    crop_size: 224
    mean_file: "../caffe/data/ilsvrc12/imagenet_mean.binaryproto"
  }
  data_param {
    source: "../data/cifar-10/train-test-split/train_leveldb"
    batch_size: 40
  }
}
layer {
  name: "conv1_1"
  type: "Convolution"
  bottom: "data"
  top: "conv1_1"
  param {
    lr_mult: 1
    decay_mult: 1
  }
  param {
    lr_mult: 2
    decay_mult: 0
  }
  convolution_param {
    num_output: 64
    pad: 1
    kernel_size: 3
  }
}
layer {
  name: "relu1_1"
  type: "ReLU"
  bottom: "conv1_1"
  top: "conv1_1"
}
layer {
  name: "conv1_2"
  type: "Convolution"
  bottom: "conv1_1"
  top: "conv1_2"
  param {
    lr_mult: 1
    decay_mult: 1
  }
  param {
    lr_mult: 2
    decay_mult: 0
  }
  convolution_param {
    num_output: 64
    pad: 1
    kernel_size: 3
  }
}
layer {
  name: "relu1_2"
  type: "ReLU"
  bottom: "conv1_2"
  top: "conv1_2"
}
layer {
  name: "pool1"
  type: "Pooling"
  bottom: "conv1_2"
  top: "pool1"
  pooling_param {
    pool: MAX
    kernel_size: 2
    stride: 2
  }
}
layer {
  name: "conv2_1"
  type: "Convolution"
  bottom: "pool1"
  top: "conv2_1"
  param {
    lr_mult: 1
    decay_mult: 1
  }
  param {
    lr_mult: 2
    decay_mult: 0
  }
  convolution_param {
    num_output: 128
    pad: 1
    kernel_size: 3
  }
}
layer {
  name: "relu2_1"
  type: "ReLU"
  bottom: "conv2_1"
  top: "conv2_1"
}
layer {
  name: "conv2_2"
  type: "Convolution"
  bottom: "conv2_1"
  top: "conv2_2"
  param {
    lr_mult: 1
    decay_mult: 1
  }
  param {
    lr_mult: 2
    decay_mult: 0
  }
  convolution_param {
    num_output: 128
    pad: 1
    kernel_size: 3
  }
}
layer {
  name: "relu2_2"
  type: "ReLU"
  bottom: "conv2_2"
  top: "conv2_2"
}
layer {
  name: "pool2"
  type: "Pooling"
  bottom: "conv2_2"
  top: "pool2"
  pooling_param {
    pool: MAX
    kernel_size: 2
    stride: 2
  }
}
layer {
  name: "conv3_1"
  type: "Convolution"
  bottom: "pool2"
  top: "conv3_1"
  param {
    lr_mult: 1
    decay_mult: 1
  }
  param {
    lr_mult: 2
    decay_mult: 0
  }
  convolution_param {
    num_output: 256
    pad: 1
    kernel_size: 3
  }
}
layer {
  name: "relu3_1"
  type: "ReLU"
  bottom: "conv3_1"
  top: "conv3_1"
}
layer {
  name: "conv3_2"
  type: "Convolution"
  bottom: "conv3_1"
  top: "conv3_2"
  param {
    lr_mult: 1
    decay_mult: 1
  }
  param {
    lr_mult: 2
    decay_mult: 0
  }
  convolution_param {
    num_output: 256
    pad: 1
    kernel_size: 3
  }
}
layer {
  name: "relu3_2"
  type: "ReLU"
  bottom: "conv3_2"
  top: "conv3_2"
}
layer {
  name: "conv3_3"
  type: "Convolution"
  bottom: "conv3_2"
  top: "conv3_3"
  param {
    lr_mult: 1
    decay_mult: 1
  }
  param {
    lr_mult: 2
    decay_mult: 0
  }
  convolution_param {
    num_output: 256
    pad: 1
    kernel_size: 3
  }
}
layer {
  name: "relu3_3"
  type: "ReLU"
  bottom: "conv3_3"
  top: "conv3_3"
}
layer {
  name: "pool3"
  type: "Pooling"
  bottom: "conv3_3"
  top: "pool3"
  pooling_param {
    pool: MAX
    kernel_size: 2
    stride: 2
  }
}
layer {
  name: "conv4_1"
  type: "Convolution"
  bottom: "pool3"
  top: "conv4_1"
  param {
    lr_mult: 1
    decay_mult: 1
  }
  param {
    lr_mult: 2
    decay_mult: 0
  }
  convolution_param {
    num_output: 512
    pad: 1
    kernel_size: 3
  }
}
layer {
  name: "relu4_1"
  type: "ReLU"
  bottom: "conv4_1"
  top: "conv4_1"
}
layer {
  name: "conv4_2"
  type: "Convolution"
  bottom: "conv4_1"
  top: "conv4_2"
  param {
    lr_mult: 1
    decay_mult: 1
  }
  param {
    lr_mult: 2
    decay_mult: 0
  }
  convolution_param {
    num_output: 512
    pad: 1
    kernel_size: 3
  }
}
layer {
  name: "relu4_2"
  type: "ReLU"
  bottom: "conv4_2"
  top: "conv4_2"
}
layer {
  name: "conv4_3"
  type: "Convolution"
  bottom: "conv4_2"
  top: "conv4_3"
  param {
    lr_mult: 1
    decay_mult: 1
  }
  param {
    lr_mult: 2
    decay_mult: 0
  }
  convolution_param {
    num_output: 512
    pad: 1
    kernel_size: 3
  }
}
layer {
  name: "relu4_3"
  type: "ReLU"
  bottom: "conv4_3"
  top: "conv4_3"
}
layer {
  name: "pool4"
  type: "Pooling"
  bottom: "conv4_3"
  top: "pool4"
  pooling_param {
    pool: MAX
    kernel_size: 2
    stride: 2
  }
}
layer {
  name: "conv5_1"
  type: "Convolution"
  bottom: "pool4"
  top: "conv5_1"
  param {
    lr_mult: 1
    decay_mult: 0
  }
  param {
    lr_mult: 2
    decay_mult: 0
  }
  convolution_param {
    num_output: 512
    pad: 1
    kernel_size: 3
  }
}
layer {
  name: "relu5_1"
  type: "ReLU"
  bottom: "conv5_1"
  top: "conv5_1"
}
layer {
  name: "conv5_2"
  type: "Convolution"
  bottom: "conv5_1"
  top: "conv5_2"
  param {
    lr_mult: 1
    decay_mult: 1
  }
  param {
    lr_mult: 2
    decay_mult: 0
  }
  convolution_param {
    num_output: 512
    pad: 1
    kernel_size: 3
  }
}
layer {
  name: "relu5_2"
  type: "ReLU"
  bottom: "conv5_2"
  top: "conv5_2"
}
layer {
  name: "conv5_3"
  type: "Convolution"
  bottom: "conv5_2"
  top: "conv5_3"
  param {
    lr_mult: 1
    decay_mult: 1
  }
  param {
    lr_mult: 2
    decay_mult: 0
  }
  convolution_param {
    num_output: 512
    pad: 1
    kernel_size: 3
  }
}
layer {
  name: "relu5_3"
  type: "ReLU"
  bottom: "conv5_3"
  top: "conv5_3"
}
layer {
  name: "pool5"
  type: "Pooling"
  bottom: "conv5_3"
  top: "pool5"
  pooling_param {
    pool: AVE
    kernel_size: 14
    stride: 1
  }
}
layer {
  name: "latent_layer"
  type: "InnerProduct"
  bottom: "pool5"
  top: "latent_layer"
  param {
    lr_mult: 1
    decay_mult: 1
  }
  param {
    lr_mult: 2
    decay_mult: 0
  }
  inner_product_param {
    num_output: 48
    weight_filler {
      type: "gaussian"
      std: 0.005
    }
    bias_filler {
      type: "constant"
      value: 1
    }
  }
}
layer {
  name: "encode_neuron"
  type: "Sigmoid"
  bottom: "latent_layer"
  top: "encode_neuron"
}
layer {
  name: "loss_beta"
  type: "K1_EuclideanLoss"
  bottom: "encode_neuron"
  bottom: "encode_neuron"
  top: "loss: forcing-binary"
  loss_weight: 1
  propagate_down: true
  propagate_down: false
}
layer {
  name: "encode_neuron_reshape"
  type: "Reshape"
  bottom: "encode_neuron"
  top: "encode_neuron_reshape"
  reshape_param {
    shape {
      dim: 0
      dim: 1
      dim: 1
      dim: -1
    }
  }
}
layer {
  name: "encode_neuron_avg"
  type: "Pooling"
  bottom: "encode_neuron_reshape"
  top: "encode_neuron_avg"
  pooling_param {
    pool: AVE
    kernel_h: 1
    kernel_w: 48
  }
}
layer {
  name: "loss_gamma"
  type: "K2_EuclideanLoss"
  bottom: "encode_neuron_avg"
  bottom: "encode_neuron_avg"
  top: "loss: 50%-fire-rate"
  loss_weight: 1
  propagate_down: true
  propagate_down: false
}
layer {
  name: "fc8_classification"
  type: "InnerProduct"
  bottom: "encode_neuron"
  top: "fc8_classification"
  param {
    lr_mult: 10
    decay_mult: 1
  }
  param {
    lr_mult: 20
    decay_mult: 0
  }
  inner_product_param {
    num_output: 10
    weight_filler {
      type: "gaussian"
      std: 0.01
    }
    bias_filler {
      type: "constant"
      value: 0
    }
  }
}
layer {
  name: "loss_alpha"
  type: "SoftmaxWithLoss"
  bottom: "fc8_classification"
  bottom: "label"
  top: "loss: classfication-error"
  loss_weight: 1
}
I0818 17:09:28.145732  4055 layer_factory.hpp:76] Creating layer data
I0818 17:09:28.148830  4055 net.cpp:110] Creating Layer data
I0818 17:09:28.148844  4055 net.cpp:433] data -> data
I0818 17:09:28.148870  4055 net.cpp:433] data -> label
I0818 17:09:28.148890  4055 data_transformer.cpp:23] Loading mean file from: ../caffe/data/ilsvrc12/imagenet_mean.binaryproto
I0818 17:09:28.247511  4067 db_leveldb.cpp:17] Opened leveldb ../data/cifar-10/train-test-split/train_leveldb
I0818 17:09:28.252393  4055 data_layer.cpp:44] output data size: 40,3,224,224
I0818 17:09:28.292876  4055 net.cpp:155] Setting up data
I0818 17:09:28.292920  4055 net.cpp:163] Top shape: 40 3 224 224 (6021120)
I0818 17:09:28.292932  4055 net.cpp:163] Top shape: 40 (40)
I0818 17:09:28.292948  4055 layer_factory.hpp:76] Creating layer conv1_1
I0818 17:09:28.292975  4055 net.cpp:110] Creating Layer conv1_1
I0818 17:09:28.292999  4055 net.cpp:477] conv1_1 <- data
I0818 17:09:28.293027  4055 net.cpp:433] conv1_1 -> conv1_1
I0818 17:09:28.294033  4055 net.cpp:155] Setting up conv1_1
I0818 17:09:28.294052  4055 net.cpp:163] Top shape: 40 64 224 224 (128450560)
I0818 17:09:28.294077  4055 layer_factory.hpp:76] Creating layer relu1_1
I0818 17:09:28.294113  4055 net.cpp:110] Creating Layer relu1_1
I0818 17:09:28.294131  4055 net.cpp:477] relu1_1 <- conv1_1
I0818 17:09:28.294148  4055 net.cpp:419] relu1_1 -> conv1_1 (in-place)
I0818 17:09:28.294175  4055 net.cpp:155] Setting up relu1_1
I0818 17:09:28.294194  4055 net.cpp:163] Top shape: 40 64 224 224 (128450560)
I0818 17:09:28.294208  4055 layer_factory.hpp:76] Creating layer conv1_2
I0818 17:09:28.294227  4055 net.cpp:110] Creating Layer conv1_2
I0818 17:09:28.294241  4055 net.cpp:477] conv1_2 <- conv1_1
I0818 17:09:28.294258  4055 net.cpp:433] conv1_2 -> conv1_2
I0818 17:09:28.296248  4055 net.cpp:155] Setting up conv1_2
I0818 17:09:28.296277  4055 net.cpp:163] Top shape: 40 64 224 224 (128450560)
I0818 17:09:28.296296  4055 layer_factory.hpp:76] Creating layer relu1_2
I0818 17:09:28.296315  4055 net.cpp:110] Creating Layer relu1_2
I0818 17:09:28.296329  4055 net.cpp:477] relu1_2 <- conv1_2
I0818 17:09:28.296345  4055 net.cpp:419] relu1_2 -> conv1_2 (in-place)
I0818 17:09:28.296367  4055 net.cpp:155] Setting up relu1_2
I0818 17:09:28.296386  4055 net.cpp:163] Top shape: 40 64 224 224 (128450560)
I0818 17:09:28.296401  4055 layer_factory.hpp:76] Creating layer pool1
I0818 17:09:28.296421  4055 net.cpp:110] Creating Layer pool1
I0818 17:09:28.296434  4055 net.cpp:477] pool1 <- conv1_2
I0818 17:09:28.296454  4055 net.cpp:433] pool1 -> pool1
I0818 17:09:28.296495  4055 net.cpp:155] Setting up pool1
I0818 17:09:28.296516  4055 net.cpp:163] Top shape: 40 64 112 112 (32112640)
I0818 17:09:28.296532  4055 layer_factory.hpp:76] Creating layer conv2_1
I0818 17:09:28.296552  4055 net.cpp:110] Creating Layer conv2_1
I0818 17:09:28.296567  4055 net.cpp:477] conv2_1 <- pool1
I0818 17:09:28.296587  4055 net.cpp:433] conv2_1 -> conv2_1
I0818 17:09:28.297657  4055 net.cpp:155] Setting up conv2_1
I0818 17:09:28.297677  4055 net.cpp:163] Top shape: 40 128 112 112 (64225280)
I0818 17:09:28.297696  4055 layer_factory.hpp:76] Creating layer relu2_1
I0818 17:09:28.297713  4055 net.cpp:110] Creating Layer relu2_1
I0818 17:09:28.297729  4055 net.cpp:477] relu2_1 <- conv2_1
I0818 17:09:28.297746  4055 net.cpp:419] relu2_1 -> conv2_1 (in-place)
I0818 17:09:28.297766  4055 net.cpp:155] Setting up relu2_1
I0818 17:09:28.297783  4055 net.cpp:163] Top shape: 40 128 112 112 (64225280)
I0818 17:09:28.297798  4055 layer_factory.hpp:76] Creating layer conv2_2
I0818 17:09:28.297818  4055 net.cpp:110] Creating Layer conv2_2
I0818 17:09:28.297832  4055 net.cpp:477] conv2_2 <- conv2_1
I0818 17:09:28.297852  4055 net.cpp:433] conv2_2 -> conv2_2
I0818 17:09:28.298030  4055 net.cpp:155] Setting up conv2_2
I0818 17:09:28.298046  4055 net.cpp:163] Top shape: 40 128 112 112 (64225280)
I0818 17:09:28.298060  4055 layer_factory.hpp:76] Creating layer relu2_2
I0818 17:09:28.298075  4055 net.cpp:110] Creating Layer relu2_2
I0818 17:09:28.298113  4055 net.cpp:477] relu2_2 <- conv2_2
I0818 17:09:28.298130  4055 net.cpp:419] relu2_2 -> conv2_2 (in-place)
I0818 17:09:28.298151  4055 net.cpp:155] Setting up relu2_2
I0818 17:09:28.298167  4055 net.cpp:163] Top shape: 40 128 112 112 (64225280)
I0818 17:09:28.298182  4055 layer_factory.hpp:76] Creating layer pool2
I0818 17:09:28.298199  4055 net.cpp:110] Creating Layer pool2
I0818 17:09:28.298213  4055 net.cpp:477] pool2 <- conv2_2
I0818 17:09:28.298230  4055 net.cpp:433] pool2 -> pool2
I0818 17:09:28.298254  4055 net.cpp:155] Setting up pool2
I0818 17:09:28.298271  4055 net.cpp:163] Top shape: 40 128 56 56 (16056320)
I0818 17:09:28.298285  4055 layer_factory.hpp:76] Creating layer conv3_1
I0818 17:09:28.298303  4055 net.cpp:110] Creating Layer conv3_1
I0818 17:09:28.298317  4055 net.cpp:477] conv3_1 <- pool2
I0818 17:09:28.298327  4055 net.cpp:433] conv3_1 -> conv3_1
I0818 17:09:28.299072  4055 net.cpp:155] Setting up conv3_1
I0818 17:09:28.299091  4055 net.cpp:163] Top shape: 40 256 56 56 (32112640)
I0818 17:09:28.299105  4055 layer_factory.hpp:76] Creating layer relu3_1
I0818 17:09:28.299115  4055 net.cpp:110] Creating Layer relu3_1
I0818 17:09:28.299121  4055 net.cpp:477] relu3_1 <- conv3_1
I0818 17:09:28.299130  4055 net.cpp:419] relu3_1 -> conv3_1 (in-place)
I0818 17:09:28.299140  4055 net.cpp:155] Setting up relu3_1
I0818 17:09:28.299147  4055 net.cpp:163] Top shape: 40 256 56 56 (32112640)
I0818 17:09:28.299154  4055 layer_factory.hpp:76] Creating layer conv3_2
I0818 17:09:28.299162  4055 net.cpp:110] Creating Layer conv3_2
I0818 17:09:28.299167  4055 net.cpp:477] conv3_2 <- conv3_1
I0818 17:09:28.299175  4055 net.cpp:433] conv3_2 -> conv3_2
I0818 17:09:28.300397  4055 net.cpp:155] Setting up conv3_2
I0818 17:09:28.300420  4055 net.cpp:163] Top shape: 40 256 56 56 (32112640)
I0818 17:09:28.300431  4055 layer_factory.hpp:76] Creating layer relu3_2
I0818 17:09:28.300441  4055 net.cpp:110] Creating Layer relu3_2
I0818 17:09:28.300447  4055 net.cpp:477] relu3_2 <- conv3_2
I0818 17:09:28.300457  4055 net.cpp:419] relu3_2 -> conv3_2 (in-place)
I0818 17:09:28.300467  4055 net.cpp:155] Setting up relu3_2
I0818 17:09:28.300474  4055 net.cpp:163] Top shape: 40 256 56 56 (32112640)
I0818 17:09:28.300480  4055 layer_factory.hpp:76] Creating layer conv3_3
I0818 17:09:28.300489  4055 net.cpp:110] Creating Layer conv3_3
I0818 17:09:28.300495  4055 net.cpp:477] conv3_3 <- conv3_2
I0818 17:09:28.300503  4055 net.cpp:433] conv3_3 -> conv3_3
I0818 17:09:28.301746  4055 net.cpp:155] Setting up conv3_3
I0818 17:09:28.301769  4055 net.cpp:163] Top shape: 40 256 56 56 (32112640)
I0818 17:09:28.301781  4055 layer_factory.hpp:76] Creating layer relu3_3
I0818 17:09:28.301795  4055 net.cpp:110] Creating Layer relu3_3
I0818 17:09:28.301801  4055 net.cpp:477] relu3_3 <- conv3_3
I0818 17:09:28.301810  4055 net.cpp:419] relu3_3 -> conv3_3 (in-place)
I0818 17:09:28.301820  4055 net.cpp:155] Setting up relu3_3
I0818 17:09:28.301827  4055 net.cpp:163] Top shape: 40 256 56 56 (32112640)
I0818 17:09:28.301833  4055 layer_factory.hpp:76] Creating layer pool3
I0818 17:09:28.301843  4055 net.cpp:110] Creating Layer pool3
I0818 17:09:28.301848  4055 net.cpp:477] pool3 <- conv3_3
I0818 17:09:28.301856  4055 net.cpp:433] pool3 -> pool3
I0818 17:09:28.301870  4055 net.cpp:155] Setting up pool3
I0818 17:09:28.301878  4055 net.cpp:163] Top shape: 40 256 28 28 (8028160)
I0818 17:09:28.301884  4055 layer_factory.hpp:76] Creating layer conv4_1
I0818 17:09:28.301893  4055 net.cpp:110] Creating Layer conv4_1
I0818 17:09:28.301899  4055 net.cpp:477] conv4_1 <- pool3
I0818 17:09:28.301908  4055 net.cpp:433] conv4_1 -> conv4_1
I0818 17:09:28.304782  4055 net.cpp:155] Setting up conv4_1
I0818 17:09:28.304817  4055 net.cpp:163] Top shape: 40 512 28 28 (16056320)
I0818 17:09:28.304831  4055 layer_factory.hpp:76] Creating layer relu4_1
I0818 17:09:28.304846  4055 net.cpp:110] Creating Layer relu4_1
I0818 17:09:28.304853  4055 net.cpp:477] relu4_1 <- conv4_1
I0818 17:09:28.304863  4055 net.cpp:419] relu4_1 -> conv4_1 (in-place)
I0818 17:09:28.304903  4055 net.cpp:155] Setting up relu4_1
I0818 17:09:28.304911  4055 net.cpp:163] Top shape: 40 512 28 28 (16056320)
I0818 17:09:28.304919  4055 layer_factory.hpp:76] Creating layer conv4_2
I0818 17:09:28.304929  4055 net.cpp:110] Creating Layer conv4_2
I0818 17:09:28.304934  4055 net.cpp:477] conv4_2 <- conv4_1
I0818 17:09:28.304944  4055 net.cpp:433] conv4_2 -> conv4_2
I0818 17:09:28.309662  4055 net.cpp:155] Setting up conv4_2
I0818 17:09:28.309694  4055 net.cpp:163] Top shape: 40 512 28 28 (16056320)
I0818 17:09:28.309713  4055 layer_factory.hpp:76] Creating layer relu4_2
I0818 17:09:28.309731  4055 net.cpp:110] Creating Layer relu4_2
I0818 17:09:28.309741  4055 net.cpp:477] relu4_2 <- conv4_2
I0818 17:09:28.309753  4055 net.cpp:419] relu4_2 -> conv4_2 (in-place)
I0818 17:09:28.309775  4055 net.cpp:155] Setting up relu4_2
I0818 17:09:28.309788  4055 net.cpp:163] Top shape: 40 512 28 28 (16056320)
I0818 17:09:28.309799  4055 layer_factory.hpp:76] Creating layer conv4_3
I0818 17:09:28.309815  4055 net.cpp:110] Creating Layer conv4_3
I0818 17:09:28.309825  4055 net.cpp:477] conv4_3 <- conv4_2
I0818 17:09:28.309839  4055 net.cpp:433] conv4_3 -> conv4_3
I0818 17:09:28.313920  4055 net.cpp:155] Setting up conv4_3
I0818 17:09:28.313956  4055 net.cpp:163] Top shape: 40 512 28 28 (16056320)
I0818 17:09:28.313967  4055 layer_factory.hpp:76] Creating layer relu4_3
I0818 17:09:28.313980  4055 net.cpp:110] Creating Layer relu4_3
I0818 17:09:28.313989  4055 net.cpp:477] relu4_3 <- conv4_3
I0818 17:09:28.314002  4055 net.cpp:419] relu4_3 -> conv4_3 (in-place)
I0818 17:09:28.314016  4055 net.cpp:155] Setting up relu4_3
I0818 17:09:28.314025  4055 net.cpp:163] Top shape: 40 512 28 28 (16056320)
I0818 17:09:28.314033  4055 layer_factory.hpp:76] Creating layer pool4
I0818 17:09:28.314045  4055 net.cpp:110] Creating Layer pool4
I0818 17:09:28.314056  4055 net.cpp:477] pool4 <- conv4_3
I0818 17:09:28.314069  4055 net.cpp:433] pool4 -> pool4
I0818 17:09:28.314088  4055 net.cpp:155] Setting up pool4
I0818 17:09:28.314101  4055 net.cpp:163] Top shape: 40 512 14 14 (4014080)
I0818 17:09:28.314111  4055 layer_factory.hpp:76] Creating layer conv5_1
I0818 17:09:28.314124  4055 net.cpp:110] Creating Layer conv5_1
I0818 17:09:28.314136  4055 net.cpp:477] conv5_1 <- pool4
I0818 17:09:28.314149  4055 net.cpp:433] conv5_1 -> conv5_1
I0818 17:09:28.318264  4055 net.cpp:155] Setting up conv5_1
I0818 17:09:28.318300  4055 net.cpp:163] Top shape: 40 512 14 14 (4014080)
I0818 17:09:28.318311  4055 layer_factory.hpp:76] Creating layer relu5_1
I0818 17:09:28.318327  4055 net.cpp:110] Creating Layer relu5_1
I0818 17:09:28.318339  4055 net.cpp:477] relu5_1 <- conv5_1
I0818 17:09:28.318351  4055 net.cpp:419] relu5_1 -> conv5_1 (in-place)
I0818 17:09:28.318367  4055 net.cpp:155] Setting up relu5_1
I0818 17:09:28.318378  4055 net.cpp:163] Top shape: 40 512 14 14 (4014080)
I0818 17:09:28.318389  4055 layer_factory.hpp:76] Creating layer conv5_2
I0818 17:09:28.318405  4055 net.cpp:110] Creating Layer conv5_2
I0818 17:09:28.318416  4055 net.cpp:477] conv5_2 <- conv5_1
I0818 17:09:28.318428  4055 net.cpp:433] conv5_2 -> conv5_2
I0818 17:09:28.322715  4055 net.cpp:155] Setting up conv5_2
I0818 17:09:28.322746  4055 net.cpp:163] Top shape: 40 512 14 14 (4014080)
I0818 17:09:28.322758  4055 layer_factory.hpp:76] Creating layer relu5_2
I0818 17:09:28.322773  4055 net.cpp:110] Creating Layer relu5_2
I0818 17:09:28.322783  4055 net.cpp:477] relu5_2 <- conv5_2
I0818 17:09:28.322795  4055 net.cpp:419] relu5_2 -> conv5_2 (in-place)
I0818 17:09:28.322811  4055 net.cpp:155] Setting up relu5_2
I0818 17:09:28.322825  4055 net.cpp:163] Top shape: 40 512 14 14 (4014080)
I0818 17:09:28.322835  4055 layer_factory.hpp:76] Creating layer conv5_3
I0818 17:09:28.322851  4055 net.cpp:110] Creating Layer conv5_3
I0818 17:09:28.322862  4055 net.cpp:477] conv5_3 <- conv5_2
I0818 17:09:28.322875  4055 net.cpp:433] conv5_3 -> conv5_3
I0818 17:09:28.327034  4055 net.cpp:155] Setting up conv5_3
I0818 17:09:28.327069  4055 net.cpp:163] Top shape: 40 512 14 14 (4014080)
I0818 17:09:28.327122  4055 layer_factory.hpp:76] Creating layer relu5_3
I0818 17:09:28.327139  4055 net.cpp:110] Creating Layer relu5_3
I0818 17:09:28.327150  4055 net.cpp:477] relu5_3 <- conv5_3
I0818 17:09:28.327167  4055 net.cpp:419] relu5_3 -> conv5_3 (in-place)
I0818 17:09:28.327184  4055 net.cpp:155] Setting up relu5_3
I0818 17:09:28.327198  4055 net.cpp:163] Top shape: 40 512 14 14 (4014080)
I0818 17:09:28.327206  4055 layer_factory.hpp:76] Creating layer pool5
I0818 17:09:28.327219  4055 net.cpp:110] Creating Layer pool5
I0818 17:09:28.327229  4055 net.cpp:477] pool5 <- conv5_3
I0818 17:09:28.327242  4055 net.cpp:433] pool5 -> pool5
I0818 17:09:28.327256  4055 net.cpp:155] Setting up pool5
I0818 17:09:28.327263  4055 net.cpp:163] Top shape: 40 512 1 1 (20480)
I0818 17:09:28.327268  4055 layer_factory.hpp:76] Creating layer latent_layer
I0818 17:09:28.327289  4055 net.cpp:110] Creating Layer latent_layer
I0818 17:09:28.327296  4055 net.cpp:477] latent_layer <- pool5
I0818 17:09:28.327302  4055 net.cpp:433] latent_layer -> latent_layer
I0818 17:09:28.328047  4055 net.cpp:155] Setting up latent_layer
I0818 17:09:28.328060  4055 net.cpp:163] Top shape: 40 48 (1920)
I0818 17:09:28.328069  4055 layer_factory.hpp:76] Creating layer encode_neuron
I0818 17:09:28.328078  4055 net.cpp:110] Creating Layer encode_neuron
I0818 17:09:28.328088  4055 net.cpp:477] encode_neuron <- latent_layer
I0818 17:09:28.328099  4055 net.cpp:433] encode_neuron -> encode_neuron
I0818 17:09:28.328114  4055 net.cpp:155] Setting up encode_neuron
I0818 17:09:28.328122  4055 net.cpp:163] Top shape: 40 48 (1920)
I0818 17:09:28.328127  4055 layer_factory.hpp:76] Creating layer encode_neuron_encode_neuron_0_split
I0818 17:09:28.328135  4055 net.cpp:110] Creating Layer encode_neuron_encode_neuron_0_split
I0818 17:09:28.328138  4055 net.cpp:477] encode_neuron_encode_neuron_0_split <- encode_neuron
I0818 17:09:28.328145  4055 net.cpp:433] encode_neuron_encode_neuron_0_split -> encode_neuron_encode_neuron_0_split_0
I0818 17:09:28.328152  4055 net.cpp:433] encode_neuron_encode_neuron_0_split -> encode_neuron_encode_neuron_0_split_1
I0818 17:09:28.328160  4055 net.cpp:433] encode_neuron_encode_neuron_0_split -> encode_neuron_encode_neuron_0_split_2
I0818 17:09:28.328166  4055 net.cpp:433] encode_neuron_encode_neuron_0_split -> encode_neuron_encode_neuron_0_split_3
I0818 17:09:28.328174  4055 net.cpp:155] Setting up encode_neuron_encode_neuron_0_split
I0818 17:09:28.328179  4055 net.cpp:163] Top shape: 40 48 (1920)
I0818 17:09:28.328184  4055 net.cpp:163] Top shape: 40 48 (1920)
I0818 17:09:28.328189  4055 net.cpp:163] Top shape: 40 48 (1920)
I0818 17:09:28.328193  4055 net.cpp:163] Top shape: 40 48 (1920)
I0818 17:09:28.328198  4055 layer_factory.hpp:76] Creating layer loss_beta
I0818 17:09:28.328204  4055 net.cpp:110] Creating Layer loss_beta
I0818 17:09:28.328209  4055 net.cpp:477] loss_beta <- encode_neuron_encode_neuron_0_split_0
I0818 17:09:28.328214  4055 net.cpp:477] loss_beta <- encode_neuron_encode_neuron_0_split_1
I0818 17:09:28.328220  4055 net.cpp:433] loss_beta -> loss: forcing-binary
I0818 17:09:28.328253  4055 net.cpp:155] Setting up loss_beta
I0818 17:09:28.328263  4055 net.cpp:163] Top shape: (1)
I0818 17:09:28.328266  4055 net.cpp:168]     with loss weight 1
I0818 17:09:28.328280  4055 layer_factory.hpp:76] Creating layer encode_neuron_reshape
I0818 17:09:28.328289  4055 net.cpp:110] Creating Layer encode_neuron_reshape
I0818 17:09:28.328294  4055 net.cpp:477] encode_neuron_reshape <- encode_neuron_encode_neuron_0_split_2
I0818 17:09:28.328300  4055 net.cpp:433] encode_neuron_reshape -> encode_neuron_reshape
I0818 17:09:28.328320  4055 net.cpp:155] Setting up encode_neuron_reshape
I0818 17:09:28.328328  4055 net.cpp:163] Top shape: 40 1 1 48 (1920)
I0818 17:09:28.328333  4055 layer_factory.hpp:76] Creating layer encode_neuron_avg
I0818 17:09:28.328339  4055 net.cpp:110] Creating Layer encode_neuron_avg
I0818 17:09:28.328343  4055 net.cpp:477] encode_neuron_avg <- encode_neuron_reshape
I0818 17:09:28.328349  4055 net.cpp:433] encode_neuron_avg -> encode_neuron_avg
I0818 17:09:28.328371  4055 net.cpp:155] Setting up encode_neuron_avg
I0818 17:09:28.328378  4055 net.cpp:163] Top shape: 40 1 1 1 (40)
I0818 17:09:28.328382  4055 layer_factory.hpp:76] Creating layer encode_neuron_avg_encode_neuron_avg_0_split
I0818 17:09:28.328409  4055 net.cpp:110] Creating Layer encode_neuron_avg_encode_neuron_avg_0_split
I0818 17:09:28.328414  4055 net.cpp:477] encode_neuron_avg_encode_neuron_avg_0_split <- encode_neuron_avg
I0818 17:09:28.328424  4055 net.cpp:433] encode_neuron_avg_encode_neuron_avg_0_split -> encode_neuron_avg_encode_neuron_avg_0_split_0
I0818 17:09:28.328439  4055 net.cpp:433] encode_neuron_avg_encode_neuron_avg_0_split -> encode_neuron_avg_encode_neuron_avg_0_split_1
I0818 17:09:28.328454  4055 net.cpp:155] Setting up encode_neuron_avg_encode_neuron_avg_0_split
I0818 17:09:28.328464  4055 net.cpp:163] Top shape: 40 1 1 1 (40)
I0818 17:09:28.328470  4055 net.cpp:163] Top shape: 40 1 1 1 (40)
I0818 17:09:28.328474  4055 layer_factory.hpp:76] Creating layer loss_gamma
I0818 17:09:28.328485  4055 net.cpp:110] Creating Layer loss_gamma
I0818 17:09:28.328495  4055 net.cpp:477] loss_gamma <- encode_neuron_avg_encode_neuron_avg_0_split_0
I0818 17:09:28.328506  4055 net.cpp:477] loss_gamma <- encode_neuron_avg_encode_neuron_avg_0_split_1
I0818 17:09:28.328517  4055 net.cpp:433] loss_gamma -> loss: 50%-fire-rate
I0818 17:09:28.328542  4055 net.cpp:155] Setting up loss_gamma
I0818 17:09:28.328550  4055 net.cpp:163] Top shape: (1)
I0818 17:09:28.328554  4055 net.cpp:168]     with loss weight 1
I0818 17:09:28.328562  4055 layer_factory.hpp:76] Creating layer fc8_classification
I0818 17:09:28.328568  4055 net.cpp:110] Creating Layer fc8_classification
I0818 17:09:28.328573  4055 net.cpp:477] fc8_classification <- encode_neuron_encode_neuron_0_split_3
I0818 17:09:28.328580  4055 net.cpp:433] fc8_classification -> fc8_classification
I0818 17:09:28.328639  4055 net.cpp:155] Setting up fc8_classification
I0818 17:09:28.328647  4055 net.cpp:163] Top shape: 40 10 (400)
I0818 17:09:28.328655  4055 layer_factory.hpp:76] Creating layer loss_alpha
I0818 17:09:28.328662  4055 net.cpp:110] Creating Layer loss_alpha
I0818 17:09:28.328667  4055 net.cpp:477] loss_alpha <- fc8_classification
I0818 17:09:28.328672  4055 net.cpp:477] loss_alpha <- label
I0818 17:09:28.328678  4055 net.cpp:433] loss_alpha -> loss: classfication-error
I0818 17:09:28.328688  4055 layer_factory.hpp:76] Creating layer loss_alpha
…
I0818 17:09:28.329828  4055 net.cpp:339] The NetState phase (1) differed from the phase (0) specified by a rule in layer data
I0818 17:09:28.330035  4055 net.cpp:50] Initializing net from parameters: 
name: "VGG_ILSVRC_16_layers"
state {
  phase: TEST
}
layer {
  name: "data"
  type: "Data"
  top: "data"
  top: "label"
  include {
    phase: TEST
  }
  transform_param {
    mirror: false
    crop_size: 224
    mean_file: "../caffe/data/ilsvrc12/imagenet_mean.binaryproto"
  }
  data_param {
    source: "../data/cifar-10/train-test-split/test_leveldb"
    batch_size: 50
  }
}
layer {
  name: "conv1_1"
  type: "Convolution"
  bottom: "data"
  top: "conv1_1"
  param {
    lr_mult: 1
    decay_mult: 1
  }
  param {
    lr_mult: 2
    decay_mult: 0
  }
  convolution_param {
    num_output: 64
    pad: 1
    kernel_size: 3
  }
}
layer {
  name: "relu1_1"
  type: "ReLU"
  bottom: "conv1_1"
  top: "conv1_1"
}
layer {
  name: "conv1_2"
  type: "Convolution"
  bottom: "conv1_1"
  top: "conv1_2"
  param {
    lr_mult: 1
    decay_mult: 1
  }
  param {
    lr_mult: 2
    decay_mult: 0
  }
  convolution_param {
    num_output: 64
    pad: 1
    kernel_size: 3
  }
}
layer {
  name: "relu1_2"
  type: "ReLU"
  bottom: "conv1_2"
  top: "conv1_2"
}
layer {
  name: "pool1"
  type: "Pooling"
  bottom: "conv1_2"
  top: "pool1"
  pooling_param {
    pool: MAX
    kernel_size: 2
    stride: 2
  }
}
layer {
  name: "conv2_1"
  type: "Convolution"
  bottom: "pool1"
  top: "conv2_1"
  param {
    lr_mult: 1
    decay_mult: 1
  }
  param {
    lr_mult: 2
    decay_mult: 0
  }
  convolution_param {
    num_output: 128
    pad: 1
    kernel_size: 3
  }
}
layer {
  name: "relu2_1"
  type: "ReLU"
  bottom: "conv2_1"
  top: "conv2_1"
}
layer {
  name: "conv2_2"
  type: "Convolution"
  bottom: "conv2_1"
  top: "conv2_2"
  param {
    lr_mult: 1
    decay_mult: 1
  }
  param {
    lr_mult: 2
    decay_mult: 0
  }
  convolution_param {
    num_output: 128
    pad: 1
    kernel_size: 3
  }
}
layer {
  name: "relu2_2"
  type: "ReLU"
  bottom: "conv2_2"
  top: "conv2_2"
}
layer {
  name: "pool2"
  type: "Pooling"
  bottom: "conv2_2"
  top: "pool2"
  pooling_param {
    pool: MAX
    kernel_size: 2
    stride: 2
  }
}
layer {
  name: "conv3_1"
  type: "Convolution"
  bottom: "pool2"
  top: "conv3_1"
  param {
    lr_mult: 1
    decay_mult: 1
  }
  param {
    lr_mult: 2
    decay_mult: 0
  }
  convolution_param {
    num_output: 256
    pad: 1
    kernel_size: 3
  }
}
layer {
  name: "relu3_1"
  type: "ReLU"
  bottom: "conv3_1"
  top: "conv3_1"
}
layer {
  name: "conv3_2"
  type: "Convolution"
  bottom: "conv3_1"
  top: "conv3_2"
  param {
    lr_mult: 1
    decay_mult: 1
  }
  param {
    lr_mult: 2
    decay_mult: 0
  }
  convolution_param {
    num_output: 256
    pad: 1
    kernel_size: 3
  }
}
layer {
  name: "relu3_2"
  type: "ReLU"
  bottom: "conv3_2"
  top: "conv3_2"
}
layer {
  name: "conv3_3"
  type: "Convolution"
  bottom: "conv3_2"
  top: "conv3_3"
  param {
    lr_mult: 1
    decay_mult: 1
  }
  param {
    lr_mult: 2
    decay_mult: 0
  }
  convolution_param {
    num_output: 256
    pad: 1
    kernel_size: 3
  }
}
layer {
  name: "relu3_3"
  type: "ReLU"
  bottom: "conv3_3"
  top: "conv3_3"
}
layer {
  name: "pool3"
  type: "Pooling"
  bottom: "conv3_3"
  top: "pool3"
  pooling_param {
    pool: MAX
    kernel_size: 2
    stride: 2
  }
}
layer {
  name: "conv4_1"
  type: "Convolution"
  bottom: "pool3"
  top: "conv4_1"
  param {
    lr_mult: 1
    decay_mult: 1
  }
  param {
    lr_mult: 2
    decay_mult: 0
  }
  convolution_param {
    num_output: 512
    pad: 1
    kernel_size: 3
  }
}
layer {
  name: "relu4_1"
  type: "ReLU"
  bottom: "conv4_1"
  top: "conv4_1"
}
layer {
  name: "conv4_2"
  type: "Convolution"
  bottom: "conv4_1"
  top: "conv4_2"
  param {
    lr_mult: 1
    decay_mult: 1
  }
  param {
    lr_mult: 2
    decay_mult: 0
  }
  convolution_param {
    num_output: 512
    pad: 1
    kernel_size: 3
  }
}
layer {
  name: "relu4_2"
  type: "ReLU"
  bottom: "conv4_2"
  top: "conv4_2"
}
layer {
  name: "conv4_3"
  type: "Convolution"
  bottom: "conv4_2"
  top: "conv4_3"
  param {
    lr_mult: 1
    decay_mult: 1
  }
  param {
    lr_mult: 2
    decay_mult: 0
  }
  convolution_param {
    num_output: 512
    pad: 1
    kernel_size: 3
  }
}
layer {
  name: "relu4_3"
  type: "ReLU"
  bottom: "conv4_3"
  top: "conv4_3"
}
layer {
  name: "pool4"
  type: "Pooling"
  bottom: "conv4_3"
  top: "pool4"
  pooling_param {
    pool: MAX
    kernel_size: 2
    stride: 2
  }
}
layer {
  name: "conv5_1"
  type: "Convolution"
  bottom: "pool4"
  top: "conv5_1"
  param {
    lr_mult: 1
    decay_mult: 0
  }
  param {
    lr_mult: 2
    decay_mult: 0
  }
  convolution_param {
    num_output: 512
    pad: 1
    kernel_size: 3
  }
}
layer {
  name: "relu5_1"
  type: "ReLU"
  bottom: "conv5_1"
  top: "conv5_1"
}
layer {
  name: "conv5_2"
  type: "Convolution"
  bottom: "conv5_1"
  top: "conv5_2"
  param {
    lr_mult: 1
    decay_mult: 1
  }
  param {
    lr_mult: 2
    decay_mult: 0
  }
  convolution_param {
    num_output: 512
    pad: 1
    kernel_size: 3
  }
}
layer {
  name: "relu5_2"
  type: "ReLU"
  bottom: "conv5_2"
  top: "conv5_2"
}
layer {
  name: "conv5_3"
  type: "Convolution"
  bottom: "conv5_2"
  top: "conv5_3"
  param {
    lr_mult: 1
    decay_mult: 1
  }
  param {
    lr_mult: 2
    decay_mult: 0
  }
  convolution_param {
    num_output: 512
    pad: 1
    kernel_size: 3
  }
}
layer {
  name: "relu5_3"
  type: "ReLU"
  bottom: "conv5_3"
  top: "conv5_3"
}
layer {
  name: "pool5"
  type: "Pooling"
  bottom: "conv5_3"
  top: "pool5"
  pooling_param {
    pool: AVE
    kernel_size: 14
    stride: 1
  }
}
layer {
  name: "latent_layer"
  type: "InnerProduct"
  bottom: "pool5"
  top: "latent_layer"
  param {
    lr_mult: 1
    decay_mult: 1
  }
  param {
    lr_mult: 2
    decay_mult: 0
  }
  inner_product_param {
    num_output: 48
    weight_filler {
      type: "gaussian"
      std: 0.005
    }
    bias_filler {
      type: "constant"
      value: 1
    }
  }
}
layer {
  name: "encode_neuron"
  type: "Sigmoid"
  bottom: "latent_layer"
  top: "encode_neuron"
}
layer {
  name: "loss_beta"
  type: "K1_EuclideanLoss"
  bottom: "encode_neuron"
  bottom: "encode_neuron"
  top: "loss: forcing-binary"
  loss_weight: 1
  propagate_down: true
  propagate_down: false
}
layer {
  name: "encode_neuron_reshape"
  type: "Reshape"
  bottom: "encode_neuron"
  top: "encode_neuron_reshape"
  reshape_param {
    shape {
      dim: 0
      dim: 1
      dim: 1
      dim: -1
    }
  }
}
layer {
  name: "encode_neuron_avg"
  type: "Pooling"
  bottom: "encode_neuron_reshape"
  top: "encode_neuron_avg"
  pooling_param {
    pool: AVE
    kernel_h: 1
    kernel_w: 48
  }
}
layer {
  name: "loss_gamma"
  type: "K2_EuclideanLoss"
  bottom: "encode_neuron_avg"
  bottom: "encode_neuron_avg"
  top: "loss: 50%-fire-rate"
  loss_weight: 1
  propagate_down: true
  propagate_down: false
}
layer {
  name: "fc8_classification"
  type: "InnerProduct"
  bottom: "encode_neuron"
  top: "fc8_classification"
  param {
    lr_mult: 10
    decay_mult: 1
  }
  param {
    lr_mult: 20
    decay_mult: 0
  }
  inner_product_param {
    num_output: 10
    weight_filler {
      type: "gaussian"
      std: 0.01
    }
    bias_filler {
      type: "constant"
      value: 0
    }
  }
}
layer {
  name: "loss_alpha"
  type: "SoftmaxWithLoss"
  bottom: "fc8_classification"
  bottom: "label"
  top: "loss: classfication-error"
  loss_weight: 1
}
layer {
  name: "accuracy"
  type: "Accuracy"
  bottom: "fc8_classification"
  bottom: "label"
  top: "accuracy"
  include {
    phase: TEST
  }
}
I0818 17:09:28.330186  4055 layer_factory.hpp:76] Creating layer data
I0818 17:09:28.330283  4055 net.cpp:110] Creating Layer data
I0818 17:09:28.330293  4055 net.cpp:433] data -> data
I0818 17:09:28.330303  4055 net.cpp:433] data -> label
I0818 17:09:28.330312  4055 data_transformer.cpp:23] Loading mean file from: ../caffe/data/ilsvrc12/imagenet_mean.binaryproto
I0818 17:09:28.431505  4069 db_leveldb.cpp:17] Opened leveldb ../data/cifar-10/train-test-split/test_leveldb
I0818 17:09:28.433120  4055 data_layer.cpp:44] output data size: 50,3,224,224
I0818 17:09:28.474391  4055 net.cpp:155] Setting up data
I0818 17:09:28.474423  4055 net.cpp:163] Top shape: 50 3 224 224 (7526400)
I0818 17:09:28.474434  4055 net.cpp:163] Top shape: 50 (50)
I0818 17:09:28.474447  4055 layer_factory.hpp:76] Creating layer label_data_1_split
I0818 17:09:28.474467  4055 net.cpp:110] Creating Layer label_data_1_split
I0818 17:09:28.474478  4055 net.cpp:477] label_data_1_split <- label
I0818 17:09:28.474493  4055 net.cpp:433] label_data_1_split -> label_data_1_split_0
I0818 17:09:28.474510  4055 net.cpp:433] label_data_1_split -> label_data_1_split_1
I0818 17:09:28.474529  4055 net.cpp:155] Setting up label_data_1_split
I0818 17:09:28.474542  4055 net.cpp:163] Top shape: 50 (50)
I0818 17:09:28.474553  4055 net.cpp:163] Top shape: 50 (50)
I0818 17:09:28.474565  4055 layer_factory.hpp:76] Creating layer conv1_1
I0818 17:09:28.474581  4055 net.cpp:110] Creating Layer conv1_1
I0818 17:09:28.474592  4055 net.cpp:477] conv1_1 <- data
I0818 17:09:28.474602  4055 net.cpp:433] conv1_1 -> conv1_1
I0818 17:09:28.474714  4055 net.cpp:155] Setting up conv1_1
I0818 17:09:28.474726  4055 net.cpp:163] Top shape: 50 64 224 224 (160563200)
I0818 17:09:28.474737  4055 layer_factory.hpp:76] Creating layer relu1_1
I0818 17:09:28.474750  4055 net.cpp:110] Creating Layer relu1_1
I0818 17:09:28.474761  4055 net.cpp:477] relu1_1 <- conv1_1
I0818 17:09:28.474774  4055 net.cpp:419] relu1_1 -> conv1_1 (in-place)
I0818 17:09:28.474789  4055 net.cpp:155] Setting up relu1_1
I0818 17:09:28.474802  4055 net.cpp:163] Top shape: 50 64 224 224 (160563200)
I0818 17:09:28.474834  4055 layer_factory.hpp:76] Creating layer conv1_2
I0818 17:09:28.474846  4055 net.cpp:110] Creating Layer conv1_2
I0818 17:09:28.474856  4055 net.cpp:477] conv1_2 <- conv1_1
I0818 17:09:28.474870  4055 net.cpp:433] conv1_2 -> conv1_2
I0818 17:09:28.475332  4055 net.cpp:155] Setting up conv1_2
I0818 17:09:28.475344  4055 net.cpp:163] Top shape: 50 64 224 224 (160563200)
I0818 17:09:28.475361  4055 layer_factory.hpp:76] Creating layer relu1_2
I0818 17:09:28.475375  4055 net.cpp:110] Creating Layer relu1_2
I0818 17:09:28.475386  4055 net.cpp:477] relu1_2 <- conv1_2
I0818 17:09:28.475399  4055 net.cpp:419] relu1_2 -> conv1_2 (in-place)
I0818 17:09:28.475414  4055 net.cpp:155] Setting up relu1_2
I0818 17:09:28.475427  4055 net.cpp:163] Top shape: 50 64 224 224 (160563200)
I0818 17:09:28.475437  4055 layer_factory.hpp:76] Creating layer pool1
I0818 17:09:28.475452  4055 net.cpp:110] Creating Layer pool1
I0818 17:09:28.475462  4055 net.cpp:477] pool1 <- conv1_2
I0818 17:09:28.475474  4055 net.cpp:433] pool1 -> pool1
I0818 17:09:28.475493  4055 net.cpp:155] Setting up pool1
I0818 17:09:28.475507  4055 net.cpp:163] Top shape: 50 64 112 112 (40140800)
I0818 17:09:28.475517  4055 layer_factory.hpp:76] Creating layer conv2_1
I0818 17:09:28.475530  4055 net.cpp:110] Creating Layer conv2_1
I0818 17:09:28.475543  4055 net.cpp:477] conv2_1 <- pool1
I0818 17:09:28.475555  4055 net.cpp:433] conv2_1 -> conv2_1
I0818 17:09:28.478302  4055 net.cpp:155] Setting up conv2_1
I0818 17:09:28.478322  4055 net.cpp:163] Top shape: 50 128 112 112 (80281600)
I0818 17:09:28.478338  4055 layer_factory.hpp:76] Creating layer relu2_1
I0818 17:09:28.478354  4055 net.cpp:110] Creating Layer relu2_1
I0818 17:09:28.478365  4055 net.cpp:477] relu2_1 <- conv2_1
I0818 17:09:28.478379  4055 net.cpp:419] relu2_1 -> conv2_1 (in-place)
I0818 17:09:28.478396  4055 net.cpp:155] Setting up relu2_1
I0818 17:09:28.478410  4055 net.cpp:163] Top shape: 50 128 112 112 (80281600)
I0818 17:09:28.478420  4055 layer_factory.hpp:76] Creating layer conv2_2
I0818 17:09:28.478435  4055 net.cpp:110] Creating Layer conv2_2
I0818 17:09:28.478446  4055 net.cpp:477] conv2_2 <- conv2_1
I0818 17:09:28.478459  4055 net.cpp:433] conv2_2 -> conv2_2
I0818 17:09:28.478603  4055 net.cpp:155] Setting up conv2_2
I0818 17:09:28.478616  4055 net.cpp:163] Top shape: 50 128 112 112 (80281600)
I0818 17:09:28.478631  4055 layer_factory.hpp:76] Creating layer relu2_2
I0818 17:09:28.478646  4055 net.cpp:110] Creating Layer relu2_2
I0818 17:09:28.478655  4055 net.cpp:477] relu2_2 <- conv2_2
I0818 17:09:28.478669  4055 net.cpp:419] relu2_2 -> conv2_2 (in-place)
I0818 17:09:28.478684  4055 net.cpp:155] Setting up relu2_2
I0818 17:09:28.478693  4055 net.cpp:163] Top shape: 50 128 112 112 (80281600)
I0818 17:09:28.478699  4055 layer_factory.hpp:76] Creating layer pool2
I0818 17:09:28.478708  4055 net.cpp:110] Creating Layer pool2
I0818 17:09:28.478713  4055 net.cpp:477] pool2 <- conv2_2
I0818 17:09:28.478719  4055 net.cpp:433] pool2 -> pool2
I0818 17:09:28.478730  4055 net.cpp:155] Setting up pool2
I0818 17:09:28.478736  4055 net.cpp:163] Top shape: 50 128 56 56 (20070400)
I0818 17:09:28.478741  4055 layer_factory.hpp:76] Creating layer conv3_1
I0818 17:09:28.478747  4055 net.cpp:110] Creating Layer conv3_1
I0818 17:09:28.478754  4055 net.cpp:477] conv3_1 <- pool2
I0818 17:09:28.478760  4055 net.cpp:433] conv3_1 -> conv3_1
I0818 17:09:28.479315  4055 net.cpp:155] Setting up conv3_1
I0818 17:09:28.479329  4055 net.cpp:163] Top shape: 50 256 56 56 (40140800)
I0818 17:09:28.479341  4055 layer_factory.hpp:76] Creating layer relu3_1
I0818 17:09:28.479349  4055 net.cpp:110] Creating Layer relu3_1
I0818 17:09:28.479356  4055 net.cpp:477] relu3_1 <- conv3_1
I0818 17:09:28.479362  4055 net.cpp:419] relu3_1 -> conv3_1 (in-place)
I0818 17:09:28.479370  4055 net.cpp:155] Setting up relu3_1
I0818 17:09:28.479377  4055 net.cpp:163] Top shape: 50 256 56 56 (40140800)
I0818 17:09:28.479382  4055 layer_factory.hpp:76] Creating layer conv3_2
I0818 17:09:28.479388  4055 net.cpp:110] Creating Layer conv3_2
I0818 17:09:28.479409  4055 net.cpp:477] conv3_2 <- conv3_1
I0818 17:09:28.479418  4055 net.cpp:433] conv3_2 -> conv3_2
I0818 17:09:28.480407  4055 net.cpp:155] Setting up conv3_2
I0818 17:09:28.480424  4055 net.cpp:163] Top shape: 50 256 56 56 (40140800)
I0818 17:09:28.480434  4055 layer_factory.hpp:76] Creating layer relu3_2
I0818 17:09:28.480443  4055 net.cpp:110] Creating Layer relu3_2
I0818 17:09:28.480449  4055 net.cpp:477] relu3_2 <- conv3_2
I0818 17:09:28.480456  4055 net.cpp:419] relu3_2 -> conv3_2 (in-place)
I0818 17:09:28.480465  4055 net.cpp:155] Setting up relu3_2
I0818 17:09:28.480471  4055 net.cpp:163] Top shape: 50 256 56 56 (40140800)
I0818 17:09:28.480476  4055 layer_factory.hpp:76] Creating layer conv3_3
I0818 17:09:28.480486  4055 net.cpp:110] Creating Layer conv3_3
I0818 17:09:28.480492  4055 net.cpp:477] conv3_3 <- conv3_2
I0818 17:09:28.480499  4055 net.cpp:433] conv3_3 -> conv3_3
I0818 17:09:28.481478  4055 net.cpp:155] Setting up conv3_3
I0818 17:09:28.481495  4055 net.cpp:163] Top shape: 50 256 56 56 (40140800)
I0818 17:09:28.481503  4055 layer_factory.hpp:76] Creating layer relu3_3
I0818 17:09:28.481511  4055 net.cpp:110] Creating Layer relu3_3
I0818 17:09:28.481518  4055 net.cpp:477] relu3_3 <- conv3_3
I0818 17:09:28.481524  4055 net.cpp:419] relu3_3 -> conv3_3 (in-place)
I0818 17:09:28.481534  4055 net.cpp:155] Setting up relu3_3
I0818 17:09:28.481539  4055 net.cpp:163] Top shape: 50 256 56 56 (40140800)
I0818 17:09:28.481544  4055 layer_factory.hpp:76] Creating layer pool3
I0818 17:09:28.481551  4055 net.cpp:110] Creating Layer pool3
I0818 17:09:28.481556  4055 net.cpp:477] pool3 <- conv3_3
I0818 17:09:28.481564  4055 net.cpp:433] pool3 -> pool3
I0818 17:09:28.481575  4055 net.cpp:155] Setting up pool3
I0818 17:09:28.481581  4055 net.cpp:163] Top shape: 50 256 28 28 (10035200)
I0818 17:09:28.481586  4055 layer_factory.hpp:76] Creating layer conv4_1
I0818 17:09:28.481593  4055 net.cpp:110] Creating Layer conv4_1
I0818 17:09:28.481600  4055 net.cpp:477] conv4_1 <- pool3
I0818 17:09:28.481606  4055 net.cpp:433] conv4_1 -> conv4_1
I0818 17:09:28.483619  4055 net.cpp:155] Setting up conv4_1
I0818 17:09:28.483649  4055 net.cpp:163] Top shape: 50 512 28 28 (20070400)
I0818 17:09:28.483659  4055 layer_factory.hpp:76] Creating layer relu4_1
I0818 17:09:28.483670  4055 net.cpp:110] Creating Layer relu4_1
I0818 17:09:28.483676  4055 net.cpp:477] relu4_1 <- conv4_1
I0818 17:09:28.483685  4055 net.cpp:419] relu4_1 -> conv4_1 (in-place)
I0818 17:09:28.483697  4055 net.cpp:155] Setting up relu4_1
I0818 17:09:28.483705  4055 net.cpp:163] Top shape: 50 512 28 28 (20070400)
I0818 17:09:28.483708  4055 layer_factory.hpp:76] Creating layer conv4_2
I0818 17:09:28.483716  4055 net.cpp:110] Creating Layer conv4_2
I0818 17:09:28.483721  4055 net.cpp:477] conv4_2 <- conv4_1
I0818 17:09:28.483728  4055 net.cpp:433] conv4_2 -> conv4_2
I0818 17:09:28.487798  4055 net.cpp:155] Setting up conv4_2
I0818 17:09:28.487831  4055 net.cpp:163] Top shape: 50 512 28 28 (20070400)
I0818 17:09:28.487849  4055 layer_factory.hpp:76] Creating layer relu4_2
I0818 17:09:28.487860  4055 net.cpp:110] Creating Layer relu4_2
I0818 17:09:28.487867  4055 net.cpp:477] relu4_2 <- conv4_2
I0818 17:09:28.487875  4055 net.cpp:419] relu4_2 -> conv4_2 (in-place)
I0818 17:09:28.487885  4055 net.cpp:155] Setting up relu4_2
I0818 17:09:28.487891  4055 net.cpp:163] Top shape: 50 512 28 28 (20070400)
I0818 17:09:28.487895  4055 layer_factory.hpp:76] Creating layer conv4_3
I0818 17:09:28.487903  4055 net.cpp:110] Creating Layer conv4_3
I0818 17:09:28.487908  4055 net.cpp:477] conv4_3 <- conv4_2
I0818 17:09:28.487915  4055 net.cpp:433] conv4_3 -> conv4_3
I0818 17:09:28.492466  4055 net.cpp:155] Setting up conv4_3
I0818 17:09:28.492501  4055 net.cpp:163] Top shape: 50 512 28 28 (20070400)
I0818 17:09:28.492513  4055 layer_factory.hpp:76] Creating layer relu4_3
I0818 17:09:28.492525  4055 net.cpp:110] Creating Layer relu4_3
I0818 17:09:28.492532  4055 net.cpp:477] relu4_3 <- conv4_3
I0818 17:09:28.492542  4055 net.cpp:419] relu4_3 -> conv4_3 (in-place)
I0818 17:09:28.492574  4055 net.cpp:155] Setting up relu4_3
I0818 17:09:28.492581  4055 net.cpp:163] Top shape: 50 512 28 28 (20070400)
I0818 17:09:28.492585  4055 layer_factory.hpp:76] Creating layer pool4
I0818 17:09:28.492595  4055 net.cpp:110] Creating Layer pool4
I0818 17:09:28.492601  4055 net.cpp:477] pool4 <- conv4_3
I0818 17:09:28.492609  4055 net.cpp:433] pool4 -> pool4
I0818 17:09:28.492621  4055 net.cpp:155] Setting up pool4
I0818 17:09:28.492629  4055 net.cpp:163] Top shape: 50 512 14 14 (5017600)
I0818 17:09:28.492633  4055 layer_factory.hpp:76] Creating layer conv5_1
I0818 17:09:28.492643  4055 net.cpp:110] Creating Layer conv5_1
I0818 17:09:28.492648  4055 net.cpp:477] conv5_1 <- pool4
I0818 17:09:28.492655  4055 net.cpp:433] conv5_1 -> conv5_1
I0818 17:09:28.496815  4055 net.cpp:155] Setting up conv5_1
I0818 17:09:28.496850  4055 net.cpp:163] Top shape: 50 512 14 14 (5017600)
I0818 17:09:28.496862  4055 layer_factory.hpp:76] Creating layer relu5_1
I0818 17:09:28.496876  4055 net.cpp:110] Creating Layer relu5_1
I0818 17:09:28.496888  4055 net.cpp:477] relu5_1 <- conv5_1
I0818 17:09:28.496901  4055 net.cpp:419] relu5_1 -> conv5_1 (in-place)
I0818 17:09:28.496915  4055 net.cpp:155] Setting up relu5_1
I0818 17:09:28.496928  4055 net.cpp:163] Top shape: 50 512 14 14 (5017600)
I0818 17:09:28.496939  4055 layer_factory.hpp:76] Creating layer conv5_2
I0818 17:09:28.496954  4055 net.cpp:110] Creating Layer conv5_2
I0818 17:09:28.496964  4055 net.cpp:477] conv5_2 <- conv5_1
I0818 17:09:28.496978  4055 net.cpp:433] conv5_2 -> conv5_2
I0818 17:09:28.501082  4055 net.cpp:155] Setting up conv5_2
I0818 17:09:28.501114  4055 net.cpp:163] Top shape: 50 512 14 14 (5017600)
I0818 17:09:28.501127  4055 layer_factory.hpp:76] Creating layer relu5_2
I0818 17:09:28.501143  4055 net.cpp:110] Creating Layer relu5_2
I0818 17:09:28.501152  4055 net.cpp:477] relu5_2 <- conv5_2
I0818 17:09:28.501166  4055 net.cpp:419] relu5_2 -> conv5_2 (in-place)
I0818 17:09:28.501183  4055 net.cpp:155] Setting up relu5_2
I0818 17:09:28.501195  4055 net.cpp:163] Top shape: 50 512 14 14 (5017600)
I0818 17:09:28.501205  4055 layer_factory.hpp:76] Creating layer conv5_3
I0818 17:09:28.501220  4055 net.cpp:110] Creating Layer conv5_3
I0818 17:09:28.501230  4055 net.cpp:477] conv5_3 <- conv5_2
I0818 17:09:28.501245  4055 net.cpp:433] conv5_3 -> conv5_3
I0818 17:09:28.505210  4055 net.cpp:155] Setting up conv5_3
I0818 17:09:28.505247  4055 net.cpp:163] Top shape: 50 512 14 14 (5017600)
I0818 17:09:28.505259  4055 layer_factory.hpp:76] Creating layer relu5_3
I0818 17:09:28.505271  4055 net.cpp:110] Creating Layer relu5_3
I0818 17:09:28.505277  4055 net.cpp:477] relu5_3 <- conv5_3
I0818 17:09:28.505286  4055 net.cpp:419] relu5_3 -> conv5_3 (in-place)
I0818 17:09:28.505297  4055 net.cpp:155] Setting up relu5_3
I0818 17:09:28.505302  4055 net.cpp:163] Top shape: 50 512 14 14 (5017600)
I0818 17:09:28.505306  4055 layer_factory.hpp:76] Creating layer pool5
I0818 17:09:28.505318  4055 net.cpp:110] Creating Layer pool5
I0818 17:09:28.505324  4055 net.cpp:477] pool5 <- conv5_3
I0818 17:09:28.505331  4055 net.cpp:433] pool5 -> pool5
I0818 17:09:28.505342  4055 net.cpp:155] Setting up pool5
I0818 17:09:28.505348  4055 net.cpp:163] Top shape: 50 512 1 1 (25600)
I0818 17:09:28.505352  4055 layer_factory.hpp:76] Creating layer latent_layer
I0818 17:09:28.505362  4055 net.cpp:110] Creating Layer latent_layer
I0818 17:09:28.505367  4055 net.cpp:477] latent_layer <- pool5
I0818 17:09:28.505373  4055 net.cpp:433] latent_layer -> latent_layer
I0818 17:09:28.508488  4055 net.cpp:155] Setting up latent_layer
I0818 17:09:28.508504  4055 net.cpp:163] Top shape: 50 48 (2400)
I0818 17:09:28.508514  4055 layer_factory.hpp:76] Creating layer encode_neuron
I0818 17:09:28.508522  4055 net.cpp:110] Creating Layer encode_neuron
I0818 17:09:28.508527  4055 net.cpp:477] encode_neuron <- latent_layer
I0818 17:09:28.508534  4055 net.cpp:433] encode_neuron -> encode_neuron
I0818 17:09:28.508543  4055 net.cpp:155] Setting up encode_neuron
I0818 17:09:28.508549  4055 net.cpp:163] Top shape: 50 48 (2400)
I0818 17:09:28.508574  4055 layer_factory.hpp:76] Creating layer encode_neuron_encode_neuron_0_split
I0818 17:09:28.508582  4055 net.cpp:110] Creating Layer encode_neuron_encode_neuron_0_split
I0818 17:09:28.508587  4055 net.cpp:477] encode_neuron_encode_neuron_0_split <- encode_neuron
I0818 17:09:28.508594  4055 net.cpp:433] encode_neuron_encode_neuron_0_split -> encode_neuron_encode_neuron_0_split_0
I0818 17:09:28.508601  4055 net.cpp:433] encode_neuron_encode_neuron_0_split -> encode_neuron_encode_neuron_0_split_1
I0818 17:09:28.508615  4055 net.cpp:433] encode_neuron_encode_neuron_0_split -> encode_neuron_encode_neuron_0_split_2
I0818 17:09:28.508630  4055 net.cpp:433] encode_neuron_encode_neuron_0_split -> encode_neuron_encode_neuron_0_split_3
I0818 17:09:28.508644  4055 net.cpp:155] Setting up encode_neuron_encode_neuron_0_split
I0818 17:09:28.508656  4055 net.cpp:163] Top shape: 50 48 (2400)
I0818 17:09:28.508668  4055 net.cpp:163] Top shape: 50 48 (2400)
I0818 17:09:28.508679  4055 net.cpp:163] Top shape: 50 48 (2400)
I0818 17:09:28.508688  4055 net.cpp:163] Top shape: 50 48 (2400)
I0818 17:09:28.508695  4055 layer_factory.hpp:76] Creating layer loss_beta
I0818 17:09:28.508702  4055 net.cpp:110] Creating Layer loss_beta
I0818 17:09:28.508708  4055 net.cpp:477] loss_beta <- encode_neuron_encode_neuron_0_split_0
I0818 17:09:28.508713  4055 net.cpp:477] loss_beta <- encode_neuron_encode_neuron_0_split_1
I0818 17:09:28.508719  4055 net.cpp:433] loss_beta -> loss: forcing-binary
I0818 17:09:28.508749  4055 net.cpp:155] Setting up loss_beta
I0818 17:09:28.508756  4055 net.cpp:163] Top shape: (1)
I0818 17:09:28.508761  4055 net.cpp:168]     with loss weight 1
I0818 17:09:28.508772  4055 layer_factory.hpp:76] Creating layer encode_neuron_reshape
I0818 17:09:28.508781  4055 net.cpp:110] Creating Layer encode_neuron_reshape
I0818 17:09:28.508786  4055 net.cpp:477] encode_neuron_reshape <- encode_neuron_encode_neuron_0_split_2
I0818 17:09:28.508793  4055 net.cpp:433] encode_neuron_reshape -> encode_neuron_reshape
I0818 17:09:28.508805  4055 net.cpp:155] Setting up encode_neuron_reshape
I0818 17:09:28.508812  4055 net.cpp:163] Top shape: 50 1 1 48 (2400)
I0818 17:09:28.508816  4055 layer_factory.hpp:76] Creating layer encode_neuron_avg
I0818 17:09:28.508823  4055 net.cpp:110] Creating Layer encode_neuron_avg
I0818 17:09:28.508829  4055 net.cpp:477] encode_neuron_avg <- encode_neuron_reshape
I0818 17:09:28.508836  4055 net.cpp:433] encode_neuron_avg -> encode_neuron_avg
I0818 17:09:28.508843  4055 net.cpp:155] Setting up encode_neuron_avg
I0818 17:09:28.508849  4055 net.cpp:163] Top shape: 50 1 1 1 (50)
I0818 17:09:28.508854  4055 layer_factory.hpp:76] Creating layer encode_neuron_avg_encode_neuron_avg_0_split
I0818 17:09:28.508859  4055 net.cpp:110] Creating Layer encode_neuron_avg_encode_neuron_avg_0_split
I0818 17:09:28.508865  4055 net.cpp:477] encode_neuron_avg_encode_neuron_avg_0_split <- encode_neuron_avg
I0818 17:09:28.508872  4055 net.cpp:433] encode_neuron_avg_encode_neuron_avg_0_split -> encode_neuron_avg_encode_neuron_avg_0_split_0
I0818 17:09:28.508878  4055 net.cpp:433] encode_neuron_avg_encode_neuron_avg_0_split -> encode_neuron_avg_encode_neuron_avg_0_split_1
I0818 17:09:28.508889  4055 net.cpp:155] Setting up encode_neuron_avg_encode_neuron_avg_0_split
I0818 17:09:28.508896  4055 net.cpp:163] Top shape: 50 1 1 1 (50)
I0818 17:09:28.508901  4055 net.cpp:163] Top shape: 50 1 1 1 (50)
I0818 17:09:28.508906  4055 layer_factory.hpp:76] Creating layer loss_gamma
I0818 17:09:28.508913  4055 net.cpp:110] Creating Layer loss_gamma
I0818 17:09:28.508919  4055 net.cpp:477] loss_gamma <- encode_neuron_avg_encode_neuron_avg_0_split_0
I0818 17:09:28.508924  4055 net.cpp:477] loss_gamma <- encode_neuron_avg_encode_neuron_avg_0_split_1
I0818 17:09:28.508929  4055 net.cpp:433] loss_gamma -> loss: 50%-fire-rate
I0818 17:09:28.508952  4055 net.cpp:155] Setting up loss_gamma
I0818 17:09:28.508963  4055 net.cpp:163] Top shape: (1)
I0818 17:09:28.508968  4055 net.cpp:168]     with loss weight 1
I0818 17:09:28.508975  4055 layer_factory.hpp:76] Creating layer fc8_classification
I0818 17:09:28.509001  4055 net.cpp:110] Creating Layer fc8_classification
I0818 17:09:28.509009  4055 net.cpp:477] fc8_classification <- encode_neuron_encode_neuron_0_split_3
I0818 17:09:28.509016  4055 net.cpp:433] fc8_classification -> fc8_classification
I0818 17:09:28.509078  4055 net.cpp:155] Setting up fc8_classification
I0818 17:09:28.509086  4055 net.cpp:163] Top shape: 50 10 (500)
I0818 17:09:28.509095  4055 layer_factory.hpp:76] Creating layer fc8_classification_fc8_classification_0_split
I0818 17:09:28.509102  4055 net.cpp:110] Creating Layer fc8_classification_fc8_classification_0_split
I0818 17:09:28.509109  4055 net.cpp:477] fc8_classification_fc8_classification_0_split <- fc8_classification
I0818 17:09:28.509115  4055 net.cpp:433] fc8_classification_fc8_classification_0_split -> fc8_classification_fc8_classification_0_split_0
I0818 17:09:28.509124  4055 net.cpp:433] fc8_classification_fc8_classification_0_split -> fc8_classification_fc8_classification_0_split_1
I0818 17:09:28.509131  4055 net.cpp:155] Setting up fc8_classification_fc8_classification_0_split
I0818 17:09:28.509137  4055 net.cpp:163] Top shape: 50 10 (500)
I0818 17:09:28.509142  4055 net.cpp:163] Top shape: 50 10 (500)
I0818 17:09:28.509146  4055 layer_factory.hpp:76] Creating layer loss_alpha
I0818 17:09:28.509155  4055 net.cpp:110] Creating Layer loss_alpha
I0818 17:09:28.509160  4055 net.cpp:477] loss_alpha <- fc8_classification_fc8_classification_0_split_0
I0818 17:09:28.509165  4055 net.cpp:477] loss_alpha <- label_data_1_split_0
I0818 17:09:28.509171  4055 net.cpp:433] loss_alpha -> loss: classfication-error
…
