…
I0817 13:18:13.935780  7712 net.cpp:339] The NetState phase (0) differed from the phase (1) specified by a rule in layer accuracy
I0817 13:18:13.935986  7712 net.cpp:50] Initializing net from parameters: 
name: "VGG_ILSVRC_16_layers"
state {
  phase: TRAIN
}
layer {
  name: "data"
  type: "Data"
  top: "data"
  top: "label"
  include {
    phase: TRAIN
  }
  transform_param {
    mirror: true
    crop_size: 224
    mean_file: "../caffe/data/ilsvrc12/imagenet_mean.binaryproto"
  }
  data_param {
    source: "../data/cifar-10/train-test-split/train_leveldb"
    batch_size: 40
  }
}
layer {
  name: "conv1_1"
  type: "Convolution"
  bottom: "data"
  top: "conv1_1"
  param {
    lr_mult: 1
    decay_mult: 1
  }
  param {
    lr_mult: 2
    decay_mult: 0
  }
  convolution_param {
    num_output: 64
    pad: 1
    kernel_size: 3
  }
}
layer {
  name: "relu1_1"
  type: "ReLU"
  bottom: "conv1_1"
  top: "conv1_1"
}
layer {
  name: "conv1_2"
  type: "Convolution"
  bottom: "conv1_1"
  top: "conv1_2"
  param {
    lr_mult: 1
    decay_mult: 1
  }
  param {
    lr_mult: 2
    decay_mult: 0
  }
  convolution_param {
    num_output: 64
    pad: 1
    kernel_size: 3
  }
}
layer {
  name: "relu1_2"
  type: "ReLU"
  bottom: "conv1_2"
  top: "conv1_2"
}
layer {
  name: "pool1"
  type: "Pooling"
  bottom: "conv1_2"
  top: "pool1"
  pooling_param {
    pool: MAX
    kernel_size: 2
    stride: 2
  }
}
layer {
  name: "conv2_1"
  type: "Convolution"
  bottom: "pool1"
  top: "conv2_1"
  param {
    lr_mult: 1
    decay_mult: 1
  }
  param {
    lr_mult: 2
    decay_mult: 0
  }
  convolution_param {
    num_output: 128
    pad: 1
    kernel_size: 3
  }
}
layer {
  name: "relu2_1"
  type: "ReLU"
  bottom: "conv2_1"
  top: "conv2_1"
}
layer {
  name: "conv2_2"
  type: "Convolution"
  bottom: "conv2_1"
  top: "conv2_2"
  param {
    lr_mult: 1
    decay_mult: 1
  }
  param {
    lr_mult: 2
    decay_mult: 0
  }
  convolution_param {
    num_output: 128
    pad: 1
    kernel_size: 3
  }
}
layer {
  name: "relu2_2"
  type: "ReLU"
  bottom: "conv2_2"
  top: "conv2_2"
}
layer {
  name: "pool2"
  type: "Pooling"
  bottom: "conv2_2"
  top: "pool2"
  pooling_param {
    pool: MAX
    kernel_size: 2
    stride: 2
  }
}
layer {
  name: "conv3_1"
  type: "Convolution"
  bottom: "pool2"
  top: "conv3_1"
  param {
    lr_mult: 1
    decay_mult: 1
  }
  param {
    lr_mult: 2
    decay_mult: 0
  }
  convolution_param {
    num_output: 256
    pad: 1
    kernel_size: 3
  }
}
layer {
  name: "relu3_1"
  type: "ReLU"
  bottom: "conv3_1"
  top: "conv3_1"
}
layer {
  name: "conv3_2"
  type: "Convolution"
  bottom: "conv3_1"
  top: "conv3_2"
  param {
    lr_mult: 1
    decay_mult: 1
  }
  param {
    lr_mult: 2
    decay_mult: 0
  }
  convolution_param {
    num_output: 256
    pad: 1
    kernel_size: 3
  }
}
layer {
  name: "relu3_2"
  type: "ReLU"
  bottom: "conv3_2"
  top: "conv3_2"
}
layer {
  name: "conv3_3"
  type: "Convolution"
  bottom: "conv3_2"
  top: "conv3_3"
  param {
    lr_mult: 1
    decay_mult: 1
  }
  param {
    lr_mult: 2
    decay_mult: 0
  }
  convolution_param {
    num_output: 256
    pad: 1
    kernel_size: 3
  }
}
layer {
  name: "relu3_3"
  type: "ReLU"
  bottom: "conv3_3"
  top: "conv3_3"
}
layer {
  name: "pool3"
  type: "Pooling"
  bottom: "conv3_3"
  top: "pool3"
  pooling_param {
    pool: MAX
    kernel_size: 2
    stride: 2
  }
}
layer {
  name: "conv4_1"
  type: "Convolution"
  bottom: "pool3"
  top: "conv4_1"
  param {
    lr_mult: 1
    decay_mult: 1
  }
  param {
    lr_mult: 2
    decay_mult: 0
  }
  convolution_param {
    num_output: 512
    pad: 1
    kernel_size: 3
  }
}
layer {
  name: "relu4_1"
  type: "ReLU"
  bottom: "conv4_1"
  top: "conv4_1"
}
layer {
  name: "conv4_2"
  type: "Convolution"
  bottom: "conv4_1"
  top: "conv4_2"
  param {
    lr_mult: 1
    decay_mult: 1
  }
  param {
    lr_mult: 2
    decay_mult: 0
  }
  convolution_param {
    num_output: 512
    pad: 1
    kernel_size: 3
  }
}
layer {
  name: "relu4_2"
  type: "ReLU"
  bottom: "conv4_2"
  top: "conv4_2"
}
layer {
  name: "conv4_3"
  type: "Convolution"
  bottom: "conv4_2"
  top: "conv4_3"
  param {
    lr_mult: 1
    decay_mult: 1
  }
  param {
    lr_mult: 2
    decay_mult: 0
  }
  convolution_param {
    num_output: 512
    pad: 1
    kernel_size: 3
  }
}
layer {
  name: "relu4_3"
  type: "ReLU"
  bottom: "conv4_3"
  top: "conv4_3"
}
layer {
  name: "pool4"
  type: "Pooling"
  bottom: "conv4_3"
  top: "pool4"
  pooling_param {
    pool: MAX
    kernel_size: 2
    stride: 2
  }
}
layer {
  name: "conv5_1"
  type: "Convolution"
  bottom: "pool4"
  top: "conv5_1"
  param {
    lr_mult: 1
    decay_mult: 0
  }
  param {
    lr_mult: 2
    decay_mult: 0
  }
  convolution_param {
    num_output: 512
    pad: 1
    kernel_size: 3
  }
}
layer {
  name: "relu5_1"
  type: "ReLU"
  bottom: "conv5_1"
  top: "conv5_1"
}
layer {
  name: "conv5_2"
  type: "Convolution"
  bottom: "conv5_1"
  top: "conv5_2"
  param {
    lr_mult: 1
    decay_mult: 1
  }
  param {
    lr_mult: 2
    decay_mult: 0
  }
  convolution_param {
    num_output: 512
    pad: 1
    kernel_size: 3
  }
}
layer {
  name: "relu5_2"
  type: "ReLU"
  bottom: "conv5_2"
  top: "conv5_2"
}
layer {
  name: "conv5_3"
  type: "Convolution"
  bottom: "conv5_2"
  top: "conv5_3"
  param {
    lr_mult: 1
    decay_mult: 1
  }
  param {
    lr_mult: 2
    decay_mult: 0
  }
  convolution_param {
    num_output: 512
    pad: 1
    kernel_size: 3
  }
}
layer {
  name: "relu5_3"
  type: "ReLU"
  bottom: "conv5_3"
  top: "conv5_3"
}
layer {
  name: "pool5"
  type: "Pooling"
  bottom: "conv5_3"
  top: "pool5"
  pooling_param {
    pool: MAX
    kernel_size: 2
    stride: 2
  }
}
layer {
  name: "fc6"
  type: "InnerProduct"
  bottom: "pool5"
  top: "fc6"
  param {
    lr_mult: 1
    decay_mult: 1
  }
  param {
    lr_mult: 2
    decay_mult: 0
  }
  inner_product_param {
    num_output: 4096
  }
}
layer {
  name: "relu6"
  type: "ReLU"
  bottom: "fc6"
  top: "fc6"
}
layer {
  name: "drop6"
  type: "Dropout"
  bottom: "fc6"
  top: "fc6"
  dropout_param {
    dropout_ratio: 0.5
  }
}
layer {
  name: "fc7"
  type: "InnerProduct"
  bottom: "fc6"
  top: "fc7"
  param {
    lr_mult: 1
    decay_mult: 1
  }
  param {
    lr_mult: 2
    decay_mult: 0
  }
  inner_product_param {
    num_output: 4096
  }
}
layer {
  name: "relu7"
  type: "ReLU"
  bottom: "fc7"
  top: "fc7"
}
layer {
  name: "drop7"
  type: "Dropout"
  bottom: "fc7"
  top: "fc7"
  dropout_param {
    dropout_ratio: 0.5
  }
}
layer {
  name: "latent_layer"
  type: "InnerProduct"
  bottom: "fc7"
  top: "latent_layer"
  param {
    lr_mult: 1
    decay_mult: 1
  }
  param {
    lr_mult: 2
    decay_mult: 0
  }
  inner_product_param {
    num_output: 48
    weight_filler {
      type: "gaussian"
      std: 0.005
    }
    bias_filler {
      type: "constant"
      value: 1
    }
  }
}
layer {
  name: "encode_neuron"
  type: "Sigmoid"
  bottom: "latent_layer"
  top: "encode_neuron"
}
layer {
  name: "loss_beta"
  type: "K1_EuclideanLoss"
  bottom: "encode_neuron"
  bottom: "encode_neuron"
  top: "loss: forcing-binary"
  loss_weight: 1
  propagate_down: true
  propagate_down: false
}
layer {
  name: "encode_neuron_reshape"
  type: "Reshape"
  bottom: "encode_neuron"
  top: "encode_neuron_reshape"
  reshape_param {
    shape {
      dim: 0
      dim: 1
      dim: 1
      dim: -1
    }
  }
}
layer {
  name: "encode_neuron_avg"
  type: "Pooling"
  bottom: "encode_neuron_reshape"
  top: "encode_neuron_avg"
  pooling_param {
    pool: AVE
    kernel_h: 1
    kernel_w: 48
  }
}
layer {
  name: "loss_gamma"
  type: "K2_EuclideanLoss"
  bottom: "encode_neuron_avg"
  bottom: "encode_neuron_avg"
  top: "loss: 50%-fire-rate"
  loss_weight: 1
  propagate_down: true
  propagate_down: false
}
layer {
  name: "fc8_classification"
  type: "InnerProduct"
  bottom: "encode_neuron"
  top: "fc8_classification"
  param {
    lr_mult: 10
    decay_mult: 1
  }
  param {
    lr_mult: 20
    decay_mult: 0
  }
  inner_product_param {
    num_output: 10
    weight_filler {
      type: "gaussian"
      std: 0.01
    }
    bias_filler {
      type: "constant"
      value: 0
    }
  }
}
layer {
  name: "loss_alpha"
  type: "SoftmaxWithLoss"
  bottom: "fc8_classification"
  bottom: "label"
  top: "loss: classfication-error"
  loss_weight: 1
}
I0817 13:18:13.936182  7712 layer_factory.hpp:76] Creating layer data
I0817 13:18:13.936293  7712 net.cpp:110] Creating Layer data
I0817 13:18:13.936305  7712 net.cpp:433] data -> data
I0817 13:18:13.936332  7712 net.cpp:433] data -> label
I0817 13:18:13.936347  7712 data_transformer.cpp:23] Loading mean file from: ../caffe/data/ilsvrc12/imagenet_mean.binaryproto
I0817 13:18:14.037355  7730 db_leveldb.cpp:17] Opened leveldb ../data/cifar-10/train-test-split/train_leveldb
I0817 13:18:14.041062  7712 data_layer.cpp:44] output data size: 40,3,224,224
I0817 13:18:14.094688  7712 net.cpp:155] Setting up data
I0817 13:18:14.094739  7712 net.cpp:163] Top shape: 40 3 224 224 (6021120)
I0817 13:18:14.094750  7712 net.cpp:163] Top shape: 40 (40)
I0817 13:18:14.094763  7712 layer_factory.hpp:76] Creating layer conv1_1
I0817 13:18:14.094785  7712 net.cpp:110] Creating Layer conv1_1
I0817 13:18:14.094794  7712 net.cpp:477] conv1_1 <- data
I0817 13:18:14.094812  7712 net.cpp:433] conv1_1 -> conv1_1
I0817 13:18:14.095932  7712 net.cpp:155] Setting up conv1_1
I0817 13:18:14.095955  7712 net.cpp:163] Top shape: 40 64 224 224 (128450560)
I0817 13:18:14.095978  7712 layer_factory.hpp:76] Creating layer relu1_1
I0817 13:18:14.095991  7712 net.cpp:110] Creating Layer relu1_1
I0817 13:18:14.096006  7712 net.cpp:477] relu1_1 <- conv1_1
I0817 13:18:14.096016  7712 net.cpp:419] relu1_1 -> conv1_1 (in-place)
I0817 13:18:14.096029  7712 net.cpp:155] Setting up relu1_1
I0817 13:18:14.096038  7712 net.cpp:163] Top shape: 40 64 224 224 (128450560)
I0817 13:18:14.096045  7712 layer_factory.hpp:76] Creating layer conv1_2
I0817 13:18:14.096055  7712 net.cpp:110] Creating Layer conv1_2
I0817 13:18:14.096062  7712 net.cpp:477] conv1_2 <- conv1_1
I0817 13:18:14.096072  7712 net.cpp:433] conv1_2 -> conv1_2
I0817 13:18:14.096191  7712 net.cpp:155] Setting up conv1_2
I0817 13:18:14.096209  7712 net.cpp:163] Top shape: 40 64 224 224 (128450560)
I0817 13:18:14.096223  7712 layer_factory.hpp:76] Creating layer relu1_2
I0817 13:18:14.096235  7712 net.cpp:110] Creating Layer relu1_2
I0817 13:18:14.096241  7712 net.cpp:477] relu1_2 <- conv1_2
I0817 13:18:14.096251  7712 net.cpp:419] relu1_2 -> conv1_2 (in-place)
I0817 13:18:14.096261  7712 net.cpp:155] Setting up relu1_2
I0817 13:18:14.096271  7712 net.cpp:163] Top shape: 40 64 224 224 (128450560)
I0817 13:18:14.096276  7712 layer_factory.hpp:76] Creating layer pool1
I0817 13:18:14.096287  7712 net.cpp:110] Creating Layer pool1
I0817 13:18:14.096294  7712 net.cpp:477] pool1 <- conv1_2
I0817 13:18:14.096303  7712 net.cpp:433] pool1 -> pool1
I0817 13:18:14.096328  7712 net.cpp:155] Setting up pool1
I0817 13:18:14.096340  7712 net.cpp:163] Top shape: 40 64 112 112 (32112640)
I0817 13:18:14.096359  7712 layer_factory.hpp:76] Creating layer conv2_1
I0817 13:18:14.096375  7712 net.cpp:110] Creating Layer conv2_1
I0817 13:18:14.096382  7712 net.cpp:477] conv2_1 <- pool1
I0817 13:18:14.096392  7712 net.cpp:433] conv2_1 -> conv2_1
I0817 13:18:14.099635  7712 net.cpp:155] Setting up conv2_1
I0817 13:18:14.099668  7712 net.cpp:163] Top shape: 40 128 112 112 (64225280)
I0817 13:18:14.099689  7712 layer_factory.hpp:76] Creating layer relu2_1
I0817 13:18:14.099704  7712 net.cpp:110] Creating Layer relu2_1
I0817 13:18:14.099736  7712 net.cpp:477] relu2_1 <- conv2_1
I0817 13:18:14.099748  7712 net.cpp:419] relu2_1 -> conv2_1 (in-place)
I0817 13:18:14.099762  7712 net.cpp:155] Setting up relu2_1
I0817 13:18:14.099776  7712 net.cpp:163] Top shape: 40 128 112 112 (64225280)
I0817 13:18:14.099783  7712 layer_factory.hpp:76] Creating layer conv2_2
I0817 13:18:14.099797  7712 net.cpp:110] Creating Layer conv2_2
I0817 13:18:14.099803  7712 net.cpp:477] conv2_2 <- conv2_1
I0817 13:18:14.099813  7712 net.cpp:433] conv2_2 -> conv2_2
I0817 13:18:14.100010  7712 net.cpp:155] Setting up conv2_2
I0817 13:18:14.100028  7712 net.cpp:163] Top shape: 40 128 112 112 (64225280)
I0817 13:18:14.100039  7712 layer_factory.hpp:76] Creating layer relu2_2
I0817 13:18:14.100049  7712 net.cpp:110] Creating Layer relu2_2
I0817 13:18:14.100054  7712 net.cpp:477] relu2_2 <- conv2_2
I0817 13:18:14.100064  7712 net.cpp:419] relu2_2 -> conv2_2 (in-place)
I0817 13:18:14.100073  7712 net.cpp:155] Setting up relu2_2
I0817 13:18:14.100081  7712 net.cpp:163] Top shape: 40 128 112 112 (64225280)
I0817 13:18:14.100088  7712 layer_factory.hpp:76] Creating layer pool2
I0817 13:18:14.100097  7712 net.cpp:110] Creating Layer pool2
I0817 13:18:14.100105  7712 net.cpp:477] pool2 <- conv2_2
I0817 13:18:14.100112  7712 net.cpp:433] pool2 -> pool2
I0817 13:18:14.100126  7712 net.cpp:155] Setting up pool2
I0817 13:18:14.100136  7712 net.cpp:163] Top shape: 40 128 56 56 (16056320)
I0817 13:18:14.100142  7712 layer_factory.hpp:76] Creating layer conv3_1
I0817 13:18:14.100152  7712 net.cpp:110] Creating Layer conv3_1
I0817 13:18:14.100157  7712 net.cpp:477] conv3_1 <- pool2
I0817 13:18:14.100167  7712 net.cpp:433] conv3_1 -> conv3_1
I0817 13:18:14.101063  7712 net.cpp:155] Setting up conv3_1
I0817 13:18:14.101083  7712 net.cpp:163] Top shape: 40 256 56 56 (32112640)
I0817 13:18:14.101099  7712 layer_factory.hpp:76] Creating layer relu3_1
I0817 13:18:14.101110  7712 net.cpp:110] Creating Layer relu3_1
I0817 13:18:14.101117  7712 net.cpp:477] relu3_1 <- conv3_1
I0817 13:18:14.101126  7712 net.cpp:419] relu3_1 -> conv3_1 (in-place)
I0817 13:18:14.101137  7712 net.cpp:155] Setting up relu3_1
I0817 13:18:14.101145  7712 net.cpp:163] Top shape: 40 256 56 56 (32112640)
I0817 13:18:14.101152  7712 layer_factory.hpp:76] Creating layer conv3_2
I0817 13:18:14.101162  7712 net.cpp:110] Creating Layer conv3_2
I0817 13:18:14.101168  7712 net.cpp:477] conv3_2 <- conv3_1
I0817 13:18:14.101178  7712 net.cpp:433] conv3_2 -> conv3_2
I0817 13:18:14.102612  7712 net.cpp:155] Setting up conv3_2
I0817 13:18:14.102638  7712 net.cpp:163] Top shape: 40 256 56 56 (32112640)
I0817 13:18:14.102651  7712 layer_factory.hpp:76] Creating layer relu3_2
I0817 13:18:14.102663  7712 net.cpp:110] Creating Layer relu3_2
I0817 13:18:14.102674  7712 net.cpp:477] relu3_2 <- conv3_2
I0817 13:18:14.102691  7712 net.cpp:419] relu3_2 -> conv3_2 (in-place)
I0817 13:18:14.102712  7712 net.cpp:155] Setting up relu3_2
I0817 13:18:14.102730  7712 net.cpp:163] Top shape: 40 256 56 56 (32112640)
I0817 13:18:14.102743  7712 layer_factory.hpp:76] Creating layer conv3_3
I0817 13:18:14.102761  7712 net.cpp:110] Creating Layer conv3_3
I0817 13:18:14.102777  7712 net.cpp:477] conv3_3 <- conv3_2
I0817 13:18:14.102797  7712 net.cpp:433] conv3_3 -> conv3_3
I0817 13:18:14.104280  7712 net.cpp:155] Setting up conv3_3
I0817 13:18:14.104311  7712 net.cpp:163] Top shape: 40 256 56 56 (32112640)
I0817 13:18:14.104334  7712 layer_factory.hpp:76] Creating layer relu3_3
I0817 13:18:14.104359  7712 net.cpp:110] Creating Layer relu3_3
I0817 13:18:14.104377  7712 net.cpp:477] relu3_3 <- conv3_3
I0817 13:18:14.104395  7712 net.cpp:419] relu3_3 -> conv3_3 (in-place)
I0817 13:18:14.104423  7712 net.cpp:155] Setting up relu3_3
I0817 13:18:14.104444  7712 net.cpp:163] Top shape: 40 256 56 56 (32112640)
I0817 13:18:14.104461  7712 layer_factory.hpp:76] Creating layer pool3
I0817 13:18:14.104481  7712 net.cpp:110] Creating Layer pool3
I0817 13:18:14.104498  7712 net.cpp:477] pool3 <- conv3_3
I0817 13:18:14.104517  7712 net.cpp:433] pool3 -> pool3
I0817 13:18:14.104567  7712 net.cpp:155] Setting up pool3
I0817 13:18:14.104586  7712 net.cpp:163] Top shape: 40 256 28 28 (8028160)
I0817 13:18:14.104601  7712 layer_factory.hpp:76] Creating layer conv4_1
I0817 13:18:14.104624  7712 net.cpp:110] Creating Layer conv4_1
I0817 13:18:14.104640  7712 net.cpp:477] conv4_1 <- pool3
I0817 13:18:14.104658  7712 net.cpp:433] conv4_1 -> conv4_1
I0817 13:18:14.108075  7712 net.cpp:155] Setting up conv4_1
I0817 13:18:14.108115  7712 net.cpp:163] Top shape: 40 512 28 28 (16056320)
I0817 13:18:14.108150  7712 layer_factory.hpp:76] Creating layer relu4_1
I0817 13:18:14.108173  7712 net.cpp:110] Creating Layer relu4_1
I0817 13:18:14.108194  7712 net.cpp:477] relu4_1 <- conv4_1
I0817 13:18:14.108223  7712 net.cpp:419] relu4_1 -> conv4_1 (in-place)
I0817 13:18:14.108249  7712 net.cpp:155] Setting up relu4_1
I0817 13:18:14.108269  7712 net.cpp:163] Top shape: 40 512 28 28 (16056320)
I0817 13:18:14.108283  7712 layer_factory.hpp:76] Creating layer conv4_2
I0817 13:18:14.108305  7712 net.cpp:110] Creating Layer conv4_2
I0817 13:18:14.108321  7712 net.cpp:477] conv4_2 <- conv4_1
I0817 13:18:14.108341  7712 net.cpp:433] conv4_2 -> conv4_2
I0817 13:18:14.113962  7712 net.cpp:155] Setting up conv4_2
I0817 13:18:14.113998  7712 net.cpp:163] Top shape: 40 512 28 28 (16056320)
I0817 13:18:14.114027  7712 layer_factory.hpp:76] Creating layer relu4_2
I0817 13:18:14.114045  7712 net.cpp:110] Creating Layer relu4_2
I0817 13:18:14.114060  7712 net.cpp:477] relu4_2 <- conv4_2
I0817 13:18:14.114078  7712 net.cpp:419] relu4_2 -> conv4_2 (in-place)
I0817 13:18:14.114097  7712 net.cpp:155] Setting up relu4_2
I0817 13:18:14.114112  7712 net.cpp:163] Top shape: 40 512 28 28 (16056320)
I0817 13:18:14.114125  7712 layer_factory.hpp:76] Creating layer conv4_3
I0817 13:18:14.114142  7712 net.cpp:110] Creating Layer conv4_3
I0817 13:18:14.114154  7712 net.cpp:477] conv4_3 <- conv4_2
I0817 13:18:14.114168  7712 net.cpp:433] conv4_3 -> conv4_3
I0817 13:18:14.118783  7712 net.cpp:155] Setting up conv4_3
I0817 13:18:14.118821  7712 net.cpp:163] Top shape: 40 512 28 28 (16056320)
I0817 13:18:14.118842  7712 layer_factory.hpp:76] Creating layer relu4_3
I0817 13:18:14.118860  7712 net.cpp:110] Creating Layer relu4_3
I0817 13:18:14.118877  7712 net.cpp:477] relu4_3 <- conv4_3
I0817 13:18:14.118896  7712 net.cpp:419] relu4_3 -> conv4_3 (in-place)
I0817 13:18:14.118917  7712 net.cpp:155] Setting up relu4_3
I0817 13:18:14.118932  7712 net.cpp:163] Top shape: 40 512 28 28 (16056320)
I0817 13:18:14.118947  7712 layer_factory.hpp:76] Creating layer pool4
I0817 13:18:14.118963  7712 net.cpp:110] Creating Layer pool4
I0817 13:18:14.118974  7712 net.cpp:477] pool4 <- conv4_3
I0817 13:18:14.118988  7712 net.cpp:433] pool4 -> pool4
I0817 13:18:14.119010  7712 net.cpp:155] Setting up pool4
I0817 13:18:14.119024  7712 net.cpp:163] Top shape: 40 512 14 14 (4014080)
I0817 13:18:14.119034  7712 layer_factory.hpp:76] Creating layer conv5_1
I0817 13:18:14.119050  7712 net.cpp:110] Creating Layer conv5_1
I0817 13:18:14.119061  7712 net.cpp:477] conv5_1 <- pool4
I0817 13:18:14.119076  7712 net.cpp:433] conv5_1 -> conv5_1
I0817 13:18:14.123616  7712 net.cpp:155] Setting up conv5_1
I0817 13:18:14.123658  7712 net.cpp:163] Top shape: 40 512 14 14 (4014080)
I0817 13:18:14.123677  7712 layer_factory.hpp:76] Creating layer relu5_1
I0817 13:18:14.123692  7712 net.cpp:110] Creating Layer relu5_1
I0817 13:18:14.123703  7712 net.cpp:477] relu5_1 <- conv5_1
I0817 13:18:14.123716  7712 net.cpp:419] relu5_1 -> conv5_1 (in-place)
I0817 13:18:14.123739  7712 net.cpp:155] Setting up relu5_1
I0817 13:18:14.123754  7712 net.cpp:163] Top shape: 40 512 14 14 (4014080)
I0817 13:18:14.123762  7712 layer_factory.hpp:76] Creating layer conv5_2
I0817 13:18:14.123780  7712 net.cpp:110] Creating Layer conv5_2
I0817 13:18:14.123790  7712 net.cpp:477] conv5_2 <- conv5_1
I0817 13:18:14.123803  7712 net.cpp:433] conv5_2 -> conv5_2
I0817 13:18:14.128378  7712 net.cpp:155] Setting up conv5_2
I0817 13:18:14.128412  7712 net.cpp:163] Top shape: 40 512 14 14 (4014080)
I0817 13:18:14.128463  7712 layer_factory.hpp:76] Creating layer relu5_2
I0817 13:18:14.128484  7712 net.cpp:110] Creating Layer relu5_2
I0817 13:18:14.128495  7712 net.cpp:477] relu5_2 <- conv5_2
I0817 13:18:14.128510  7712 net.cpp:419] relu5_2 -> conv5_2 (in-place)
I0817 13:18:14.128530  7712 net.cpp:155] Setting up relu5_2
I0817 13:18:14.128541  7712 net.cpp:163] Top shape: 40 512 14 14 (4014080)
I0817 13:18:14.128551  7712 layer_factory.hpp:76] Creating layer conv5_3
I0817 13:18:14.128566  7712 net.cpp:110] Creating Layer conv5_3
I0817 13:18:14.128577  7712 net.cpp:477] conv5_3 <- conv5_2
I0817 13:18:14.128589  7712 net.cpp:433] conv5_3 -> conv5_3
I0817 13:18:14.132886  7712 net.cpp:155] Setting up conv5_3
I0817 13:18:14.132926  7712 net.cpp:163] Top shape: 40 512 14 14 (4014080)
I0817 13:18:14.132944  7712 layer_factory.hpp:76] Creating layer relu5_3
I0817 13:18:14.132961  7712 net.cpp:110] Creating Layer relu5_3
I0817 13:18:14.132971  7712 net.cpp:477] relu5_3 <- conv5_3
I0817 13:18:14.132984  7712 net.cpp:419] relu5_3 -> conv5_3 (in-place)
I0817 13:18:14.133009  7712 net.cpp:155] Setting up relu5_3
I0817 13:18:14.133021  7712 net.cpp:163] Top shape: 40 512 14 14 (4014080)
I0817 13:18:14.133036  7712 layer_factory.hpp:76] Creating layer pool5
I0817 13:18:14.133050  7712 net.cpp:110] Creating Layer pool5
I0817 13:18:14.133060  7712 net.cpp:477] pool5 <- conv5_3
I0817 13:18:14.133074  7712 net.cpp:433] pool5 -> pool5
I0817 13:18:14.133095  7712 net.cpp:155] Setting up pool5
I0817 13:18:14.133107  7712 net.cpp:163] Top shape: 40 512 7 7 (1003520)
I0817 13:18:14.133117  7712 layer_factory.hpp:76] Creating layer fc6
I0817 13:18:14.133146  7712 net.cpp:110] Creating Layer fc6
I0817 13:18:14.133154  7712 net.cpp:477] fc6 <- pool5
I0817 13:18:14.133167  7712 net.cpp:433] fc6 -> fc6
I0817 13:18:14.297600  7712 net.cpp:155] Setting up fc6
I0817 13:18:14.297648  7712 net.cpp:163] Top shape: 40 4096 (163840)
I0817 13:18:14.297667  7712 layer_factory.hpp:76] Creating layer relu6
I0817 13:18:14.297683  7712 net.cpp:110] Creating Layer relu6
I0817 13:18:14.297693  7712 net.cpp:477] relu6 <- fc6
I0817 13:18:14.297706  7712 net.cpp:419] relu6 -> fc6 (in-place)
I0817 13:18:14.297724  7712 net.cpp:155] Setting up relu6
I0817 13:18:14.297737  7712 net.cpp:163] Top shape: 40 4096 (163840)
I0817 13:18:14.297747  7712 layer_factory.hpp:76] Creating layer drop6
I0817 13:18:14.297763  7712 net.cpp:110] Creating Layer drop6
I0817 13:18:14.297772  7712 net.cpp:477] drop6 <- fc6
I0817 13:18:14.297788  7712 net.cpp:419] drop6 -> fc6 (in-place)
I0817 13:18:14.297811  7712 net.cpp:155] Setting up drop6
I0817 13:18:14.297822  7712 net.cpp:163] Top shape: 40 4096 (163840)
I0817 13:18:14.297832  7712 layer_factory.hpp:76] Creating layer fc7
I0817 13:18:14.297845  7712 net.cpp:110] Creating Layer fc7
I0817 13:18:14.297857  7712 net.cpp:477] fc7 <- fc6
I0817 13:18:14.297868  7712 net.cpp:433] fc7 -> fc7
I0817 13:18:14.324122  7712 net.cpp:155] Setting up fc7
I0817 13:18:14.324167  7712 net.cpp:163] Top shape: 40 4096 (163840)
I0817 13:18:14.324187  7712 layer_factory.hpp:76] Creating layer relu7
I0817 13:18:14.324204  7712 net.cpp:110] Creating Layer relu7
I0817 13:18:14.324215  7712 net.cpp:477] relu7 <- fc7
I0817 13:18:14.324236  7712 net.cpp:419] relu7 -> fc7 (in-place)
I0817 13:18:14.324256  7712 net.cpp:155] Setting up relu7
I0817 13:18:14.324268  7712 net.cpp:163] Top shape: 40 4096 (163840)
I0817 13:18:14.324278  7712 layer_factory.hpp:76] Creating layer drop7
I0817 13:18:14.324295  7712 net.cpp:110] Creating Layer drop7
I0817 13:18:14.324306  7712 net.cpp:477] drop7 <- fc7
I0817 13:18:14.324318  7712 net.cpp:419] drop7 -> fc7 (in-place)
I0817 13:18:14.324334  7712 net.cpp:155] Setting up drop7
I0817 13:18:14.324347  7712 net.cpp:163] Top shape: 40 4096 (163840)
I0817 13:18:14.324357  7712 layer_factory.hpp:76] Creating layer latent_layer
I0817 13:18:14.324373  7712 net.cpp:110] Creating Layer latent_layer
I0817 13:18:14.324383  7712 net.cpp:477] latent_layer <- fc7
I0817 13:18:14.324396  7712 net.cpp:433] latent_layer -> latent_layer
I0817 13:18:14.329599  7712 net.cpp:155] Setting up latent_layer
I0817 13:18:14.329617  7712 net.cpp:163] Top shape: 40 48 (1920)
I0817 13:18:14.329632  7712 layer_factory.hpp:76] Creating layer encode_neuron
I0817 13:18:14.329645  7712 net.cpp:110] Creating Layer encode_neuron
I0817 13:18:14.329658  7712 net.cpp:477] encode_neuron <- latent_layer
I0817 13:18:14.329669  7712 net.cpp:433] encode_neuron -> encode_neuron
I0817 13:18:14.329685  7712 net.cpp:155] Setting up encode_neuron
I0817 13:18:14.329697  7712 net.cpp:163] Top shape: 40 48 (1920)
I0817 13:18:14.329707  7712 layer_factory.hpp:76] Creating layer encode_neuron_encode_neuron_0_split
I0817 13:18:14.329722  7712 net.cpp:110] Creating Layer encode_neuron_encode_neuron_0_split
I0817 13:18:14.329733  7712 net.cpp:477] encode_neuron_encode_neuron_0_split <- encode_neuron
I0817 13:18:14.329746  7712 net.cpp:433] encode_neuron_encode_neuron_0_split -> encode_neuron_encode_neuron_0_split_0
I0817 13:18:14.329763  7712 net.cpp:433] encode_neuron_encode_neuron_0_split -> encode_neuron_encode_neuron_0_split_1
I0817 13:18:14.329780  7712 net.cpp:433] encode_neuron_encode_neuron_0_split -> encode_neuron_encode_neuron_0_split_2
I0817 13:18:14.329797  7712 net.cpp:433] encode_neuron_encode_neuron_0_split -> encode_neuron_encode_neuron_0_split_3
I0817 13:18:14.329813  7712 net.cpp:155] Setting up encode_neuron_encode_neuron_0_split
I0817 13:18:14.329828  7712 net.cpp:163] Top shape: 40 48 (1920)
I0817 13:18:14.329838  7712 net.cpp:163] Top shape: 40 48 (1920)
I0817 13:18:14.329849  7712 net.cpp:163] Top shape: 40 48 (1920)
I0817 13:18:14.329860  7712 net.cpp:163] Top shape: 40 48 (1920)
I0817 13:18:14.329870  7712 layer_factory.hpp:76] Creating layer loss_beta
I0817 13:18:14.329882  7712 net.cpp:110] Creating Layer loss_beta
I0817 13:18:14.329893  7712 net.cpp:477] loss_beta <- encode_neuron_encode_neuron_0_split_0
I0817 13:18:14.329905  7712 net.cpp:477] loss_beta <- encode_neuron_encode_neuron_0_split_1
I0817 13:18:14.329916  7712 net.cpp:433] loss_beta -> loss: forcing-binary
I0817 13:18:14.329963  7712 net.cpp:155] Setting up loss_beta
I0817 13:18:14.329977  7712 net.cpp:163] Top shape: (1)
I0817 13:18:14.329985  7712 net.cpp:168]     with loss weight 1
I0817 13:18:14.330010  7712 layer_factory.hpp:76] Creating layer encode_neuron_reshape
I0817 13:18:14.330025  7712 net.cpp:110] Creating Layer encode_neuron_reshape
I0817 13:18:14.330036  7712 net.cpp:477] encode_neuron_reshape <- encode_neuron_encode_neuron_0_split_2
I0817 13:18:14.330049  7712 net.cpp:433] encode_neuron_reshape -> encode_neuron_reshape
I0817 13:18:14.330080  7712 net.cpp:155] Setting up encode_neuron_reshape
I0817 13:18:14.330092  7712 net.cpp:163] Top shape: 40 1 1 48 (1920)
I0817 13:18:14.330101  7712 layer_factory.hpp:76] Creating layer encode_neuron_avg
I0817 13:18:14.330114  7712 net.cpp:110] Creating Layer encode_neuron_avg
I0817 13:18:14.330126  7712 net.cpp:477] encode_neuron_avg <- encode_neuron_reshape
I0817 13:18:14.330138  7712 net.cpp:433] encode_neuron_avg -> encode_neuron_avg
I0817 13:18:14.330157  7712 net.cpp:155] Setting up encode_neuron_avg
I0817 13:18:14.330169  7712 net.cpp:163] Top shape: 40 1 1 1 (40)
I0817 13:18:14.330178  7712 layer_factory.hpp:76] Creating layer encode_neuron_avg_encode_neuron_avg_0_split
I0817 13:18:14.330190  7712 net.cpp:110] Creating Layer encode_neuron_avg_encode_neuron_avg_0_split
I0817 13:18:14.330201  7712 net.cpp:477] encode_neuron_avg_encode_neuron_avg_0_split <- encode_neuron_avg
I0817 13:18:14.330214  7712 net.cpp:433] encode_neuron_avg_encode_neuron_avg_0_split -> encode_neuron_avg_encode_neuron_avg_0_split_0
I0817 13:18:14.330229  7712 net.cpp:433] encode_neuron_avg_encode_neuron_avg_0_split -> encode_neuron_avg_encode_neuron_avg_0_split_1
I0817 13:18:14.330250  7712 net.cpp:155] Setting up encode_neuron_avg_encode_neuron_avg_0_split
I0817 13:18:14.330261  7712 net.cpp:163] Top shape: 40 1 1 1 (40)
I0817 13:18:14.330273  7712 net.cpp:163] Top shape: 40 1 1 1 (40)
I0817 13:18:14.330284  7712 layer_factory.hpp:76] Creating layer loss_gamma
I0817 13:18:14.330298  7712 net.cpp:110] Creating Layer loss_gamma
I0817 13:18:14.330318  7712 net.cpp:477] loss_gamma <- encode_neuron_avg_encode_neuron_avg_0_split_0
I0817 13:18:14.330332  7712 net.cpp:477] loss_gamma <- encode_neuron_avg_encode_neuron_avg_0_split_1
I0817 13:18:14.330345  7712 net.cpp:433] loss_gamma -> loss: 50%-fire-rate
I0817 13:18:14.330379  7712 net.cpp:155] Setting up loss_gamma
I0817 13:18:14.330392  7712 net.cpp:163] Top shape: (1)
I0817 13:18:14.330400  7712 net.cpp:168]     with loss weight 1
I0817 13:18:14.330413  7712 layer_factory.hpp:76] Creating layer fc8_classification
I0817 13:18:14.330430  7712 net.cpp:110] Creating Layer fc8_classification
I0817 13:18:14.330440  7712 net.cpp:477] fc8_classification <- encode_neuron_encode_neuron_0_split_3
I0817 13:18:14.330453  7712 net.cpp:433] fc8_classification -> fc8_classification
I0817 13:18:14.330519  7712 net.cpp:155] Setting up fc8_classification
I0817 13:18:14.330533  7712 net.cpp:163] Top shape: 40 10 (400)
I0817 13:18:14.330554  7712 layer_factory.hpp:76] Creating layer loss_alpha
I0817 13:18:14.330566  7712 net.cpp:110] Creating Layer loss_alpha
I0817 13:18:14.330577  7712 net.cpp:477] loss_alpha <- fc8_classification
I0817 13:18:14.330590  7712 net.cpp:477] loss_alpha <- label
I0817 13:18:14.330603  7712 net.cpp:433] loss_alpha -> loss: classfication-error
I0817 13:18:14.330622  7712 layer_factory.hpp:76] Creating layer loss_alpha
…
I0817 13:18:14.332196  7712 net.cpp:339] The NetState phase (1) differed from the phase (0) specified by a rule in layer data
I0817 13:18:14.332439  7712 net.cpp:50] Initializing net from parameters: 
name: "VGG_ILSVRC_16_layers"
state {
  phase: TEST
}
layer {
  name: "data"
  type: "Data"
  top: "data"
  top: "label"
  include {
    phase: TEST
  }
  transform_param {
    mirror: false
    crop_size: 224
    mean_file: "../caffe/data/ilsvrc12/imagenet_mean.binaryproto"
  }
  data_param {
    source: "../data/cifar-10/train-test-split/test_leveldb"
    batch_size: 50
  }
}
layer {
  name: "conv1_1"
  type: "Convolution"
  bottom: "data"
  top: "conv1_1"
  param {
    lr_mult: 1
    decay_mult: 1
  }
  param {
    lr_mult: 2
    decay_mult: 0
  }
  convolution_param {
    num_output: 64
    pad: 1
    kernel_size: 3
  }
}
layer {
  name: "relu1_1"
  type: "ReLU"
  bottom: "conv1_1"
  top: "conv1_1"
}
layer {
  name: "conv1_2"
  type: "Convolution"
  bottom: "conv1_1"
  top: "conv1_2"
  param {
    lr_mult: 1
    decay_mult: 1
  }
  param {
    lr_mult: 2
    decay_mult: 0
  }
  convolution_param {
    num_output: 64
    pad: 1
    kernel_size: 3
  }
}
layer {
  name: "relu1_2"
  type: "ReLU"
  bottom: "conv1_2"
  top: "conv1_2"
}
layer {
  name: "pool1"
  type: "Pooling"
  bottom: "conv1_2"
  top: "pool1"
  pooling_param {
    pool: MAX
    kernel_size: 2
    stride: 2
  }
}
layer {
  name: "conv2_1"
  type: "Convolution"
  bottom: "pool1"
  top: "conv2_1"
  param {
    lr_mult: 1
    decay_mult: 1
  }
  param {
    lr_mult: 2
    decay_mult: 0
  }
  convolution_param {
    num_output: 128
    pad: 1
    kernel_size: 3
  }
}
layer {
  name: "relu2_1"
  type: "ReLU"
  bottom: "conv2_1"
  top: "conv2_1"
}
layer {
  name: "conv2_2"
  type: "Convolution"
  bottom: "conv2_1"
  top: "conv2_2"
  param {
    lr_mult: 1
    decay_mult: 1
  }
  param {
    lr_mult: 2
    decay_mult: 0
  }
  convolution_param {
    num_output: 128
    pad: 1
    kernel_size: 3
  }
}
layer {
  name: "relu2_2"
  type: "ReLU"
  bottom: "conv2_2"
  top: "conv2_2"
}
layer {
  name: "pool2"
  type: "Pooling"
  bottom: "conv2_2"
  top: "pool2"
  pooling_param {
    pool: MAX
    kernel_size: 2
    stride: 2
  }
}
layer {
  name: "conv3_1"
  type: "Convolution"
  bottom: "pool2"
  top: "conv3_1"
  param {
    lr_mult: 1
    decay_mult: 1
  }
  param {
    lr_mult: 2
    decay_mult: 0
  }
  convolution_param {
    num_output: 256
    pad: 1
    kernel_size: 3
  }
}
layer {
  name: "relu3_1"
  type: "ReLU"
  bottom: "conv3_1"
  top: "conv3_1"
}
layer {
  name: "conv3_2"
  type: "Convolution"
  bottom: "conv3_1"
  top: "conv3_2"
  param {
    lr_mult: 1
    decay_mult: 1
  }
  param {
    lr_mult: 2
    decay_mult: 0
  }
  convolution_param {
    num_output: 256
    pad: 1
    kernel_size: 3
  }
}
layer {
  name: "relu3_2"
  type: "ReLU"
  bottom: "conv3_2"
  top: "conv3_2"
}
layer {
  name: "conv3_3"
  type: "Convolution"
  bottom: "conv3_2"
  top: "conv3_3"
  param {
    lr_mult: 1
    decay_mult: 1
  }
  param {
    lr_mult: 2
    decay_mult: 0
  }
  convolution_param {
    num_output: 256
    pad: 1
    kernel_size: 3
  }
}
layer {
  name: "relu3_3"
  type: "ReLU"
  bottom: "conv3_3"
  top: "conv3_3"
}
layer {
  name: "pool3"
  type: "Pooling"
  bottom: "conv3_3"
  top: "pool3"
  pooling_param {
    pool: MAX
    kernel_size: 2
    stride: 2
  }
}
layer {
  name: "conv4_1"
  type: "Convolution"
  bottom: "pool3"
  top: "conv4_1"
  param {
    lr_mult: 1
    decay_mult: 1
  }
  param {
    lr_mult: 2
    decay_mult: 0
  }
  convolution_param {
    num_output: 512
    pad: 1
    kernel_size: 3
  }
}
layer {
  name: "relu4_1"
  type: "ReLU"
  bottom: "conv4_1"
  top: "conv4_1"
}
layer {
  name: "conv4_2"
  type: "Convolution"
  bottom: "conv4_1"
  top: "conv4_2"
  param {
    lr_mult: 1
    decay_mult: 1
  }
  param {
    lr_mult: 2
    decay_mult: 0
  }
  convolution_param {
    num_output: 512
    pad: 1
    kernel_size: 3
  }
}
layer {
  name: "relu4_2"
  type: "ReLU"
  bottom: "conv4_2"
  top: "conv4_2"
}
layer {
  name: "conv4_3"
  type: "Convolution"
  bottom: "conv4_2"
  top: "conv4_3"
  param {
    lr_mult: 1
    decay_mult: 1
  }
  param {
    lr_mult: 2
    decay_mult: 0
  }
  convolution_param {
    num_output: 512
    pad: 1
    kernel_size: 3
  }
}
layer {
  name: "relu4_3"
  type: "ReLU"
  bottom: "conv4_3"
  top: "conv4_3"
}
layer {
  name: "pool4"
  type: "Pooling"
  bottom: "conv4_3"
  top: "pool4"
  pooling_param {
    pool: MAX
    kernel_size: 2
    stride: 2
  }
}
layer {
  name: "conv5_1"
  type: "Convolution"
  bottom: "pool4"
  top: "conv5_1"
  param {
    lr_mult: 1
    decay_mult: 0
  }
  param {
    lr_mult: 2
    decay_mult: 0
  }
  convolution_param {
    num_output: 512
    pad: 1
    kernel_size: 3
  }
}
layer {
  name: "relu5_1"
  type: "ReLU"
  bottom: "conv5_1"
  top: "conv5_1"
}
layer {
  name: "conv5_2"
  type: "Convolution"
  bottom: "conv5_1"
  top: "conv5_2"
  param {
    lr_mult: 1
    decay_mult: 1
  }
  param {
    lr_mult: 2
    decay_mult: 0
  }
  convolution_param {
    num_output: 512
    pad: 1
    kernel_size: 3
  }
}
layer {
  name: "relu5_2"
  type: "ReLU"
  bottom: "conv5_2"
  top: "conv5_2"
}
layer {
  name: "conv5_3"
  type: "Convolution"
  bottom: "conv5_2"
  top: "conv5_3"
  param {
    lr_mult: 1
    decay_mult: 1
  }
  param {
    lr_mult: 2
    decay_mult: 0
  }
  convolution_param {
    num_output: 512
    pad: 1
    kernel_size: 3
  }
}
layer {
  name: "relu5_3"
  type: "ReLU"
  bottom: "conv5_3"
  top: "conv5_3"
}
layer {
  name: "pool5"
  type: "Pooling"
  bottom: "conv5_3"
  top: "pool5"
  pooling_param {
    pool: MAX
    kernel_size: 2
    stride: 2
  }
}
layer {
  name: "fc6"
  type: "InnerProduct"
  bottom: "pool5"
  top: "fc6"
  param {
    lr_mult: 1
    decay_mult: 1
  }
  param {
    lr_mult: 2
    decay_mult: 0
  }
  inner_product_param {
    num_output: 4096
  }
}
layer {
  name: "relu6"
  type: "ReLU"
  bottom: "fc6"
  top: "fc6"
}
layer {
  name: "drop6"
  type: "Dropout"
  bottom: "fc6"
  top: "fc6"
  dropout_param {
    dropout_ratio: 0.5
  }
}
layer {
  name: "fc7"
  type: "InnerProduct"
  bottom: "fc6"
  top: "fc7"
  param {
    lr_mult: 1
    decay_mult: 1
  }
  param {
    lr_mult: 2
    decay_mult: 0
  }
  inner_product_param {
    num_output: 4096
  }
}
layer {
  name: "relu7"
  type: "ReLU"
  bottom: "fc7"
  top: "fc7"
}
layer {
  name: "drop7"
  type: "Dropout"
  bottom: "fc7"
  top: "fc7"
  dropout_param {
    dropout_ratio: 0.5
  }
}
layer {
  name: "latent_layer"
  type: "InnerProduct"
  bottom: "fc7"
  top: "latent_layer"
  param {
    lr_mult: 1
    decay_mult: 1
  }
  param {
    lr_mult: 2
    decay_mult: 0
  }
  inner_product_param {
    num_output: 48
    weight_filler {
      type: "gaussian"
      std: 0.005
    }
    bias_filler {
      type: "constant"
      value: 1
    }
  }
}
layer {
  name: "encode_neuron"
  type: "Sigmoid"
  bottom: "latent_layer"
  top: "encode_neuron"
}
layer {
  name: "loss_beta"
  type: "K1_EuclideanLoss"
  bottom: "encode_neuron"
  bottom: "encode_neuron"
  top: "loss: forcing-binary"
  loss_weight: 1
  propagate_down: true
  propagate_down: false
}
layer {
  name: "encode_neuron_reshape"
  type: "Reshape"
  bottom: "encode_neuron"
  top: "encode_neuron_reshape"
  reshape_param {
    shape {
      dim: 0
      dim: 1
      dim: 1
      dim: -1
    }
  }
}
layer {
  name: "encode_neuron_avg"
  type: "Pooling"
  bottom: "encode_neuron_reshape"
  top: "encode_neuron_avg"
  pooling_param {
    pool: AVE
    kernel_h: 1
    kernel_w: 48
  }
}
layer {
  name: "loss_gamma"
  type: "K2_EuclideanLoss"
  bottom: "encode_neuron_avg"
  bottom: "encode_neuron_avg"
  top: "loss: 50%-fire-rate"
  loss_weight: 1
  propagate_down: true
  propagate_down: false
}
layer {
  name: "fc8_classification"
  type: "InnerProduct"
  bottom: "encode_neuron"
  top: "fc8_classification"
  param {
    lr_mult: 10
    decay_mult: 1
  }
  param {
    lr_mult: 20
    decay_mult: 0
  }
  inner_product_param {
    num_output: 10
    weight_filler {
      type: "gaussian"
      std: 0.01
    }
    bias_filler {
      type: "constant"
      value: 0
    }
  }
}
layer {
  name: "loss_alpha"
  type: "SoftmaxWithLoss"
  bottom: "fc8_classification"
  bottom: "label"
  top: "loss: classfication-error"
  loss_weight: 1
}
layer {
  name: "accuracy"
  type: "Accuracy"
  bottom: "fc8_classification"
  bottom: "label"
  top: "accuracy"
  include {
    phase: TEST
  }
}
I0817 13:18:14.332712  7712 layer_factory.hpp:76] Creating layer data
I0817 13:18:14.332818  7712 net.cpp:110] Creating Layer data
I0817 13:18:14.332834  7712 net.cpp:433] data -> data
I0817 13:18:14.332850  7712 net.cpp:433] data -> label
I0817 13:18:14.332865  7712 data_transformer.cpp:23] Loading mean file from: ../caffe/data/ilsvrc12/imagenet_mean.binaryproto
I0817 13:18:14.429829  7732 db_leveldb.cpp:17] Opened leveldb ../data/cifar-10/train-test-split/test_leveldb
I0817 13:18:14.431663  7712 data_layer.cpp:44] output data size: 50,3,224,224
I0817 13:18:14.471125  7712 net.cpp:155] Setting up data
I0817 13:18:14.471163  7712 net.cpp:163] Top shape: 50 3 224 224 (7526400)
I0817 13:18:14.471175  7712 net.cpp:163] Top shape: 50 (50)
I0817 13:18:14.471186  7712 layer_factory.hpp:76] Creating layer label_data_1_split
I0817 13:18:14.471206  7712 net.cpp:110] Creating Layer label_data_1_split
I0817 13:18:14.471216  7712 net.cpp:477] label_data_1_split <- label
I0817 13:18:14.471231  7712 net.cpp:433] label_data_1_split -> label_data_1_split_0
I0817 13:18:14.471252  7712 net.cpp:433] label_data_1_split -> label_data_1_split_1
I0817 13:18:14.471271  7712 net.cpp:155] Setting up label_data_1_split
I0817 13:18:14.471287  7712 net.cpp:163] Top shape: 50 (50)
I0817 13:18:14.471299  7712 net.cpp:163] Top shape: 50 (50)
I0817 13:18:14.471309  7712 layer_factory.hpp:76] Creating layer conv1_1
I0817 13:18:14.471325  7712 net.cpp:110] Creating Layer conv1_1
I0817 13:18:14.471335  7712 net.cpp:477] conv1_1 <- data
I0817 13:18:14.471349  7712 net.cpp:433] conv1_1 -> conv1_1
I0817 13:18:14.471456  7712 net.cpp:155] Setting up conv1_1
I0817 13:18:14.471472  7712 net.cpp:163] Top shape: 50 64 224 224 (160563200)
I0817 13:18:14.471493  7712 layer_factory.hpp:76] Creating layer relu1_1
I0817 13:18:14.471506  7712 net.cpp:110] Creating Layer relu1_1
I0817 13:18:14.471516  7712 net.cpp:477] relu1_1 <- conv1_1
I0817 13:18:14.471529  7712 net.cpp:419] relu1_1 -> conv1_1 (in-place)
I0817 13:18:14.471557  7712 net.cpp:155] Setting up relu1_1
I0817 13:18:14.471572  7712 net.cpp:163] Top shape: 50 64 224 224 (160563200)
I0817 13:18:14.471583  7712 layer_factory.hpp:76] Creating layer conv1_2
I0817 13:18:14.471597  7712 net.cpp:110] Creating Layer conv1_2
I0817 13:18:14.471607  7712 net.cpp:477] conv1_2 <- conv1_1
I0817 13:18:14.471621  7712 net.cpp:433] conv1_2 -> conv1_2
I0817 13:18:14.472049  7712 net.cpp:155] Setting up conv1_2
I0817 13:18:14.472065  7712 net.cpp:163] Top shape: 50 64 224 224 (160563200)
I0817 13:18:14.472084  7712 layer_factory.hpp:76] Creating layer relu1_2
I0817 13:18:14.472098  7712 net.cpp:110] Creating Layer relu1_2
I0817 13:18:14.472110  7712 net.cpp:477] relu1_2 <- conv1_2
I0817 13:18:14.472122  7712 net.cpp:419] relu1_2 -> conv1_2 (in-place)
I0817 13:18:14.472137  7712 net.cpp:155] Setting up relu1_2
I0817 13:18:14.472151  7712 net.cpp:163] Top shape: 50 64 224 224 (160563200)
I0817 13:18:14.472162  7712 layer_factory.hpp:76] Creating layer pool1
I0817 13:18:14.472175  7712 net.cpp:110] Creating Layer pool1
I0817 13:18:14.472185  7712 net.cpp:477] pool1 <- conv1_2
I0817 13:18:14.472198  7712 net.cpp:433] pool1 -> pool1
I0817 13:18:14.472218  7712 net.cpp:155] Setting up pool1
I0817 13:18:14.472229  7712 net.cpp:163] Top shape: 50 64 112 112 (40140800)
I0817 13:18:14.472239  7712 layer_factory.hpp:76] Creating layer conv2_1
I0817 13:18:14.472252  7712 net.cpp:110] Creating Layer conv2_1
I0817 13:18:14.472264  7712 net.cpp:477] conv2_1 <- pool1
I0817 13:18:14.472275  7712 net.cpp:433] conv2_1 -> conv2_1
I0817 13:18:14.474831  7712 net.cpp:155] Setting up conv2_1
I0817 13:18:14.474853  7712 net.cpp:163] Top shape: 50 128 112 112 (80281600)
I0817 13:18:14.474874  7712 layer_factory.hpp:76] Creating layer relu2_1
I0817 13:18:14.474891  7712 net.cpp:110] Creating Layer relu2_1
I0817 13:18:14.474902  7712 net.cpp:477] relu2_1 <- conv2_1
I0817 13:18:14.474915  7712 net.cpp:419] relu2_1 -> conv2_1 (in-place)
I0817 13:18:14.474930  7712 net.cpp:155] Setting up relu2_1
I0817 13:18:14.474942  7712 net.cpp:163] Top shape: 50 128 112 112 (80281600)
I0817 13:18:14.474952  7712 layer_factory.hpp:76] Creating layer conv2_2
I0817 13:18:14.474966  7712 net.cpp:110] Creating Layer conv2_2
I0817 13:18:14.474974  7712 net.cpp:477] conv2_2 <- conv2_1
I0817 13:18:14.474987  7712 net.cpp:433] conv2_2 -> conv2_2
I0817 13:18:14.475113  7712 net.cpp:155] Setting up conv2_2
I0817 13:18:14.475128  7712 net.cpp:163] Top shape: 50 128 112 112 (80281600)
I0817 13:18:14.475143  7712 layer_factory.hpp:76] Creating layer relu2_2
I0817 13:18:14.475158  7712 net.cpp:110] Creating Layer relu2_2
I0817 13:18:14.475169  7712 net.cpp:477] relu2_2 <- conv2_2
I0817 13:18:14.475180  7712 net.cpp:419] relu2_2 -> conv2_2 (in-place)
I0817 13:18:14.475195  7712 net.cpp:155] Setting up relu2_2
I0817 13:18:14.475208  7712 net.cpp:163] Top shape: 50 128 112 112 (80281600)
I0817 13:18:14.475219  7712 layer_factory.hpp:76] Creating layer pool2
I0817 13:18:14.475234  7712 net.cpp:110] Creating Layer pool2
I0817 13:18:14.475244  7712 net.cpp:477] pool2 <- conv2_2
I0817 13:18:14.475256  7712 net.cpp:433] pool2 -> pool2
I0817 13:18:14.475275  7712 net.cpp:155] Setting up pool2
I0817 13:18:14.475291  7712 net.cpp:163] Top shape: 50 128 56 56 (20070400)
I0817 13:18:14.475301  7712 layer_factory.hpp:76] Creating layer conv3_1
I0817 13:18:14.475314  7712 net.cpp:110] Creating Layer conv3_1
I0817 13:18:14.475324  7712 net.cpp:477] conv3_1 <- pool2
I0817 13:18:14.475337  7712 net.cpp:433] conv3_1 -> conv3_1
I0817 13:18:14.475862  7712 net.cpp:155] Setting up conv3_1
I0817 13:18:14.475879  7712 net.cpp:163] Top shape: 50 256 56 56 (40140800)
I0817 13:18:14.475898  7712 layer_factory.hpp:76] Creating layer relu3_1
I0817 13:18:14.475911  7712 net.cpp:110] Creating Layer relu3_1
I0817 13:18:14.475922  7712 net.cpp:477] relu3_1 <- conv3_1
I0817 13:18:14.475935  7712 net.cpp:419] relu3_1 -> conv3_1 (in-place)
I0817 13:18:14.475950  7712 net.cpp:155] Setting up relu3_1
I0817 13:18:14.475963  7712 net.cpp:163] Top shape: 50 256 56 56 (40140800)
I0817 13:18:14.475986  7712 layer_factory.hpp:76] Creating layer conv3_2
I0817 13:18:14.476001  7712 net.cpp:110] Creating Layer conv3_2
I0817 13:18:14.476011  7712 net.cpp:477] conv3_2 <- conv3_1
I0817 13:18:14.476025  7712 net.cpp:433] conv3_2 -> conv3_2
I0817 13:18:14.477010  7712 net.cpp:155] Setting up conv3_2
I0817 13:18:14.477035  7712 net.cpp:163] Top shape: 50 256 56 56 (40140800)
I0817 13:18:14.477051  7712 layer_factory.hpp:76] Creating layer relu3_2
I0817 13:18:14.477066  7712 net.cpp:110] Creating Layer relu3_2
I0817 13:18:14.477077  7712 net.cpp:477] relu3_2 <- conv3_2
I0817 13:18:14.477090  7712 net.cpp:419] relu3_2 -> conv3_2 (in-place)
I0817 13:18:14.477107  7712 net.cpp:155] Setting up relu3_2
I0817 13:18:14.477119  7712 net.cpp:163] Top shape: 50 256 56 56 (40140800)
I0817 13:18:14.477129  7712 layer_factory.hpp:76] Creating layer conv3_3
I0817 13:18:14.477149  7712 net.cpp:110] Creating Layer conv3_3
I0817 13:18:14.477159  7712 net.cpp:477] conv3_3 <- conv3_2
I0817 13:18:14.477171  7712 net.cpp:433] conv3_3 -> conv3_3
I0817 13:18:14.478111  7712 net.cpp:155] Setting up conv3_3
I0817 13:18:14.478132  7712 net.cpp:163] Top shape: 50 256 56 56 (40140800)
I0817 13:18:14.478147  7712 layer_factory.hpp:76] Creating layer relu3_3
I0817 13:18:14.478160  7712 net.cpp:110] Creating Layer relu3_3
I0817 13:18:14.478173  7712 net.cpp:477] relu3_3 <- conv3_3
I0817 13:18:14.478186  7712 net.cpp:419] relu3_3 -> conv3_3 (in-place)
I0817 13:18:14.478202  7712 net.cpp:155] Setting up relu3_3
I0817 13:18:14.478214  7712 net.cpp:163] Top shape: 50 256 56 56 (40140800)
I0817 13:18:14.478225  7712 layer_factory.hpp:76] Creating layer pool3
I0817 13:18:14.478238  7712 net.cpp:110] Creating Layer pool3
I0817 13:18:14.478248  7712 net.cpp:477] pool3 <- conv3_3
I0817 13:18:14.478260  7712 net.cpp:433] pool3 -> pool3
I0817 13:18:14.478279  7712 net.cpp:155] Setting up pool3
I0817 13:18:14.478291  7712 net.cpp:163] Top shape: 50 256 28 28 (10035200)
I0817 13:18:14.478301  7712 layer_factory.hpp:76] Creating layer conv4_1
I0817 13:18:14.478315  7712 net.cpp:110] Creating Layer conv4_1
I0817 13:18:14.478325  7712 net.cpp:477] conv4_1 <- pool3
I0817 13:18:14.478338  7712 net.cpp:433] conv4_1 -> conv4_1
I0817 13:18:14.480177  7712 net.cpp:155] Setting up conv4_1
I0817 13:18:14.480207  7712 net.cpp:163] Top shape: 50 512 28 28 (20070400)
I0817 13:18:14.480226  7712 layer_factory.hpp:76] Creating layer relu4_1
I0817 13:18:14.480242  7712 net.cpp:110] Creating Layer relu4_1
I0817 13:18:14.480252  7712 net.cpp:477] relu4_1 <- conv4_1
I0817 13:18:14.480267  7712 net.cpp:419] relu4_1 -> conv4_1 (in-place)
I0817 13:18:14.480285  7712 net.cpp:155] Setting up relu4_1
I0817 13:18:14.480298  7712 net.cpp:163] Top shape: 50 512 28 28 (20070400)
I0817 13:18:14.480306  7712 layer_factory.hpp:76] Creating layer conv4_2
I0817 13:18:14.480321  7712 net.cpp:110] Creating Layer conv4_2
I0817 13:18:14.480331  7712 net.cpp:477] conv4_2 <- conv4_1
I0817 13:18:14.480343  7712 net.cpp:433] conv4_2 -> conv4_2
I0817 13:18:14.484171  7712 net.cpp:155] Setting up conv4_2
I0817 13:18:14.484210  7712 net.cpp:163] Top shape: 50 512 28 28 (20070400)
I0817 13:18:14.484236  7712 layer_factory.hpp:76] Creating layer relu4_2
I0817 13:18:14.484252  7712 net.cpp:110] Creating Layer relu4_2
I0817 13:18:14.484262  7712 net.cpp:477] relu4_2 <- conv4_2
I0817 13:18:14.484277  7712 net.cpp:419] relu4_2 -> conv4_2 (in-place)
I0817 13:18:14.484299  7712 net.cpp:155] Setting up relu4_2
I0817 13:18:14.484313  7712 net.cpp:163] Top shape: 50 512 28 28 (20070400)
I0817 13:18:14.484320  7712 layer_factory.hpp:76] Creating layer conv4_3
I0817 13:18:14.484334  7712 net.cpp:110] Creating Layer conv4_3
I0817 13:18:14.484344  7712 net.cpp:477] conv4_3 <- conv4_2
I0817 13:18:14.484355  7712 net.cpp:433] conv4_3 -> conv4_3
I0817 13:18:14.488251  7712 net.cpp:155] Setting up conv4_3
I0817 13:18:14.488291  7712 net.cpp:163] Top shape: 50 512 28 28 (20070400)
I0817 13:18:14.488311  7712 layer_factory.hpp:76] Creating layer relu4_3
I0817 13:18:14.488361  7712 net.cpp:110] Creating Layer relu4_3
I0817 13:18:14.488376  7712 net.cpp:477] relu4_3 <- conv4_3
I0817 13:18:14.488394  7712 net.cpp:419] relu4_3 -> conv4_3 (in-place)
I0817 13:18:14.488412  7712 net.cpp:155] Setting up relu4_3
I0817 13:18:14.488425  7712 net.cpp:163] Top shape: 50 512 28 28 (20070400)
I0817 13:18:14.488432  7712 layer_factory.hpp:76] Creating layer pool4
I0817 13:18:14.488445  7712 net.cpp:110] Creating Layer pool4
I0817 13:18:14.488454  7712 net.cpp:477] pool4 <- conv4_3
I0817 13:18:14.488466  7712 net.cpp:433] pool4 -> pool4
I0817 13:18:14.488487  7712 net.cpp:155] Setting up pool4
I0817 13:18:14.488498  7712 net.cpp:163] Top shape: 50 512 14 14 (5017600)
I0817 13:18:14.488507  7712 layer_factory.hpp:76] Creating layer conv5_1
I0817 13:18:14.488520  7712 net.cpp:110] Creating Layer conv5_1
I0817 13:18:14.488531  7712 net.cpp:477] conv5_1 <- pool4
I0817 13:18:14.488543  7712 net.cpp:433] conv5_1 -> conv5_1
I0817 13:18:14.492439  7712 net.cpp:155] Setting up conv5_1
I0817 13:18:14.492475  7712 net.cpp:163] Top shape: 50 512 14 14 (5017600)
I0817 13:18:14.492492  7712 layer_factory.hpp:76] Creating layer relu5_1
I0817 13:18:14.492508  7712 net.cpp:110] Creating Layer relu5_1
I0817 13:18:14.492519  7712 net.cpp:477] relu5_1 <- conv5_1
I0817 13:18:14.492534  7712 net.cpp:419] relu5_1 -> conv5_1 (in-place)
I0817 13:18:14.492555  7712 net.cpp:155] Setting up relu5_1
I0817 13:18:14.492568  7712 net.cpp:163] Top shape: 50 512 14 14 (5017600)
I0817 13:18:14.492578  7712 layer_factory.hpp:76] Creating layer conv5_2
I0817 13:18:14.492595  7712 net.cpp:110] Creating Layer conv5_2
I0817 13:18:14.492605  7712 net.cpp:477] conv5_2 <- conv5_1
I0817 13:18:14.492617  7712 net.cpp:433] conv5_2 -> conv5_2
I0817 13:18:14.496523  7712 net.cpp:155] Setting up conv5_2
I0817 13:18:14.496561  7712 net.cpp:163] Top shape: 50 512 14 14 (5017600)
I0817 13:18:14.496578  7712 layer_factory.hpp:76] Creating layer relu5_2
I0817 13:18:14.496594  7712 net.cpp:110] Creating Layer relu5_2
I0817 13:18:14.496605  7712 net.cpp:477] relu5_2 <- conv5_2
I0817 13:18:14.496619  7712 net.cpp:419] relu5_2 -> conv5_2 (in-place)
I0817 13:18:14.496641  7712 net.cpp:155] Setting up relu5_2
I0817 13:18:14.496654  7712 net.cpp:163] Top shape: 50 512 14 14 (5017600)
I0817 13:18:14.496664  7712 layer_factory.hpp:76] Creating layer conv5_3
I0817 13:18:14.496680  7712 net.cpp:110] Creating Layer conv5_3
I0817 13:18:14.496691  7712 net.cpp:477] conv5_3 <- conv5_2
I0817 13:18:14.496703  7712 net.cpp:433] conv5_3 -> conv5_3
I0817 13:18:14.500561  7712 net.cpp:155] Setting up conv5_3
I0817 13:18:14.500608  7712 net.cpp:163] Top shape: 50 512 14 14 (5017600)
I0817 13:18:14.500627  7712 layer_factory.hpp:76] Creating layer relu5_3
I0817 13:18:14.500643  7712 net.cpp:110] Creating Layer relu5_3
I0817 13:18:14.500653  7712 net.cpp:477] relu5_3 <- conv5_3
I0817 13:18:14.500668  7712 net.cpp:419] relu5_3 -> conv5_3 (in-place)
I0817 13:18:14.500690  7712 net.cpp:155] Setting up relu5_3
I0817 13:18:14.500704  7712 net.cpp:163] Top shape: 50 512 14 14 (5017600)
I0817 13:18:14.500716  7712 layer_factory.hpp:76] Creating layer pool5
I0817 13:18:14.500738  7712 net.cpp:110] Creating Layer pool5
I0817 13:18:14.500748  7712 net.cpp:477] pool5 <- conv5_3
I0817 13:18:14.500761  7712 net.cpp:433] pool5 -> pool5
I0817 13:18:14.500783  7712 net.cpp:155] Setting up pool5
I0817 13:18:14.500794  7712 net.cpp:163] Top shape: 50 512 7 7 (1254400)
I0817 13:18:14.500804  7712 layer_factory.hpp:76] Creating layer fc6
I0817 13:18:14.500819  7712 net.cpp:110] Creating Layer fc6
I0817 13:18:14.500828  7712 net.cpp:477] fc6 <- pool5
I0817 13:18:14.500841  7712 net.cpp:433] fc6 -> fc6
I0817 13:18:14.660230  7712 net.cpp:155] Setting up fc6
I0817 13:18:14.660272  7712 net.cpp:163] Top shape: 50 4096 (204800)
I0817 13:18:14.660291  7712 layer_factory.hpp:76] Creating layer relu6
I0817 13:18:14.660306  7712 net.cpp:110] Creating Layer relu6
I0817 13:18:14.660317  7712 net.cpp:477] relu6 <- fc6
I0817 13:18:14.660331  7712 net.cpp:419] relu6 -> fc6 (in-place)
I0817 13:18:14.660353  7712 net.cpp:155] Setting up relu6
I0817 13:18:14.660382  7712 net.cpp:163] Top shape: 50 4096 (204800)
I0817 13:18:14.660393  7712 layer_factory.hpp:76] Creating layer drop6
I0817 13:18:14.660406  7712 net.cpp:110] Creating Layer drop6
I0817 13:18:14.660418  7712 net.cpp:477] drop6 <- fc6
I0817 13:18:14.660429  7712 net.cpp:419] drop6 -> fc6 (in-place)
I0817 13:18:14.660449  7712 net.cpp:155] Setting up drop6
I0817 13:18:14.660461  7712 net.cpp:163] Top shape: 50 4096 (204800)
I0817 13:18:14.660471  7712 layer_factory.hpp:76] Creating layer fc7
I0817 13:18:14.660488  7712 net.cpp:110] Creating Layer fc7
I0817 13:18:14.660500  7712 net.cpp:477] fc7 <- fc6
I0817 13:18:14.660512  7712 net.cpp:433] fc7 -> fc7
I0817 13:18:14.685999  7712 net.cpp:155] Setting up fc7
I0817 13:18:14.686039  7712 net.cpp:163] Top shape: 50 4096 (204800)
I0817 13:18:14.686058  7712 layer_factory.hpp:76] Creating layer relu7
I0817 13:18:14.686075  7712 net.cpp:110] Creating Layer relu7
I0817 13:18:14.686086  7712 net.cpp:477] relu7 <- fc7
I0817 13:18:14.686102  7712 net.cpp:419] relu7 -> fc7 (in-place)
I0817 13:18:14.686121  7712 net.cpp:155] Setting up relu7
I0817 13:18:14.686133  7712 net.cpp:163] Top shape: 50 4096 (204800)
I0817 13:18:14.686143  7712 layer_factory.hpp:76] Creating layer drop7
I0817 13:18:14.686159  7712 net.cpp:110] Creating Layer drop7
I0817 13:18:14.686169  7712 net.cpp:477] drop7 <- fc7
I0817 13:18:14.686182  7712 net.cpp:419] drop7 -> fc7 (in-place)
I0817 13:18:14.686198  7712 net.cpp:155] Setting up drop7
I0817 13:18:14.686211  7712 net.cpp:163] Top shape: 50 4096 (204800)
I0817 13:18:14.686220  7712 layer_factory.hpp:76] Creating layer latent_layer
I0817 13:18:14.686236  7712 net.cpp:110] Creating Layer latent_layer
I0817 13:18:14.686246  7712 net.cpp:477] latent_layer <- fc7
I0817 13:18:14.686259  7712 net.cpp:433] latent_layer -> latent_layer
I0817 13:18:14.691427  7712 net.cpp:155] Setting up latent_layer
I0817 13:18:14.691443  7712 net.cpp:163] Top shape: 50 48 (2400)
I0817 13:18:14.691458  7712 layer_factory.hpp:76] Creating layer encode_neuron
I0817 13:18:14.691473  7712 net.cpp:110] Creating Layer encode_neuron
I0817 13:18:14.691483  7712 net.cpp:477] encode_neuron <- latent_layer
I0817 13:18:14.691496  7712 net.cpp:433] encode_neuron -> encode_neuron
I0817 13:18:14.691514  7712 net.cpp:155] Setting up encode_neuron
I0817 13:18:14.691527  7712 net.cpp:163] Top shape: 50 48 (2400)
I0817 13:18:14.691536  7712 layer_factory.hpp:76] Creating layer encode_neuron_encode_neuron_0_split
I0817 13:18:14.691552  7712 net.cpp:110] Creating Layer encode_neuron_encode_neuron_0_split
I0817 13:18:14.691563  7712 net.cpp:477] encode_neuron_encode_neuron_0_split <- encode_neuron
I0817 13:18:14.691576  7712 net.cpp:433] encode_neuron_encode_neuron_0_split -> encode_neuron_encode_neuron_0_split_0
I0817 13:18:14.691591  7712 net.cpp:433] encode_neuron_encode_neuron_0_split -> encode_neuron_encode_neuron_0_split_1
I0817 13:18:14.691607  7712 net.cpp:433] encode_neuron_encode_neuron_0_split -> encode_neuron_encode_neuron_0_split_2
I0817 13:18:14.691623  7712 net.cpp:433] encode_neuron_encode_neuron_0_split -> encode_neuron_encode_neuron_0_split_3
I0817 13:18:14.691640  7712 net.cpp:155] Setting up encode_neuron_encode_neuron_0_split
I0817 13:18:14.691653  7712 net.cpp:163] Top shape: 50 48 (2400)
I0817 13:18:14.691663  7712 net.cpp:163] Top shape: 50 48 (2400)
I0817 13:18:14.691676  7712 net.cpp:163] Top shape: 50 48 (2400)
I0817 13:18:14.691686  7712 net.cpp:163] Top shape: 50 48 (2400)
I0817 13:18:14.691696  7712 layer_factory.hpp:76] Creating layer loss_beta
I0817 13:18:14.691709  7712 net.cpp:110] Creating Layer loss_beta
I0817 13:18:14.691720  7712 net.cpp:477] loss_beta <- encode_neuron_encode_neuron_0_split_0
I0817 13:18:14.691731  7712 net.cpp:477] loss_beta <- encode_neuron_encode_neuron_0_split_1
I0817 13:18:14.691743  7712 net.cpp:433] loss_beta -> loss: forcing-binary
I0817 13:18:14.691781  7712 net.cpp:155] Setting up loss_beta
I0817 13:18:14.691793  7712 net.cpp:163] Top shape: (1)
I0817 13:18:14.691802  7712 net.cpp:168]     with loss weight 1
I0817 13:18:14.691833  7712 layer_factory.hpp:76] Creating layer encode_neuron_reshape
I0817 13:18:14.691848  7712 net.cpp:110] Creating Layer encode_neuron_reshape
I0817 13:18:14.691859  7712 net.cpp:477] encode_neuron_reshape <- encode_neuron_encode_neuron_0_split_2
I0817 13:18:14.691871  7712 net.cpp:433] encode_neuron_reshape -> encode_neuron_reshape
I0817 13:18:14.691893  7712 net.cpp:155] Setting up encode_neuron_reshape
I0817 13:18:14.691905  7712 net.cpp:163] Top shape: 50 1 1 48 (2400)
I0817 13:18:14.691915  7712 layer_factory.hpp:76] Creating layer encode_neuron_avg
I0817 13:18:14.691927  7712 net.cpp:110] Creating Layer encode_neuron_avg
I0817 13:18:14.691937  7712 net.cpp:477] encode_neuron_avg <- encode_neuron_reshape
I0817 13:18:14.691951  7712 net.cpp:433] encode_neuron_avg -> encode_neuron_avg
I0817 13:18:14.691972  7712 net.cpp:155] Setting up encode_neuron_avg
I0817 13:18:14.691985  7712 net.cpp:163] Top shape: 50 1 1 1 (50)
I0817 13:18:14.691994  7712 layer_factory.hpp:76] Creating layer encode_neuron_avg_encode_neuron_avg_0_split
I0817 13:18:14.692006  7712 net.cpp:110] Creating Layer encode_neuron_avg_encode_neuron_avg_0_split
I0817 13:18:14.692018  7712 net.cpp:477] encode_neuron_avg_encode_neuron_avg_0_split <- encode_neuron_avg
I0817 13:18:14.692030  7712 net.cpp:433] encode_neuron_avg_encode_neuron_avg_0_split -> encode_neuron_avg_encode_neuron_avg_0_split_0
I0817 13:18:14.692045  7712 net.cpp:433] encode_neuron_avg_encode_neuron_avg_0_split -> encode_neuron_avg_encode_neuron_avg_0_split_1
I0817 13:18:14.692061  7712 net.cpp:155] Setting up encode_neuron_avg_encode_neuron_avg_0_split
I0817 13:18:14.692075  7712 net.cpp:163] Top shape: 50 1 1 1 (50)
I0817 13:18:14.692086  7712 net.cpp:163] Top shape: 50 1 1 1 (50)
I0817 13:18:14.692098  7712 layer_factory.hpp:76] Creating layer loss_gamma
I0817 13:18:14.692112  7712 net.cpp:110] Creating Layer loss_gamma
I0817 13:18:14.692123  7712 net.cpp:477] loss_gamma <- encode_neuron_avg_encode_neuron_avg_0_split_0
I0817 13:18:14.692134  7712 net.cpp:477] loss_gamma <- encode_neuron_avg_encode_neuron_avg_0_split_1
I0817 13:18:14.692147  7712 net.cpp:433] loss_gamma -> loss: 50%-fire-rate
I0817 13:18:14.692183  7712 net.cpp:155] Setting up loss_gamma
I0817 13:18:14.692196  7712 net.cpp:163] Top shape: (1)
I0817 13:18:14.692204  7712 net.cpp:168]     with loss weight 1
I0817 13:18:14.692219  7712 layer_factory.hpp:76] Creating layer fc8_classification
I0817 13:18:14.692234  7712 net.cpp:110] Creating Layer fc8_classification
I0817 13:18:14.692245  7712 net.cpp:477] fc8_classification <- encode_neuron_encode_neuron_0_split_3
I0817 13:18:14.692257  7712 net.cpp:433] fc8_classification -> fc8_classification
I0817 13:18:14.692329  7712 net.cpp:155] Setting up fc8_classification
I0817 13:18:14.692343  7712 net.cpp:163] Top shape: 50 10 (500)
I0817 13:18:14.692364  7712 layer_factory.hpp:76] Creating layer fc8_classification_fc8_classification_0_split
I0817 13:18:14.692376  7712 net.cpp:110] Creating Layer fc8_classification_fc8_classification_0_split
I0817 13:18:14.692385  7712 net.cpp:477] fc8_classification_fc8_classification_0_split <- fc8_classification
I0817 13:18:14.692397  7712 net.cpp:433] fc8_classification_fc8_classification_0_split -> fc8_classification_fc8_classification_0_split_0
I0817 13:18:14.692412  7712 net.cpp:433] fc8_classification_fc8_classification_0_split -> fc8_classification_fc8_classification_0_split_1
I0817 13:18:14.692430  7712 net.cpp:155] Setting up fc8_classification_fc8_classification_0_split
I0817 13:18:14.692442  7712 net.cpp:163] Top shape: 50 10 (500)
I0817 13:18:14.692454  7712 net.cpp:163] Top shape: 50 10 (500)
I0817 13:18:14.692466  7712 layer_factory.hpp:76] Creating layer loss_alpha
I0817 13:18:14.692477  7712 net.cpp:110] Creating Layer loss_alpha
I0817 13:18:14.692488  7712 net.cpp:477] loss_alpha <- fc8_classification_fc8_classification_0_split_0
I0817 13:18:14.692499  7712 net.cpp:477] loss_alpha <- label_data_1_split_0
I0817 13:18:14.692512  7712 net.cpp:433] loss_alpha -> loss: classfication-error
…
